1/trained_models/tetris_auto_9000.pt (torch, 61767 bytes, 15 tensors)

conv1.0.weight f4 [64, 4]
0.075489156 -0.83372396 0.24954824 -0.116321065 0.08547951 -0.29013562 0.09340377 0.12411886
-0.092962176 -0.16416855 -0.21049409 -0.030349374 0.014314232 -0.3103592 -0.04884938 0.04585032
0.028024798 -0.06700397 -0.1339222 0.11049554 -0.17020415 -0.19868156 -0.21900597 0.19207335
0.3931126 0.23385109 -0.40815023 -0.04405888 0.15809584 0.12175387 -0.1037631 -0.27480757
-0.11769742 0.074366 -0.06478988 -0.22563736 -0.7410208 0.3207976 0.32018942 -0.21809809
0.26821613 0.10847312 -0.004992187 -0.28084266 -0.037091583 0.04954487 -0.11015327 -0.21389788
-0.21671568 -0.7234594 0.4511026 -0.32610077 0.7019481 0.22312872 -0.3739518 0.05350552
0.095838875 0.123883545 0.2439045 -0.5145984 -0.049144983 0.06846908 0.12632155 -0.27236894
0.01184346 0.15952963 0.04452824 0.0063368985 0.17771354 0.13902223 0.010749012 -0.1243383
-0.12391998 -0.0074680457 0.20305082 0.15053375 0.11709856 0.10507522 -0.024510503 0.057206873
-0.09910408 -0.881321 0.16236956 0.06243131 0.28475794 -0.5782407 -0.27914813 0.11764428
1.5410542 -0.16871859 0.48295504 -0.23958682 -0.17754148 0.60027593 -0.0095962165 -0.043778554
-0.24935469 0.11320787 -0.036839835 0.17506726 -0.052309543 0.16836384 0.058269344 0.049704257
0.010348963 -0.2631441 -0.16718747 0.06718265 0.1917273 0.365896 0.04109507 -0.01323343
0.115670234 0.13505082 -0.13019384 0.07670155 0.34924728 -0.051384207 -0.46300715 0.08260372
0.07613921 -0.8673327 0.24212305 -0.11976679 0.20809716 0.293656 -0.12699255 -0.24184352
-0.34871337 0.9723832 0.14535242 -0.17137314 0.02081007 0.01553899 -0.017979207 0.061599605
-0.026307657 -0.13074055 -0.08905893 0.017409561 -0.112643816 0.9003925 0.079519354 -0.10726569
-0.10930048 0.26177406 -0.0011205375 -0.2415659 0.22200143 -0.17774945 -0.25798282 -0.080296144
0.24180216 0.20466211 0.10730222 -0.23565936 0.016739555 -0.26081067 0.08764573 0.040429864
-0.58806086 0.55686754 0.5782748 -0.14558451 -0.38804445 0.09768331 0.0030235678 0.05671315
-0.21221957 -0.1496569 -0.079839095 0.045000546 -0.0040907483 -0.3187507 -0.032977954 0.06803346
-0.23990816 -0.04402694 -0.044556886 -0.29353172 -0.037372865 -0.4541416 -0.07749951 0.06545783
-0.13659032 -0.08317981 -0.099942006 0.090948336 0.5651288 0.35322493 0.47422585 -0.438664
0.10886949 -0.058968194 0.18727873 -0.48279878 -0.39387435 0.049762804 0.18350463 0.1624507
-0.28817603 -0.077052265 0.008144528 -0.10780506 -0.12627131 -0.4456735 0.088842824 0.031550813
-0.026683563 0.56149054 -0.17054302 -0.011212388 0.14965719 0.05159217 0.09776208 -0.2680719
-0.15507498 0.16600496 0.119311035 -0.29382178 -0.51812613 0.064625956 0.07613746 0.0020626686
-0.14602827 -0.08144108 -0.082388066 0.055685338 -0.19656855 0.2618473 0.21095495 -0.036836997
0.12841865 0.042685658 -0.17469187 -0.06628561 0.16823244 0.24458694 0.08063549 -0.26587936
-0.23750533 -0.13777138 -0.25360256 0.20435813 0.17219481 -0.012750477 -0.17595829 -0.08334187
-0.296232 -0.6061918 0.2881266 0.11769726 -0.027263997 0.34698275 0.06429049 -0.007862224
00000000: 0f9a 9a3d ef6e 55bf 9389 7f3e bd39 eebd
00000010: e20f af3d a88c 94be 7a4a bf3d 0732 fe3d
00000020: f462 bebd cd1b 28be c38b 57be 409f f8bc
00000030: 3e86 6a3c 67e7 9ebe 4a16 48bd 8ccd 3b3d
00000040: 4394 e53c 6139 89bd e722 09be 7c4b e23d
00000050: ff49 2ebe 2e73 4bbe 1a43 60be e0ae 443e
00000060: 0e46 c93e a976 6f3e 11f9 d0be 1677 34bd
00000070: e0e3 213e 185a f93d c081 d4bd 94b3 8cbe
00000080: 580b f1bd 344d 983d 8eb0 84bd 7b0d 67be
00000090: 8ab3 3dbf 953f a43e deef a33e 1b55 5fbe
000000a0: a053 893e 2827 de3d 8095 a3bb 9cca 8fbe
000000b0: 58ed 17bd 90ef 4a3d 0a98 e1bd 0c08 5bbe
000000c0: b7ea 5dbe a334 39bf ecf6 e63e aef6 a6be
000000d0: dfb2 333f db7b 643e 9c76 bfbe 9b28 5b3d
000000e0: 2c47 c43d a8b6 fd3d 1ac2 793e b9bc 03bf
000000f0: 404c 49bd 8439 8c3d 705a 013e f173 8bbe
00000100: 120b 423c bc5b 233e 3e63 363d c2a5 cf3b
00000110: 8afa 353e d85b 0e3e a01c 303c 14a5 febd
00000120: c2c9 fdbd 82b6 f4bb 8eec 4f3e 8525 1a3e
00000130: 5fd1 ef3d ad31 d73d 40ca c8bc c151 6a3d
00000140: 14f7 cabd 419e 61bf 3544 263e f9b7 7f3d
00000150: cbcb 913e 9507 14bf 81ec 8ebe 7cef f03d
00000160: 4441 c53f 91c4 2cbe e245 f73e 3f56 75be
00000170: 6fcd 35be afab 193f 7339 1dbc 2451 33bd
00000180: d656 7fbe 87d9 e73d 5ee5 16bd d544 333e
00000190: 8842 56bd 9267 2c3e d6ab 6e3d b196 4b3d
000001a0: b28e 293c d3ba 86be 3133 2bbe 0f97 893d
000001b0: 2954 443e b856 bb3e 4e53 283d 07d1 58bc
000001c0: 84e4 ec3d c34a 0a3e 8951 05be b415 9d3d
000001d0: 8ad0 b23e 3f78 52bd 460f edbe 242c a93d
000001e0: e0ee 9b3d 8409 5ebf 1bef 773e 4a48 f5bd
000001f0: 6c17 553e 145a 963e 560a 02be d4a5 77be
00000200: 8f8a b2be 1bee 783f 44d7 143e 717c 2fbe
00000210: e179 aa3c 3f97 7e3c 2149 93bc de4f 7c3d
00000220: 2883 d7bc dae0 05be 8764 b6bd 7f9e 8e3c
00000230: cdb1 e6bd 1f80 663f 0bdb a23d 1dae dbbd
00000240: eed8 dfbd 4007 863e 00df 92ba 0d5d 77be
00000250: 5854 633e f403 36be 5316 84be 4e72 a4bd
00000260: fc9a 773e f292 513e 44c1 db3d b050 71be
00000270: 6421 893c fa88 85be 9b7f b33d c999 253d
00000280: 288b 16bf df8e 0e3f d109 143f 1b14 15be
00000290: c3ad c6be 300e c83d 0d27 463b 0c4c 683d
000002a0: 1650 59be a93f 19be ae82 a3bd 7e52 383d
000002b0: af0b 86bb 4b33 a3be e413 07bd 2055 8b3d
000002c0: 7caa 75be 9855 34bd 4881 36bd ca49 96be
000002d0: 4a14 19bd 3f85 e8be 10b8 9ebd c10e 863d
000002e0: 55de 0bbe 2d5a aabd 65ae ccbd 1f43 ba3d
000002f0: 48ac 103f e6d9 b43e bbcd f23e 9198 e0be
00000300: f8f6 de3d a288 71bd ffc5 3f3e 6731 f7be
00000310: e6a9 c9be 15d4 4b3d a3e8 3b3e 7a59 263e
00000320: cf8b 93be 94cd 9dbd a070 053c e6c8 dcbd
00000330: 444d 01be 512f e4be 3af3 b53d 6d3b 013d
00000340: 7d97 dabc d8bd 0f3f d4a2 2ebe 2ab4 37bc
00000350: bc3f 193e 5052 533d 7c37 c83d b840 89be
00000360: facb 1ebe 34fd 293e 5859 f43d cf6f 96be
00000370: eaa3 04bf 9d5a 843d f5ed 9b3d d62d 073b
00000380: 6f88 15be 95ca a6bd 13bb a8bd 4f16 643d
00000390: 4449 49be d910 863e 9304 583e 64e2 16bd
000003a0: 2e80 033e 28d7 2e3d 6de2 32be c0c0 87bd
000003b0: 2045 2c3e 0075 7a3e 3824 a53d 5721 88be
000003c0: 9934 73be f113 0dbe 32d8 81be 4243 513e
000003d0: d653 303e 60e7 50bc 692e 34be 24af aabd
000003e0: b9ab 97be 632f 1bbf 5485 933e 430b f13d
000003f0: bf58 dfbc b9a7 b13e bbaa 833d 8fd0 00bc

conv1.0.bias f4 [64]
0.6617265 1.2303386 0.0 1.7659893 -2.620088 1.7495228 0.79367846 0.0
0.0 0.8763768 0.0 0.0 0.88925964 2.0287569 0.54946256 0.0
-2.6945667 0.0 -2.0210116 -2.3146274 -2.1504028 -2.3923461 0.7646713 -0.77822465
-1.7855603 -1.9455408 1.5248235 2.0394971 1.4922802 1.7172287 0.84291005 0.0
0.9935082 -2.1901534 1.9186969 0.25221452 0.0 0.0 -0.0364805 1.6733851
0.59317493 0.95996845 1.9049473 -2.6386693 0.0 1.7105182 -2.2789714 -0.12386988
0.805844 -2.0557082 0.0 1.9790088 -2.067605 0.0 0.0 -1.5910249
2.128978 1.7948078 0.0 0.0 1.4894335 0.0 -2.1133456 -2.7946994
00000000: e866 293f bc7b 9d3f 0000 0000 f00b e23f
00000010: 86af 27c0 5df0 df3f 832e 4b3f 0000 0000
00000020: 0000 0000 3b5a 603f 0000 0000 0000 0000
00000030: 85a6 633f 27d7 0140 94a9 0c3f 0000 0000
00000040: c873 2cc0 0000 0000 4158 01c0 db22 14c0
00000050: 33a0 09c0 331c 19c0 80c1 433f bb39 47bf
00000060: 3d8d e4bf 7b07 f9bf 6b2d c33f 1f87 0240
00000070: 0a03 bf3f 26ce db3f f4c8 573f 0000 0000
00000080: 8e56 7e3f 792b 0cc0 dc97 f53f 4322 813e
00000090: 0000 0000 0000 0000 946c 15bd 7c31 d63f
000000a0: 50da 173f 7ec0 753f 50d5 f33f f5df 28c0
000000b0: 0000 0000 43f2 da3f abda 11c0 7eaf fdbd
000000c0: cb4b 4e3f b990 03c0 0000 0000 2950 fd3f
000000d0: a453 04c0 0000 0000 0000 0000 b4a6 cbbf
000000e0: 2d41 0840 43bc e53f 0000 0000 0000 0000
000000f0: c2a5 be3f 0000 0000 0e41 07c0 5bdc 32c0

conv2.0.weight f4 [64, 64]
-0.1617849 -0.09308363 -0.1899781 -0.015285715 -0.0382642 0.101057634 0.21054466 0.021081716
0.19679974 -0.19070819 -0.0702848 0.15775792 -0.051899165 -0.21316494 0.0052892566 -0.10265676
0.072507545 0.18046014 -0.15252012 0.07645826 -0.10754073 0.090963975 -0.15415755 -0.14104757
0.09138568 -0.14532527 -0.000626117 -0.12603337 0.12574829 -0.15814182 0.08963792 0.11353515
0.12011449 -0.060312286 0.18885897 -0.12912062 -0.027642563 -0.11760656 0.075798884 0.015129104
0.089570835 -0.21186112 -0.19077684 -0.12913951 0.2026019 0.16275667 -0.09978307 0.086327806
-0.069574 0.092821375 -0.1833332 -0.11448094 0.1298077 0.12367882 0.19946699 0.0050761253
0.21492882 -0.13031608 0.06424852 0.012872785 -0.1679467 -0.1099946 -0.10027608 0.07850833
0.3517413 0.11006474 -0.19691683 -0.004489365 0.1421518 -0.43657133 -0.2376043 -0.17625096
0.09968774 0.5453315 -0.056272 0.20816953 0.8354763 -0.74851936 -1.3372068 0.020641953
-0.33382612 0.15424158 -0.5575225 -0.09072859 0.668919 -0.10377805 0.65258384 -0.8099702
-1.4628872 -0.6972366 -0.3328565 -0.21311446 -0.404102 -0.8699619 0.56417817 -0.13579361
0.34676543 0.12976058 -0.14275774 -0.29076952 0.11521636 0.05208607 -0.012646407 -0.04715184
0.16545165 -0.27143157 -0.18940046 -0.10373682 -0.011994585 0.07910555 0.14783064 1.196196
-0.9621358 -0.5237623 0.03205207 -0.07794231 0.0018897377 0.16886087 0.12245281 -0.5595509
-0.15894805 -0.046597093 -0.09176816 -0.063781425 -0.55035806 0.08621912 -0.11951158 -0.15026765
0.06632062 -0.014247872 0.123826936 0.705607 -0.38057393 0.246363 -0.5711491 0.017507479
0.056876197 -1.2207962 0.18207605 0.17844258 -1.950608 0.37637174 -0.48413435 -0.19988434
-0.605129 0.16789363 -0.013127526 -0.2519988 -1.6596636 -0.39210972 -2.0685356 -0.21987368
-0.14031422 -0.29361165 0.109500125 0.16275415 0.21118735 0.4703075 0.5093671 0.09137423
-1.6869961 -0.77677536 0.8678045 -1.6122174 -0.16527742 -0.1564979 0.073879376 0.53734505
-1.0203365 0.14233632 0.41662344 -0.3492271 0.083308354 0.9102623 -0.071435824 -0.829254
-0.55993617 -0.011817372 -0.09018983 0.15410638 -1.0118775 0.071337774 -0.04547514 -0.16234094
0.35210523 0.37368727 -0.00965032 -0.21579166 0.425683 0.06907733 0.17084973 -1.9174863
0.76819575 -0.0015095688 -0.077780694 0.20727374 -0.23895155 0.011677629 -0.0005527292 0.09111999
-0.09233179 0.13106129 -0.10195881 -0.17817834 -1.275835 -0.12371956 -0.48357147 -0.045710832
-0.09611538 -0.08003268 0.08185302 -0.081578866 -0.73897874 -0.38402683 -0.24618246 0.1762709
0.17084049 0.07605659 -0.0822065 0.6966251 -0.022969594 0.25649664 0.9449357 0.11003913
0.23372148 -0.10826779 0.8073531 0.19913389 0.031385332 0.12705745 0.11499472 0.021456776
0.15889594 -0.07526708 0.65997016 -0.28977 0.15387107 0.6425716 -0.21709205 0.86537606
-0.64756626 -0.078862675 0.21644045 0.18371388 -0.011632153 -0.118149415 -0.17822488 0.012192195
0.13570496 0.34596667 0.1131217 0.09296693 0.05099657 -0.15387374 0.19306114 -0.31355315
00000000: f1aa 25be a1a2 bebd 9e89 42be f070 7abc
00000010: ecba 1cbd 4ef7 ce3d 0599 573e 90b3 ac3c
00000020: df85 493e 0249 43be 7af1 8fbd 4b8b 213e
00000030: 3894 54bd e947 5abe 8051 ad3b b53d d2bd
00000040: d67e 943d 8bca 383e 3c2e 1cbe 2696 9c3d
00000050: 503e dcbd 524b ba3d 7adb 1dbe c66e 10be
00000060: 6a28 bb3d 26d0 14be 0022 24ba e40e 01be
00000070: 29c4 003e eeef 21be 1694 b73d 1e85 e83d
00000080: 96fe f53d 040a 77bd 3f64 413e 3238 04be
00000090: a872 e2bc b5db f0bd 723c 9b3d 10e0 773c
000000a0: ea70 b73d 1ff2 58be 015b 43be 263d 04be
000000b0: df76 4f3e afa9 263e 115b ccbd a2cc b03d
000000c0: d07c 8ebd 2219 be3d b3bb 3bbe fc74 eabd
000000d0: 4fec 043e 524b fd3d 1341 4c3e a055 a63b
000000e0: 4d16 5c3e 9471 05be ba94 833d 60e8 523c
000000f0: 38fa 2bbe d944 e1bd 8c5d cdbd fac8 a03d
00000100: 7017 b43e 9f69 e13d 91a4 49be 861b 93bb
00000110: 3e90 113e 4786 dfbe 8b4e 73be 227b 34be
00000120: 1629 cc3d d89a 0b3f 787d 66bd 652a 553e
00000130: c6e1 553f f79e 3fbf 9829 abbf 5019 a93c
00000140: 42eb aabe 81f1 1d3e cbb9 0ebf e9cf b9bd
00000150: 473e 2b3f 9689 d4bd bc0f 273f 355a 4fbf
00000160: e33f bbbf 197e 32bf 2b6c aabe ad3a 5abe
00000170: 75e6 cebe d3b5 5ebf fb6d 103f 7b0d 0bbe
00000180: 3d8b b13e f5df 043e 162f 12be bedf 94be
00000190: 8ef6 eb3d 3458 553d e032 4fbc 4a22 41bd
000001a0: 286c 293e 14f9 8abe 32f2 41be f873 d4bd
000001b0: f084 44bc 1702 a23d ea60 173e f31c 993f
000001c0: 884e 76bf 4915 06bf 0849 033d 38a0 9fbd
000001d0: 13b1 f73a dde9 2c3e 8ac8 fa3d ba3e 0fbf
000001e0: 47c3 22be 98dc 3ebd f2f0 bbbd d69f 82bd
000001f0: 44e4 0cbf a693 b03d 7dc2 f4bd c3df 19be
00000200: 1bd3 873d e86f 69bc fa98 fd3d a9a2 343f
00000210: 96da c2be 9546 7c3e d436 12bf d86b 8f3c
00000220: 04f7 683d 0d43 9cbf 2572 3a3e a7b9 363e
00000230: 86ad f9bf ccb3 c03e 75e0 f7be 7bae 4cbe
00000240: bce9 1abf 4fec 2b3e d614 57bc fd05 81be
00000250: db6f d4bf 9bc2 c8be e362 04c0 9126 61be
00000260: 88ae 0fbe 4454 96be 9a41 e03d 06a9 263e
00000270: 7f41 583e 25cc f03e e265 023f 6a22 bb3d
00000280: 7def d7bf c0da 46bf 7028 5e3f 245d cebf
00000290: 7c3e 29be fc40 20be 124e 973d 728f 093f
000002a0: 639a 82bf 9dc0 113e ab4f d53e e5cd b2be
000002b0: 929d aa3d f306 693f f24c 92bd fd49 54bf
000002c0: fa57 0fbf a79d 41bc 72b5 b8bd 10ce 1d3e
000002d0: 3485 81bf 8a19 923d 2444 3abd b43c 26be
000002e0: 2347 b43e f053 bf3e 601c 1ebc 7df8 5cbe
000002f0: 1ff3 d93e 6a78 8d3d 3bf3 2e3e 3170 f5bf
00000300: 7aa8 443f b9dc c5ba 7c4b 9fbd 913f 543e
00000310: b7af 74be 8753 3f3c 07e5 10ba 1e9d ba3d
00000320: 7318 bdbd ee34 063e c8cf d0bd 6274 36be
00000330: 904e a3bf ae60 fdbd ae96 f7be 483b 3bbd
00000340: 24d8 c4bd 2ce8 a3bd 8ea2 a73d d212 a7bd
00000350: b62d 3dbf 2a9f c4be 4117 7cbe 5c80 343e
00000360: cff0 2e3e 8fc3 9b3d e25b a8bd 0656 323f
00000370: bb2a bcbc 8753 833e 4ee7 713f 325c e13d
00000380: af54 6f3e 81bb ddbd b1ae 4e3f c1e9 4b3e
00000390: e88d 003d 591b 023e 5a82 eb3d 1fc6 af3c
000003a0: 9eb5 223e a025 9abd cef3 283f bc5c 94be
000003b0: 6190 1d3e 937f 243f 614d 5ebe 4989 5d3f
000003c0: e7c6 25bf c182 a1bd 91a2 5d3e 7e1f 3c3e
000003d0: c994 3ebc 52f8 f1bd 9580 36be c6c1 473c
000003e0: 3ef6 0a3e 8b22 b13e 5aac e73d 7265 be3d
000003f0: c8e1 503d 1491 1dbe d2b1 453e 0a8a a0be

conv2.0.bias f4 [64]
0.0 0.010426256 1.5010839 1.4920993 -0.02456388 1.3310739 -2.0653389 1.4281021
-0.036323026 1.31262 1.4211595 1.3250337 1.5089871 -0.06641354 1.251032 -0.0083056595
1.3327336 -0.051704295 1.5452623 -0.014831952 -1.8435652 0.0 -1.9914979 1.2912514
1.5602227 -0.011990068 0.0 -2.1212103 1.3570547 1.2603844 1.4573604 1.1010216
1.5529225 1.2753737 1.4184403 1.6761242 1.3032802 -0.029788211 -0.031447377 1.2855704
1.2292652 -1.8844175 -0.007718182 -1.1337174 1.201368 -1.8738667 0.6216627 1.3889744
1.3652667 -0.03278109 1.3622769 -0.015314406 -1.8994136 1.4874377 -1.7012229 -0.0362473
-1.8440979 -0.031432256 1.295092 -1.8700542 -1.9029428 0.2729996 1.3362172 0.0
00000000: 0000 0000 e3d2 2a3c 8423 c03f 1cfd be3f
00000010: 313a c9bc a160 aa3f 832e 04c0 0dcc b63f
00000020: 74c7 14bd ef03 a83f 8ee8 b53f b49a a93f
00000030: 7d26 c13f d203 88bd d121 a03f 7614 08bc
00000040: 0497 aa3f e2c7 53bd 28cb c53f b701 73bc
00000050: f2f9 ebbf 0000 0000 67e9 febf ba47 a53f
00000060: 61b5 c73f fd71 44bc 0000 0000 e9c1 07c0
00000070: f8b3 ad3f 4754 a13f c98a ba3f 47ee 8c3f
00000080: 2ac6 c63f 723f a33f 748f b53f 3d8b d63f
00000090: e3d1 a63f 6806 f4bc f7ce 00bd 928d a43f
000000a0: 9058 9d3f 9834 f1bf cee8 fcbb a71d 91bf
000000b0: 6dc6 993f ddda efbf 4925 1f3f eac9 b13f
000000c0: 0fc1 ae3f 7745 06bd 175f ae3f 46e9 7abc
000000d0: fc1f f3bf 5c64 be3f acc1 d9bf 0d78 14bd
000000e0: 660b ecbf 1cbf 00bd 93c5 a53f f05d efbf
000000f0: a193 f3bf 9bc6 8b3e 2a09 ab3f 0000 0000

conv3.0.weight f4 [1, 64]
0.2097199 1.6034935 1.6198118 0.24384539 -0.029843478 1.2057238 -1.0580509 1.6041778
0.23332462 0.23613532 2.1061177 0.45672175 1.598968 -0.15842126 0.45339242 0.259527
0.8300024 -0.25094858 1.472113 -0.07115059 -0.76940244 0.08977449 -0.8277025 1.9922252
1.0291711 -0.29055735 0.26351905 -1.1831118 1.2702266 0.52136326 0.41412324 -1.9561145
1.7421235 1.7524416 0.8736674 0.84426945 1.4756343 0.08477358 0.003966213 1.6569256
0.46487337 -0.9993029 0.28917506 -1.1550599 0.31348944 -0.877499 -1.0721723 1.6880441
1.7436786 -0.090932414 0.4279092 -0.0005292255 -0.88700634 0.96530426 -1.2879922 -0.0263313
-0.82560897 0.1755637 0.5107804 -1.5017262 -1.1861355 -1.4014335 0.63446414 -0.17829892
00000000: d0c0 563e 463f cd3f fe55 cf3f 9bb2 793e
00000010: 4f7a f4bc 2855 9a3f 366e 87bf b355 cd3f
00000020: a6ec 6e3e 75cd 713e a2ca 0640 6fd7 e93e
00000030: fcaa cc3f 2f39 22be 0d23 e83e b9e0 843e
00000040: 0a7b 543f 557c 80be 336e bc3f 67b7 91bd
00000050: 8ff7 44bf b0db b73d 50e4 53bf 3c01 ff3f
00000060: e1bb 833f efc3 94be f8eb 863e 3570 97bf
00000070: c996 a23f 1078 053f f607 d43e f661 fabf
00000080: e7fd de3f 0250 e03f aba8 5f3f 0b22 583f
00000090: 96e1 bc3f c59d ad3d 02f7 813b 2316 d43f
000000a0: e203 ee3e 51d2 7fbf c10e 943e 01d9 93bf
000000b0: b081 a03e c6a3 60bf f13c 89bf d411 d83f
000000c0: dc30 df3f c63a babd ea16 db3e b9bb 0aba
000000d0: d912 63bf 2e1e 773f eedc a4bf bdb4 d7bc
000000e0: 1c5b 53bf f8c6 333e 81c2 023f 9038 c0bf
000000f0: 4ad3 97bf 2c62 b3bf 3e6c 223f fe93 36be

exp_avg f4 [64, 4]
-0.08277726 -0.060074612 0.8131728 3.577485 -0.10999273 -1.331265 -5.3809757 -5.442322
0.0 0.0 0.0 0.0 -0.9681775 16.366669 -11.96995 199.18192
0.8799612 -19.891941 -14.718305 -248.11035 -0.26007977 4.5062256 -0.9051006 63.642063
-9.339232e-05 -0.09688556 -0.23658264 -0.91119516 0.0 0.0 0.0 0.0
0.0 0.0 0.0 0.0 0.019014169 7.7998405 28.86614 62.002357
0.0 0.0 0.0 0.0 0.0 0.0 0.0 0.0
0.05028739 1.7561148 10.967258 18.944687 -0.52731276 20.126505 19.958199 272.1283
0.0 -6e-45 -0.010311997 -0.0040286523 0.0 0.0 0.0 0.0
2.0059996 -84.27332 -88.25085 -1121.5432 0.0 0.0 0.0 0.0
0.18039422 -3.0931654 0.9742749 -38.543907 0.62398255 -9.09914 -5.356503 -115.73145
3.452243 -43.214718 -80.31527 -1297.0625 2.0385196 -39.145126 -33.645866 -482.451
0.092616156 5.387209 23.631329 48.796803 -0.06304197 -11.693368 -23.255438 -66.54836
0.21979073 -3.9584544 -0.014307976 -52.507633 0.30890265 -4.095347 -1.7744923 -44.38748
-0.26829964 4.555048 1.28018 59.48978 -1.4269831 30.628689 -18.585182 486.5239
-0.13724825 2.7575452 0.32060325 38.81289 -0.3714692 10.377911 14.708305 163.45459
-0.12076209 -0.89867735 -0.79513454 1.6775913 0.0 0.0 0.0 0.0
0.5007595 -4.4682856 9.381038 5.771035 1.1600883 -12.711033 19.760572 -161.63493
-2.1140451 52.04373 0.075717926 608.50146 1.4484174 7.1206245 -5.8514366 36.907745
0.0 0.0 0.0 0.0 0.0 0.0 0.0 0.0
0.0 6e-45 6e-45 6e-45 -0.5404905 11.070755 -5.576935 138.23837
0.31440848 1.0813656 27.837202 56.290726 -0.014573781 0.8827054 -1.5420622 19.27555
-1.2798156 24.219067 -20.78062 331.7202 2.265226 -27.42354 -20.611702 -292.6181
0.0 0.0 0.0 0.0 -1.2535965 18.866404 -31.278477 235.80219
0.4078566 -9.826691 -6.427856 -126.73587 -0.06877336 -0.4950469 -0.20084703 4.92963
0.0 6e-45 -0.016149566 -0.0076225176 0.24228337 -5.4571037 -4.860921 -75.507195
0.0 0.0 0.0 0.0 -0.95168465 19.01498 10.760164 207.65945
-0.5078479 -74.99997 -65.10362 -836.01404 0.0 0.0 0.0 0.0
0.0 0.0 0.0 0.0 0.02789355 -5.838409 -2.5956821 -61.831398
-0.48580638 8.637005 -1.0347948 125.64357 -0.5521504 10.776537 -5.52449 159.20396
0.0 0.0 0.0 0.0 0.0 0.0 0.0 0.0
-0.11548404 3.694882 -1.6194079 53.27042 0.0 0.0 0.0 0.0
0.23471844 -9.874802 -11.738839 -125.09804 5.0664673 -135.95213 -83.36939 -1533.3822
00000000: 2087 a9bd cc10 76bd 182c 503f 84f5 6440
00000010: de43 e1bd e466 aabf f430 acc0 8027 aec0
00000020: 0000 0000 0000 0000 0000 0000 0000 0000
00000030: 7bda 77bf f0ee 8241 ea84 3fc1 922e 4743
00000040: 2345 613f b222 9fc1 2d7e 6bc1 401c 78c3
00000050: 2d29 85be 0033 9040 acb4 67bf 7991 7e42
00000060: 9fdb c3b8 f06b c6bd b842 72be 1644 69bf
00000070: 0000 0000 0000 0000 0000 0000 0000 0000
00000080: 0000 0000 0000 0000 0000 0000 0000 0000
00000090: 9ac3 9b3c 4b98 f940 dbed e641 6a02 7842
000000a0: 0000 0000 0000 0000 0000 0000 0000 0000
000000b0: 0000 0000 0000 0000 0000 0000 0000 0000
000000c0: 26fa 4d3d 5fc8 e03f e479 2f41 b88e 9741
000000d0: f8fd 06bf 1503 a141 64aa 9f41 6c10 8843
000000e0: 0000 0000 0400 0080 a6f3 28bc c902 84bb
000000f0: 0000 0000 0000 0000 0000 0000 0000 0000
00000100: 4c62 0040 f18b a8c2 6f80 b0c2 6231 8cc4
00000110: 0000 0000 0000 0000 0000 0000 0000 0000
00000120: 43b9 383e 6cf6 45c0 146a 793f f62c 1ac2
00000130: 52bd 1f3f 1496 11c1 7968 abc0 8176 e7c2
00000140: 8df1 5c40 dfdb 2cc2 6ba1 a0c2 0022 a2c4
00000150: 1b77 0240 9c94 1cc2 5e95 06c2 ba39 f1c3
00000160: 8aad bd3d 0464 ac40 f60c bd41 ed2f 4342
00000170: 261c 81bd 0918 3bc1 230b bac1 c318 85c2
00000180: d210 613e 5157 7dc0 006c 6abc d107 52c2
00000190: 7d28 9e3e 150d 83c0 9022 e3bf c88c 31c2
000001a0: 925e 89be f4c2 9140 f0dc a33f 89f5 6d42
000001b0: 62a7 b6bf 8e07 f541 74ae 94c1 0f43 f343
000001c0: ce8a 0cbe 9f7b 3040 1c26 a43e 6640 1b42
000001d0: 3631 bebe ec0b 2641 3855 6b41 6074 2343
000001e0: 1d52 f7bd b80f 66bf f08d 4bbf 50bb d63f
000001f0: 0000 0000 0000 0000 0000 0000 0000 0000
00000200: c631 003f 32fc 8ec0 bb18 1641 52ac b840
00000210: c67d 943f 6460 4bc1 a715 9e41 8ba2 21c3
00000220: 844c 07c0 c82c 5042 0012 9b3d 1820 1844
00000230: be65 b93f 28dc e340 f83e bbc0 88a1 1342
00000240: 0000 0000 0000 0000 0000 0000 0000 0000
00000250: 0000 0000 0000 0000 0000 0000 0000 0000
00000260: 0000 0000 0400 0000 0400 0000 0400 0000
00000270: 965d 0abf d021 3141 4076 b2c0 063d 0a43
00000280: 26fa a03e 306a 8a3f 97b2 de41 b429 6142
00000290: dec6 6ebc fbf8 613f 4b62 c5bf 5434 9a41
000002a0: ffd0 a3bf a6c0 c141 b63e a6c1 30dc a543
000002b0: 76f9 1040 6963 dbc1 c4e4 a4c1 1e4f 92c3
000002c0: 0000 0000 0000 0000 0000 0000 0000 0000
000002d0: da75 a0bf 65ee 9641 523a fac1 5ccd 6b43
000002e0: 95d2 d03e 203a 1dc1 ffb0 cdc0 c478 fdc2
000002f0: 0cd9 8cbd ca76 fdbe d8aa 4dbe 87bf 9d40
00000300: 0000 0000 0400 0000 184c 84bc 50c6 f9bb
00000310: 2219 783e 98a0 aec0 aa8c 9bc0 af03 97c2
00000320: 0000 0000 0000 0000 0000 0000 0000 0000
00000330: 9ba1 73bf ae1e 9841 a229 2c41 d2a8 4f43
00000340: 5202 02bf fcff 95c2 0e35 82c2 e600 51c4
00000350: 0000 0000 0000 0000 0000 0000 0000 0000
00000360: 0000 0000 0000 0000 0000 0000 0000 0000
00000370: 0481 e43c 3fd4 bac0 a81f 26c0 5a53 77c2
00000380: 9dbb f8be 2c31 0a41 2874 84bf 8249 fb42
00000390: bb59 0dbf b26c 2c41 9fc8 b0c0 3734 1f43
000003a0: 0000 0000 0000 0000 0000 0000 0000 0000
000003b0: 0000 0000 0000 0000 0000 0000 0000 0000
000003c0: e582 ecbd f278 6c40 c248 cfbf e914 5542
000003d0: 0000 0000 0000 0000 0000 0000 0000 0000
000003e0: 085a 703e 30ff 1dc1 49d2 3bc1 3232 fac2
000003f0: 8020 a240 bff3 07c3 21bd a6c2 3bac bfc4

exp_avg_sq f4 [64, 4]
2.59108 31.159885 5451.493 17750.094 4.4964256 2306.0342 3643.9111 391530.47
0.0 0.0 0.0 0.0 193.51418 127907.11 187722.2 2.2469086e+07
79.11364 64672.977 89056.37 1.1384412e+07 8.830744 6986.91 10412.421 1.2391321e+06
0.001492374 1.7810638 1.9363105 38.405563 0.0 0.0 0.0 0.0
0.0 0.0 0.0 0.0 0.0035721285 190.0618 6277.1216 20142.113
0.0 0.0 0.0 0.0 0.0 0.0 0.0 0.0
0.04978183 97.630455 18698.719 37572.64 49.62571 40545.438 61842.29 7.3997185e+06
0.0 2.990451e-06 23.854767 9.1915245 0.0 0.0 0.0 0.0
204.38336 219150.98 271492.03 3.767723e+07 0.0 0.0 0.0 0.0
4.471049 3397.9414 5033.505 608385.3 30.460789 27495.5 37006.637 4.8243825e+06
380.9267 184537.4 940685.0 5.808478e+07 366.87885 272366.56 383776.03 4.9583884e+07
5.7982845 222.15529 10655.419 37973.926 5.147477 2475.0125 2720.8782 226300.45
9.967093 7180.5996 10214.228 1.258317e+06 6.8055058 5945.3164 7993.6113 1.0360784e+06
15.893866 9580.102 14379.41 1.6814946e+06 574.6873 385817.3 611614.1 6.907382e+07
5.8750153 3492.4233 5498.605 626960.3 47.81322 26770.28 43033.99 4.8360375e+06
5.6459904 72.14126 12042.607 40730.773 0.0 0.0 0.0 0.0
3.916014 13200.611 58381.832 788085.25 190.69122 136420.17 197326.34 2.4109772e+07
780.38025 567853.7 834872.0 1.00572984e+08 235.73701 69584.49 110111.016 8.029864e+06
0.0 0.0 0.0 0.0 0.0 0.0 0.0 0.0
0.0 2.1904032e-11 6.284673e-10 3.3232275e-10 74.67264 47806.645 70767.74 8.389509e+06
27.059792 6591.6724 42612.254 845837.75 1.4873645 686.40955 1268.8904 121665.84
437.00476 287482.16 443247.9 5.110212e+07 245.28017 179681.97 260203.95 3.265843e+07
0.0 0.0 0.0 0.0 374.9736 243146.16 365628.34 4.292147e+07
16.147316 15543.176 21302.957 2.7386925e+06 0.045256693 72.89068 6025.173 5579.0347
0.0 9.3797496e-07 24.872883 9.214766 2.8949711 3492.2512 4727.7695 614136.4
0.0 0.0 0.0 0.0 25.823282 28619.424 36656.72 5.0473865e+06
571.3085 455713.6 458383.16 7.415946e+07 0.0 0.0 0.0 0.0
0.0 0.0 0.0 0.0 0.2598584 1284.1034 1820.0056 229556.86
39.11607 27885.121 40483.348 4.9098055e+06 45.957397 35980.332 55235.32 6.429097e+06
0.0 0.0 0.0 0.0 0.0 0.0 0.0 0.0
13.065946 6457.882 11026.162 1.1490474e+06 0.0 0.0 0.0 0.0
2.5069225 3379.1995 4647.832 606683.25 1735.4738 1.6189838e+06 1.9062738e+06 2.6733418e+08
00000000: 41d4 2540 7247 f941 f25b aa45 30ac 8a46
00000010: b8e2 8f40 8c20 1045 94be 6345 4f2d bf48
00000020: 0000 0000 0000 0000 0000 0000 0000 0000
00000030: a183 4143 8ed1 f947 8d52 3748 ef6c ab4b
00000040: 2f3a 9e42 faa0 7c47 2ff0 ad47 5cb6 2d4b
00000050: ba4a 0d41 4857 da45 afb1 2246 e142 9749
00000060: c39b c33a e6f9 e33f 06d9 f73f 4c9f 1942
00000070: 0000 0000 0000 0000 0000 0000 0000 0000
00000080: 0000 0000 0000 0000 0000 0000 0000 0000
00000090: 5f1a 6a3b d20f 3e43 f928 c445 3a5c 9d46
000000a0: 0000 0000 0000 0000 0000 0000 0000 0000
000000b0: 0000 0000 0000 0000 0000 0000 0000 0000
000000c0: 08e8 4b3d cb42 c342 7015 9246 a4c4 1247
000000d0: ba80 4642 7061 1e47 4a92 7147 4dd2 e14a
000000e0: 0000 0000 8faf 4836 90d6 be41 7c10 1341
000000f0: 0000 0000 0000 0000 0000 0000 0000 0000
00000100: 2462 4c43 bf03 5648 8190 8448 2cba 0f4c
00000110: 0000 0000 0000 0000 0000 0000 0000 0000
00000120: d512 8f40 105f 5445 0a4c 9d45 1588 1449
00000130: b2af f341 00cf d646 a38e 1047 7d3a 934a
00000140: 9e76 be43 5a36 3448 d0a8 6549 6b93 5d4c
00000150: 7e70 b743 d2fd 8448 0164 bb48 c325 3d4c
00000160: 8c8b b940 c127 5e43 ad7d 2646 ed55 1447
00000170: 22b8 a440 33b0 1a45 0d0e 2a45 1dff 5c48
00000180: 3779 1f41 cc64 e045 e998 1f46 689a 9949
00000190: b4c6 d940 88ca b945 e4cc f945 e6f2 7c49
000001a0: 464d 7e41 68b0 1546 a4ad 6046 b542 cd49
000001b0: fdab 0f44 2a63 bc48 e251 1549 74bf 834c
000001c0: 2000 bc40 c646 5a45 d7d4 ab45 0511 1949
000001d0: bd40 3f42 8f24 d146 fd19 2847 8b95 934a
000001e0: f4ab b440 5348 9042 6e2a 3c46 c61a 1f47
000001f0: 0000 0000 0000 0000 0000 0000 0000 0000
00000200: f99f 7a40 7242 4e46 d50d 6447 5467 4049
00000210: f4b0 3e43 0b39 0548 96b3 4048 66f1 b74b
00000220: 5618 4344 dba2 0a49 80d3 4b49 e7d3 bf4c
00000230: adbc 6b43 3fe8 8747 820f d747 500d f54a
00000240: 0000 0000 0000 0000 0000 0000 0000 0000
00000250: 0000 0000 0000 0000 0000 0000 0000 0000
00000260: 0000 0000 7fab c02d 74c0 2c30 45b2 b62f
00000270: 6458 9542 a5be 3a47 df37 8a47 8503 004b
00000280: 747a d841 61fd cd45 4174 2647 dc80 4e49
00000290: f661 be3f 369a 2b44 7e9c 9e44 eca0 ed47
000002a0: 9c80 da43 455f 8c48 fd6d d848 6af0 424c
000002b0: b947 7543 7e78 2f48 fd1a 7e48 ff29 f94b
000002c0: 0000 0000 0000 0000 0000 0000 0000 0000
000002d0: 9f7c bb43 8a72 6d48 8b87 b248 80bb 234c
000002e0: b42d 8141 b4dc 7246 ea6d a646 1228 274a
000002f0: 155f 393d 07c8 9142 6249 bc45 4758 ae45
00000300: 0000 0000 26c9 7b35 aafb c641 ae6f 1341
00000310: 3547 3940 0544 5a45 28be 9345 86ef 1549
00000320: 0000 0000 0000 0000 0000 0000 0000 0000
00000330: 1596 ce41 d996 df46 b830 0f47 b508 9a4a
00000340: bed3 0e44 3384 de48 e5d1 df48 ac72 8d4c
00000350: 0000 0000 0000 0000 0000 0000 0000 0000
00000360: 0000 0000 0000 0000 0000 0000 0000 0000
00000370: 290c 853e 4f83 a044 2e80 e344 372d 6048
00000380: db76 1c42 3eda d946 5923 1e47 dbd5 954a
00000390: 60d4 3742 558c 0c47 52c3 5747 5233 c44a
000003a0: 0000 0000 0000 0000 0000 0000 0000 0000
000003b0: 0000 0000 0000 0000 0000 0000 0000 0000
000003c0: 1d0e 5141 0ecf c945 a648 2c46 bb43 8c49
000003d0: 0000 0000 0000 0000 0000 0000 0000 0000
000003e0: 6b71 2040 3133 5345 a83e 9145 b41d 1449
000003f0: 29ef d844 3ea1 c549 0eb3 e849 22f3 7e4d

exp_avg f4 [64]
2.034606 -0.044647694 0.0 1.0952393 -1.8886564 0.33102125 -1.4281434 0.0
0.0 1.0014403 0.0 0.0 -4.5032825 2.080667 -2.3422496 0.0
-4.0890017 0.0 -0.19005322 -0.091011405 -17.922012 -4.187416 0.57185936 -1.1077663
-0.38182166 -0.092521906 0.6600995 3.3850584 0.3805635 2.2004464 2.1362004 0.0
0.14070368 0.31277823 3.3888626 -1.4737115 0.0 0.0 6e-45 0.9438508
2.5798573 0.29776317 2.2438326 -1.6835861 0.0 0.9818558 -0.5992234 1.544319
-3.1166658 -0.24832061 0.0 0.14105165 -1.3970231 0.0 0.0 -0.014070019
0.8210706 0.6306037 0.0 0.0 0.82153535 0.0 -0.8251928 -0.67957115
00000000: fc36 0240 80e0 36bd 0000 0000 cd30 8c3f
00000010: 7ebf f1bf 9e7b a93e 67cd b6bf 0000 0000
00000020: 0000 0000 322f 803f 0000 0000 0000 0000
00000030: e41a 90c0 a629 0540 6be7 15c0 0000 0000
00000040: 1ad9 82c0 0000 0000 509d 42be 3064 babd
00000050: 4860 8fc1 50ff 85c0 6065 123f 49cb 8dbf
00000060: 217e c3be 207c bdbd 48fc 283f cca4 5840
00000070: 38d9 c23e 1dd4 0c40 82b7 0840 0000 0000
00000080: a014 103e 7824 a03e 20e3 5840 94a2 bcbf
00000090: 0000 0000 0000 0000 0400 0000 35a0 713f
000000a0: 621c 2540 6a74 983e f49a 0f40 c07f d7bf
000000b0: 0000 0000 e75a 7b3f b466 19bf 3fac c53f
000000c0: 7477 47c0 c247 7ebe 0000 0000 d86f 103e
000000d0: a7d1 b2bf 0000 0000 0000 0000 f085 66bc
000000e0: af31 523f 3e6f 213f 0000 0000 0000 0000
000000f0: 2450 523f 0000 0000 d63f 53bf 60f8 2dbf

exp_avg_sq f4 [64]
320.92276 37.67106 0.0 1480.3671 625.05054 80.52174 32.765957 0.0
0.0 442.3915 0.0 0.0 1933.1693 438.85388 116.51785 0.0
1966.1963 0.0 35.422302 259.2879 5015.5474 2683.7903 582.2997 28.965912
73.37 56.36367 114.72 4765.0566 48.30789 349.2765 689.31555 0.0
2053.1655 1379.1405 6393.0244 1840.4456 0.0 0.0 9.68902e-12 565.4223
666.9337 16.547773 3481.4207 1807.8239 0.0 2900.536 146.93045 229.94263
206.41139 32.586605 0.0 263.9078 3864.402 0.0 0.0 12.498035
310.27988 417.03265 0.0 0.0 101.337364 0.0 32.265404 14242.8
00000000: 1d76 a043 2aaf 1642 0000 0000 bf0b b944
00000010: 3c43 1c44 220b a142 5710 0342 0000 0000
00000020: 0000 0000 1d32 dd43 0000 0000 0000 0000
00000030: 6ba5 f144 4c6d db43 2409 e942 0000 0000
00000040: 48c6 f544 0000 0000 70b0 0d42 daa4 8143
00000050: 61bc 9c45 a5bc 2745 2e93 1144 30ba e741
00000060: 71bd 9242 6674 6142 a470 e542 74e8 9445
00000070: 483b 4142 64a3 ae43 3254 2c44 0000 0000
00000080: a652 0045 7f64 ac44 32c8 c745 420e e644
00000090: 0000 0000 0000 0000 7873 2a2d 075b 0d44
000000a0: c2bb 2644 d761 8441 bb96 5945 5dfa e144
000000b0: 0000 0000 9348 3545 32ee 1243 50f1 6543
000000c0: 5169 4e43 af58 0242 0000 0000 33f4 8343
000000d0: 6f86 7145 0000 0000 0000 0000 f4f7 4741
000000e0: d323 9b43 2e84 d043 0000 0000 0000 0000
000000f0: bbac ca42 0000 0000 c60f 0142 338b 5e46

exp_avg f4 [64, 64]
0.0 0.0 0.0 0.0 0.0 0.0 0.0 0.0
0.0 0.0 0.0 0.0 0.0 0.0 0.0 0.0
0.0 0.0 0.0 0.0 0.0 0.0 0.0 0.0
0.0 0.0 0.0 0.0 0.0 0.0 0.0 0.0
0.0 0.0 0.0 0.0 0.0 0.0 0.0 0.0
0.0 0.0 0.0 0.0 0.0 0.0 0.0 0.0
0.0 0.0 0.0 0.0 0.0 0.0 0.0 0.0
0.0 0.0 0.0 0.0 0.0 0.0 0.0 0.0
0.010845346 0.045528118 0.0 0.09862827 6e-45 0.13069357 -6e-45 0.0
0.0 -0.045940727 0.0 0.0 -0.030108072 0.1175286 5.491808e-05 0.0
-6e-45 0.0 -0.045272067 6e-45 -0.0008800338 6e-45 -0.06922525 0.001257821
-0.00091182353 -0.0006165006 0.11251276 0.060782455 0.085044496 0.031660117 0.021420002 0.0
-0.031560555 6e-45 0.105689414 -0.045323342 0.0 0.0 0.0 0.06340194
-0.12256338 0.036993798 0.1046131 6e-45 0.0 0.10893194 6e-45 -0.12284329
4.5803165e-05 -0.042387847 0.0 0.08422387 6e-45 0.0 0.0 2.1302213e-08
0.11155062 0.019533727 0.0 0.0 0.12463758 0.0 -0.04524884 -6e-45
0.20769276 2.1627486 0.0 1.1532433 1.5197282 4.6393704 0.1998397 0.0
0.0 0.22470333 0.0 0.0 0.40861434 2.907081 0.13241458 0.0
0.76596075 0.0 2.0545354 0.6937109 0.16190915 0.4126165 0.2294227 0.5431378
3.3786812 0.65568495 1.8569504 1.1325865 2.6787753 2.5012438 0.24878767 0.0
0.28749335 0.6017444 1.0910234 0.12984972 0.0 0.0 0.0 0.7729403
-1.122326 1.7131586 1.5693992 -0.03556931 0.0 1.3196554 1.1079739 0.0030793548
0.19447762 2.4560924 0.0 0.42006832 1.0141548 0.0 0.0 0.2768376
1.990432 -0.0026650429 0.0 0.0 4.969906 0.0 -0.029523134 1.0686952
0.006506996 0.03088206 0.0 0.09898877 0.15021065 0.4272356 0.033130378 0.0
0.0 -0.041171648 0.0 0.0 0.022978785 0.37133682 0.019956576 0.0
0.02056213 0.0 -0.15928388 -0.034897268 0.02213522 0.064111724 -0.03471578 -0.13045259
0.08387542 -0.110076755 0.2585087 -0.15686607 0.16416699 0.37909475 0.009803418 0.0
-0.26894355 -0.014940083 0.11204904 -0.32436633 0.0 0.0 6e-45 -0.03595248
-0.66607535 0.00092974305 0.15316404 -0.003695324 0.0 0.14338323 0.11582774 -0.018842077
0.029304914 -0.14577669 0.0 -0.0688363 -0.020185933 0.0 0.0 -0.023049247
0.16770956 -0.3447051 0.0 0.0 0.4536432 0.0 -0.1600065 -0.014201095
00000000: 0000 0000 0000 0000 0000 0000 0000 0000
00000010: 0000 0000 0000 0000 0000 0000 0000 0000
00000020: 0000 0000 0000 0000 0000 0000 0000 0000
00000030: 0000 0000 0000 0000 0000 0000 0000 0000
00000040: 0000 0000 0000 0000 0000 0000 0000 0000
00000050: 0000 0000 0000 0000 0000 0000 0000 0000
00000060: 0000 0000 0000 0000 0000 0000 0000 0000
00000070: 0000 0000 0000 0000 0000 0000 0000 0000
00000080: 0000 0000 0000 0000 0000 0000 0000 0000
00000090: 0000 0000 0000 0000 0000 0000 0000 0000
000000a0: 0000 0000 0000 0000 0000 0000 0000 0000
000000b0: 0000 0000 0000 0000 0000 0000 0000 0000
000000c0: 0000 0000 0000 0000 0000 0000 0000 0000
000000d0: 0000 0000 0000 0000 0000 0000 0000 0000
000000e0: 0000 0000 0000 0000 0000 0000 0000 0000
000000f0: 0000 0000 0000 0000 0000 0000 0000 0000
00000100: aeb0 313c b17b 3a3d 0000 0000 9efd c93d
00000110: 0400 0000 89d4 053e 0400 0080 0000 0000
00000120: 0000 0000 582c 3cbd 0000 0000 0000 0000
00000130: 34a5 f6bc d6b2 f03d d757 6638 0000 0000
00000140: 0400 0080 0000 0000 346f 39bd 0400 0000
00000150: 12b2 66ba 0400 0000 f8c5 8dbd 78dd a43a
00000160: 7107 6fba a89c 21ba 176d e63d 06f7 783d
00000170: cf2b ae3d 0aae 013d 0079 af3c 0000 0000
00000180: a445 01bd 0400 0000 b173 d83d f8a4 39bd
00000190: 0000 0000 0000 0000 0000 0000 e0d8 813d
000001a0: 8202 fbbd cf86 173d 653f d63d 0400 0000
000001b0: 0000 0000 b517 df3d 0400 0000 4395 fbbd
000001c0: c61c 4038 e19e 2dbd 0000 0000 907d ac3d
000001d0: 0400 0000 0000 0000 0000 0000 10fc b632
000001e0: a774 e43d 3205 a03c 0000 0000 0000 0000
000001f0: fd41 ff3d 0000 0000 d956 39bd 0400 0080
00000200: 69ad 543e 796a 0a40 0000 0000 7a9d 933f
00000210: 7486 c23f b975 9440 c7a2 4c3e 0000 0000
00000220: 0000 0000 a118 663e 0000 0000 0000 0000
00000230: e635 d13e 9d0d 3a40 b097 073e 0000 0000
00000240: 0116 443f 0000 0000 827d 0340 0a97 313f
00000250: 83cb 253e 7842 d33e c9ed 6a3e 140b 0b3f
00000260: 503c 5840 f8da 273f 8db0 ed3f 98f8 903f
00000270: 0e71 2b40 6114 2040 32c2 7e3e 0000 0000
00000280: 5432 933e ec0b 1a3f a8a6 8b3f 53f7 043e
00000290: 0000 0000 0000 0000 0000 0000 6adf 453f
000002a0: 61a8 8fbf c848 db3f 13e2 c83f 20b1 11bd
000002b0: 0000 0000 78ea a83f 17d2 8d3f 00cf 493b
000002c0: 2425 473e 9e30 1d40 0000 0000 3213 d73e
000002d0: d3cf 813f 0000 0000 0000 0000 a8bd 8d3e
000002e0: 7ac6 fe3f 00a8 2ebb 0000 0000 0000 0000
000002f0: 7809 9f40 0000 0000 80da f1bc 01cb 883f
00000300: a438 d53b 60fc fc3c 0000 0000 a0ba ca3d
00000310: d2d0 193e a0be da3e b8b3 073d 0000 0000
00000320: 0000 0000 9aa3 28bd 0000 0000 0000 0000
00000330: 013e bc3c dc1f be3e f97b a33c 0000 0000
00000340: e971 a83c 0000 0000 501b 23be 70f0 0ebd
00000350: ec54 b53c 024d 833d 2232 0ebd 5d95 05be
00000360: e0c6 ab3d ec6f e1bd 415b 843e 80a1 20be
00000370: 641b 283e b518 c23e 849e 203c 0000 0000
00000380: f8b2 89be 40c7 74bc f879 e53d 5813 a6be
00000390: 0000 0000 0000 0000 0400 0000 e842 13bd
000003a0: ea83 2abf 00ba 733a 09d7 1c3e 402d 72bb
000003b0: 0000 0000 0ed3 123e 1837 ed3d b35a 9abc
000003c0: dc10 f03c 7c46 15be 0000 0000 0cfa 8cbd
000003d0: f85c a5bc 0000 0000 0000 0000 c6d1 bcbc
000003e0: 0ebc 2b3e 307d b0be 0000 0000 0000 0000
000003f0: ec43 e83e 0000 0000 bed8 23be b6ab 68bc

exp_avg_sq f4 [64, 64]
0.0 0.0 0.0 0.0 0.0 0.0 0.0 0.0
0.0 0.0 0.0 0.0 0.0 0.0 0.0 0.0
0.0 0.0 0.0 0.0 0.0 0.0 0.0 0.0
0.0 0.0 0.0 0.0 0.0 0.0 0.0 0.0
0.0 0.0 0.0 0.0 0.0 0.0 0.0 0.0
0.0 0.0 0.0 0.0 0.0 0.0 0.0 0.0
0.0 0.0 0.0 0.0 0.0 0.0 0.0 0.0
0.0 0.0 0.0 0.0 0.0 0.0 0.0 0.0
0.3545196 1.2734085 0.0 0.56849486 1.3394321e-09 0.4708819 2.6169772e-07 0.0
0.0 0.6129513 0.0 0.0 0.53420657 0.05296591 0.00010572046 0.0
4.7946683e-06 0.0 0.101314075 1.1994501e-09 0.00038560655 6.0818906e-12 1.2135231 0.00011739972
0.00047607583 2.9792433e-05 0.172274 1.178178 0.33070692 0.002637714 0.4132957 0.0
0.4414555 4.524583e-10 0.44387603 0.088460006 0.0 0.0 0.0 1.187346
2.9264116 0.43679938 0.578985 5.2903952e-11 0.0 0.4645624 2.0919138e-09 0.091891676
5.1837604e-05 0.08944435 0.0 1.3249563 3.684732e-09 0.0 0.0 2.805395e-05
0.7966768 1.8969524 0.0 0.0 0.26103804 0.0 0.10180462 6.099638e-08
1.5957128 4632.0747 0.0 330.70264 1482.1367 8475.868 0.80054975 0.0
0.0 1.9432691 0.0 0.0 1.7088377 798.34033 0.3905978 0.0
12.465905 0.0 7297.399 591.38715 27.699661 307.0851 2.9261947 3.7408571
8110.4727 885.04645 684.6858 315.179 2307.675 760.1438 2.2486908 0.0
4.536921 511.24988 71.61242 11.490416 0.0 0.0 0.0 572.4564
45.066963 1864.6495 511.55276 125.21044 0.0 471.08014 989.76227 0.00078867754
0.83700144 8583.929 0.0 153.44852 28.703262 0.0 0.0 13.70126
973.83563 118.828285 0.0 0.0 9530.247 0.0 2407.9429 13.983266
0.046613064 107.57154 0.0 7.6342387 34.567303 197.1625 0.0203596 0.0
0.0 0.07283582 0.0 0.0 0.050897356 19.12397 0.008972243 0.0
0.41500866 0.0 171.9895 14.175258 0.6371307 7.043217 0.12092239 0.53054935
191.47891 21.406761 15.8152685 8.048355 54.666946 17.658592 0.06263201 0.0
1.0290194 12.065038 1.6653879 1.7745645 0.0 0.0 2.2216573e-14 13.259575
1.8914411 44.33398 11.80916 2.8774488 0.0 10.85009 23.056824 0.0028601605
0.01922988 202.57524 0.0 3.609437 1.4043779 0.0 0.0 0.37312618
22.59321 3.2184014 0.0 0.0 222.04823 0.0 55.543728 0.6826103
00000000: 0000 0000 0000 0000 0000 0000 0000 0000
00000010: 0000 0000 0000 0000 0000 0000 0000 0000
00000020: 0000 0000 0000 0000 0000 0000 0000 0000
00000030: 0000 0000 0000 0000 0000 0000 0000 0000
00000040: 0000 0000 0000 0000 0000 0000 0000 0000
00000050: 0000 0000 0000 0000 0000 0000 0000 0000
00000060: 0000 0000 0000 0000 0000 0000 0000 0000
00000070: 0000 0000 0000 0000 0000 0000 0000 0000
00000080: 0000 0000 0000 0000 0000 0000 0000 0000
00000090: 0000 0000 0000 0000 0000 0000 0000 0000
000000a0: 0000 0000 0000 0000 0000 0000 0000 0000
000000b0: 0000 0000 0000 0000 0000 0000 0000 0000
000000c0: 0000 0000 0000 0000 0000 0000 0000 0000
000000d0: 0000 0000 0000 0000 0000 0000 0000 0000
000000e0: 0000 0000 0000 0000 0000 0000 0000 0000
000000f0: 0000 0000 0000 0000 0000 0000 0000 0000
00000100: 9883 b53e 0dff a23f 0000 0000 e188 113f
00000110: 1417 b830 6f17 f13e 767f 8c34 0000 0000
00000120: 0000 0000 60ea 1c3f 0000 0000 0000 0000
00000130: c3c1 083f c8f2 583d 3db6 dd38 0000 0000
00000140: e3e1 a036 0000 0000 c17d cf3d e6d9 a430
00000150: 3c2b ca39 cdfc d52c ba54 9b3f 7f34 f638
00000160: d199 f939 c3ea f937 9868 303e 89ce 963f
00000170: 6b52 a93e 7fdd 2c3b 7e9b d33e 0000 0000
00000180: 7506 e23e d8bd f82f b843 e33e 852a b53d
00000190: 0000 0000 0000 0000 0000 0000 f4fa 973f
000001a0: 544a 3b40 2ba4 df3e 5c38 143f 8eac 682e
000001b0: 0000 0000 1fdb ed3e 56c1 0f31 b431 bc3d
000001c0: 346c 5938 992e b73d 0000 0000 2b98 a93f
000001d0: 7e36 7d31 0000 0000 0000 0000 6655 eb37
000001e0: 03f3 4b3f 56cf f23f 0000 0000 0000 0000
000001f0: c7a6 853e 0000 0000 f17e d03d 1dfd 8233
00000200: 5140 cc3f 99c0 9045 0000 0000 f059 a543
00000210: 6044 b944 796f 0446 d4f0 4c3f 0000 0000
00000220: 0000 0000 0bbd f83f 0000 0000 0000 0000
00000230: 32bb da3f c895 4744 6ffc c73e 0000 0000
00000240: 5974 4741 0000 0000 310b e445 c7d8 1344
00000250: e898 dd41 e58a 9943 c646 3b40 346a 6f40
00000260: c873 fd45 f942 5d44 e42b 2b44 e996 9d43
00000270: cd3a 1045 3409 3e44 8dea 0f40 0000 0000
00000280: 752e 9140 fc9f ff43 8f39 8f42 bed8 3741
00000290: 0000 0000 0000 0000 0000 0000 361d 0f44
000002a0: 9244 3442 c914 e944 c1c6 ff43 bf6b fa42
000002b0: 0000 0000 428a eb43 c970 7744 41bf 4e3a
000002c0: ba45 563f b71f 0646 0000 0000 d272 1943
000002d0: 48a0 e541 0000 0000 0000 0000 5c38 5b41
000002e0: 7b75 7344 15a8 ed42 0000 0000 0000 0000
000002f0: fde8 1446 0000 0000 167f 1645 75bb 5f41
00000300: 57ed 3e3d a124 d742 0000 0000 af4b f440
00000310: eb44 0a42 9a29 4543 2dc9 a63c 0000 0000
00000320: 0000 0000 f22a 953d 0000 0000 0000 0000
00000330: bf79 503d e4fd 9841 5100 133c 0000 0000
00000340: 047c d43e 0000 0000 50fd 2b43 dbcd 6241
00000350: ff1a 233f 0962 e140 28a6 f73d 15d2 073f
00000360: 9a7a 3f43 0c41 ab41 570b 7d41 10c6 0041
00000370: f4aa 5a42 cc44 8d41 3645 803d 0000 0000
00000380: e8b6 833f 650a 4141 6e2b d53f ee24 e33f
00000390: 0000 0000 0000 0000 ee1b c828 3827 5441
000003a0: be1a f23f ff55 3142 52f2 3c41 1f28 3840
000003b0: 0000 0000 f899 2d41 6074 b841 8871 3b3b
000003c0: fb87 9d3c 4393 4a43 0000 0000 0401 6740
000003d0: a8c2 b33f 0000 0000 0000 0000 650a bf3e
000003e0: e5be b441 4afa 4d40 0000 0000 0000 0000
000003f0: 590c 5e43 0000 0000 c72c 5e42 8cbf 2e3f

exp_avg f4 [64]
0.0 0.042044427 0.34964818 0.0002433667 6e-45 0.18629973 -0.13787928 0.273495
6e-45 0.00024398044 0.41068164 -0.019530596 0.5007998 6e-45 -0.012044637 6e-45
0.26797295 1.620284e-36 -0.13544115 6e-45 -0.08252577 0.0 0.19333185 0.3666439
-0.13307177 4.017897e-39 0.0 0.073248416 -0.1113962 0.00017228723 0.00019257516 -0.02161628
0.7198049 -0.028934952 0.13036811 -0.091118075 0.18318304 6e-45 6e-45 0.412044
0.0001817029 -0.01731667 6e-45 -0.074624665 0.00018244237 -0.0014316142 0.10515182 -0.23469114
0.2812522 6e-45 -0.04709802 6e-45 -0.06093105 -0.114042595 -0.53102225 6e-45
-0.020987377 6e-45 0.00016184337 -0.45443523 0.13444632 -0.112827435 -0.07414734 0.0
00000000: 0000 0000 c736 2c3d 1605 b33e 4030 7f39
00000010: 0400 0000 5bc5 3e3e 3a30 0dbe 8907 8c3e
00000020: 0400 0000 00d5 7f39 dd44 d23e a1fe 9fbc
00000030: 6a34 003f 0400 0000 df56 45bc 0400 0000
00000040: c033 893e a9d6 0904 16b1 0abe 0400 0000
00000050: 4503 a9bd 0000 0000 c9f8 453e c0b8 bb3e
00000060: f743 08be 43c0 2b00 0000 0000 4403 963d
00000070: b123 e4bd 00a8 3439 00ee 4939 a014 b1bc
00000080: 2245 383f fe08 edbc 387f 053e 1d9c babd
00000090: 5694 3b3e 0400 0000 0400 0000 6ef7 d23e
000000a0: 8087 3e39 b0db 8dbc 0400 0000 d1d4 98bd
000000b0: 004e 3f39 00a5 bbba d659 d73d e052 70be
000000c0: 4a00 903e 0400 0000 dae9 40bd 0400 0000
000000d0: d692 79bd 2a8f e9bd 13f1 07bf 0400 0000
000000e0: b8ed abbc 0400 0000 80b4 2939 bcab e8be
000000f0: 4cac 093e 1212 e7bd 90da 97bd 0000 0000

exp_avg_sq f4 [64]
0.0 0.22491275 22.589767 0.5375687 7.990331e-09 11.658989 5.124744 22.441362
6.811079e-09 0.4891444 37.24495 1.5750659 20.158161 7.3602685e-08 1.8647548 0.0003214034
5.113638 7.84059e-09 18.129084 6.1118394e-14 2.8680415 0.0 3.3934028 33.019688
8.663984 5.279789e-06 0.0 6.2346163 13.364679 2.4574447 1.5232153 18.588282
24.2379 25.737846 6.1755104 5.6834755 17.8008 1.156708e-12 6.992449e-14 22.472967
1.9547375 5.0636487 1.8098377e-13 5.854304 0.87715536 3.8436704 1.9591227 23.76511
25.948174 7.74579e-09 1.3974113 1.2755645e-11 3.8708763 7.7976766 8.09101 2.7665153e-13
3.5130343 1.14905195e-11 2.383649 10.133089 6.37164 1.7460734 3.2757154 0.0
00000000: 0000 0000 874f 663e d8b7 b441 1a9e 093f
00000010: d945 0932 388b 3a41 e7fd a340 e987 b341
00000020: e206 ea31 2371 fa3e d4fa 1442 c29b c93f
00000030: ea43 a141 810f 9e33 49b0 ee3f 0982 a839
00000040: eca2 a340 48b3 0632 5d08 9141 5ba0 8929
00000050: fe8d 3740 0000 0000 832d 5940 2914 0442
00000060: ae9f 0a41 0b29 b136 0000 0000 fa81 c740
00000070: bad5 5541 c646 1d40 b8f8 c23f cdb4 9441
00000080: 38e7 c141 1ce7 cd41 c89d c540 08df b540
00000090: 0a68 8e41 ccca a22b b974 9d29 a3c8 b341
000000a0: d734 fa3f 6909 a240 05c5 4b2a 7556 bb40
000000b0: 418d 603f b2fe 7540 88c4 fa3f f21e be41
000000c0: dc95 cf41 5812 0532 60de b23f 5166 602d
000000d0: 70bc 7740 9186 f940 c774 0141 b0bd 9b2a
000000e0: 8ed5 6040 b324 4a2d b58d 1840 2221 2241
000000f0: 7ae4 cb40 557f df3f 52a5 5140 0000 0000

exp_avg f4 [1, 64]
0.0 -0.35729748 2.9650898 -1.1014013 -6e-45 0.5582571 3.4697886 2.3090508
6e-45 -2.024324 1.818111 -0.2845518 1.507161 -6e-45 -1.4786749 6e-45
0.044795305 -7.3048886e-37 -0.2770334 -6e-45 2.2105777 0.0 1.537745 0.35968602
-1.2077997 1.391069e-39 0.0 3.891305 -0.37931383 -0.9104999 -1.6186407 7.2412157
3.0388548 0.46065864 0.07181771 -0.27327487 0.88315135 6e-45 -6e-45 0.61777294
-1.1203332 2.1272795 6e-45 4.1729326 -1.5904421 1.7567027 0.46372712 -0.55462193
0.5098017 -6e-45 -1.309995 -6e-45 1.9299676 -0.3942836 1.600857 6e-45
1.1655277 6e-45 -0.912626 1.5984755 3.5697212 1.0806673 -0.39373925 0.0
00000000: 0000 0000 b2ef b6be 08c4 3d40 b8fa 8cbf
00000010: 0400 0080 f0e9 0e3f 0411 5e40 7dc7 1340
00000020: 0400 0000 868e 01c0 dcb7 e83f c6b0 91be
00000030: a7ea c03f 0400 0080 3845 bdbf 0400 0000
00000040: 487b 373d 8e92 7883 52d7 8dbe 0400 0080
00000050: 1b7a 0d40 0000 0000 d4d4 c43f c428 b83e
00000060: 2e99 9abf bc25 0f00 0000 0000 240b 7940
00000070: 6c35 c2be 8516 69bf 9e2f cfbf 0ab8 e740
00000080: 997c 4240 73db eb3e 2a15 933d afea 8bbe
00000090: 3516 623f 0400 0000 0400 0080 5e26 1e3f
000000a0: 1467 8fbf 5925 0840 0400 0000 aa88 8540
000000b0: 9b93 cbbf a2db e03f a46d ed3e b4fb 0dbf
000000c0: 5d82 023f 0400 0080 ebad a7bf 0400 0080
000000d0: 2e09 f73f 8adf c9be e2e8 cc3f 0400 0000
000000e0: 0330 953f 0400 0000 dca1 69bf d89a cc3f
000000f0: 5076 6440 4e53 8a3f 3198 c9be 0000 0000

exp_avg_sq f4 [1, 64]
0.0 0.55474687 4491.9214 1580.2643 1.343267e-05 481.1452 120.821556 2278.6091
3.585312e-11 1303.1033 692.33636 303.17258 726.43805 6.800511e-08 624.86993 0.026000569
293.61243 8.773536e-08 562.45264 1.2315121e-15 168.77437 0.0 127.95096 480.05118
588.2989 6.792658e-07 0.0 135.95444 513.75244 1814.7961 1892.067 867.2761
1631.97 474.66458 586.7646 426.19107 422.74936 8.810118e-15 8.6737117e-13 417.77106
2113.6943 212.55624 1.209697e-14 195.49641 3027.4214 123.323685 124.09829 453.7499
1009.0979 1.805617e-07 631.9412 2.5201141e-14 141.85455 627.0957 454.21564 3.2306074e-12
108.27092 2.4211962e-15 3044.5452 179.79184 139.45381 22.42232 401.17572 0.0
00000000: 0000 0000 e403 0e3f 5f5f 8c45 7588 c544
00000010: e15c 6137 9692 f043 a3a4 f142 bf69 0e45
00000020: 06af 1d2e 4ee3 a244 8715 2d44 1796 9743
00000030: 099c 3544 340a 9233 ad37 1c44 25ff d43c
00000040: 64ce 9243 0669 bc33 f89c 0c44 c77a b126
00000050: 3dc6 2843 0000 0000 e4e6 ff42 8d06 f043
00000060: 2113 1344 ca56 3635 0000 0000 56f4 0743
00000070: 2870 0044 7ad9 e244 2582 ec44 acd1 5844
00000080: 0aff cb44 1155 ed43 efb0 1244 7518 d543
00000090: eb5f d343 7fb5 1e28 ae24 742b b2e2 d043
000000a0: 1c1b 0445 668e 5443 6deb 5928 157f 4343
000000b0: be36 3d45 baa5 f642 5332 f842 fddf e243
000000c0: 4446 7c44 6ce0 4134 3dfc 1d44 e0fd e228
000000d0: c4da 0d43 20c6 1c44 9a1b e343 7355 632c
000000e0: b68a d842 3077 2e27 b948 3e45 b6ca 3343
000000f0: 2d74 0b43 e960 b341 7e96 c843 0000 0000
