1/trained_models/tetris_auto_6000.pt (torch, 61767 bytes, 15 tensors)

conv1.0.weight f4 [64, 4]
000000 52 12 fa bb 6e cb 3d bf 46 68 71 3e 76 93 db bd
       -0.0076315785 -0.74138534 0.23574933 -0.10721485
000010 ed 86 d0 3d 7b 65 81 be 8b 3a a6 3d 64 38 1f 3e
       0.10181985 -0.25272736 0.08116635 0.15548855
000020 f4 62 be bd cd 1b 28 be c3 8b 57 be 40 9f f8 bc
       -0.092962176 -0.16416855 -0.21049409 -0.030349374
000030 19 f4 0f 3d 78 98 91 be a1 b4 69 bd ed 2c 4e 3d
       0.0351449 -0.28436637 -0.057057027 0.050335813
000040 62 0a da 3c 0c 14 ab bd bd 01 35 be b9 28 d3 3d
       0.026616279 -0.08353433 -0.17676444 0.103105016
000050 a4 63 40 be 95 62 33 be ea aa 68 be 53 f5 52 3e
       -0.1878801 -0.17518075 -0.22721449 0.20601396
000060 cc 6a 7b 3e f6 9e 62 3e 52 79 b1 be a1 42 ef bd
       0.24552459 0.22130951 -0.34662873 -0.1168263
000070 e0 e3 21 3e 18 5a f9 3d c0 81 d4 bd 94 b3 8c be
       0.15809584 0.12175387 -0.1037631 -0.27480757
000080 58 0b f1 bd 34 4d 98 3d 8e b0 84 bd 7b 0d 67 be
       -0.11769742 0.074366 -0.06478988 -0.22563736
000090 f8 63 39 bf d7 ec 91 3e 75 90 8e 3e f2 4d 55 be
       -0.72418165 0.28501007 0.27844587 -0.20830515
0000a0 a0 53 89 3e 28 27 de 3d 80 95 a3 bb 9c ca 8f be
       0.26821613 0.10847312 -0.004992187 -0.28084266
0000b0 58 ed 17 bd 90 ef 4a 3d 0a 98 e1 bd 0c 08 5b be
       -0.037091583 0.04954487 -0.11015327 -0.21389788
0000c0 27 43 36 be 2a e3 3f bf 96 92 c9 3e 36 d5 90 be
       -0.17799054 -0.74956 0.3936965 -0.28287667
0000d0 15 d6 28 3f 3f 17 70 3e 67 4a b9 be ed 39 49 3d
       0.65951663 0.23446368 -0.36189577 0.049127508
0000e0 2c 47 c4 3d a8 b6 fd 3d 79 a0 4a 3e 6a e4 e2 be
       0.095838875 0.123883545 0.19787778 -0.4431489
0000f0 40 4c 49 bd 84 39 8c 3d 70 5a 01 3e f1 73 8b be
       -0.049144983 0.06846908 0.12632155 -0.27236894
000100 a6 05 d6 3d 03 1f c7 3d 44 c4 05 3e ad f4 f7 3b
       0.10450296 0.09722712 0.1306315 0.0075670094
000110 8a fa 35 3e d8 5b 0e 3e a0 1c 30 3c 14 a5 fe bd
       0.17771354 0.13902223 0.010749012 -0.1243383
000120 33 ed e0 bd c3 51 7c 3c d7 bd 79 3e 54 d0 3a 3e
       -0.10982742 0.015400353 0.24388824 0.18243533
000130 ba 23 f7 3d f5 52 ad 3d bd 54 31 bd bb 98 6b 3d
       0.12067361 0.084630884 -0.043293703 0.057518702
000140 84 68 e3 bd d9 3b 21 bf 7e db 46 3e 42 fa 1e 3d
       -0.11103919 -0.62981945 0.19419667 0.038812883
000150 91 0c be 3e 24 70 15 bf fc a9 8c be 5c 8e e8 3d
       0.37118962 -0.5837424 -0.27473438 0.11355278
000160 2e 5c b9 3f 8a b3 a3 bd 2d d0 ee 3e 7b 2c 6a be
       1.4481256 -0.07993229 0.466432 -0.2286853
000170 a6 22 8f bb 5c 85 be 3e e4 ea 12 be df 2b a6 bc
       -0.004368144 0.3721112 -0.14347416 -0.020284591
000180 f6 e6 8c be 10 d8 e0 3d dd 40 27 bc 22 03 45 3e
       -0.2751996 0.10978711 -0.010208336 0.19239476
000190 e7 a2 3f bd 48 9e 24 3e 90 94 9a 3d d8 14 87 3d
       -0.046786215 0.16076005 0.07547867 0.065957725
0001a0 22 d3 5b bc e1 69 75 be 83 b8 1f be 22 e4 a4 3d
       -0.013417037 -0.23966171 -0.1559773 0.080513254
0001b0 fe a7 3f 3e 52 ea b4 3e 46 d8 b0 3c 30 12 99 bc
       0.18716428 0.35335022 0.021587502 -0.01868543
0001c0 51 33 a4 3d 48 cb f8 3d 96 7d ea bd 64 80 ba 3d
       0.080176 0.12148148 -0.11449735 0.0910652
0001d0 40 4e 66 3e 19 d9 63 bd 13 de e0 be e9 26 a4 3d
       0.22490788 -0.055626962 -0.4391943 0.08015234
0001e0 ce 15 2a b9 ce 0e 4c bf c3 8f 60 3e a3 62 de bd
       -0.00016220586 -0.7971009 0.2192984 -0.10858657
0001f0 6c 17 55 3e 14 5a 96 3e 56 0a 02 be d4 a5 77 be
       0.20809716 0.293656 -0.12699255 -0.24184352
000200 cd ee 1b bf 8b 80 3d 3f 82 9b 21 3e b6 0b 18 be
       -0.60911256 0.74024266 0.15781978 -0.14848217
000210 b3 c4 2d 3d 3e a8 6b 3b 94 7b a7 bc 2f 04 71 3d
       0.042423915 0.0035958434 -0.020444669 0.05884188
000220 54 0f 0f bb a5 8b de bd f2 9f d8 bd 0a 51 83 3c
       -0.0021829205 -0.10866479 -0.10577382 0.016029853
000230 a0 be 83 bd 6b 63 6f 3f cd 7d 59 3c f0 9e 9c bd
       -0.06432843 0.93511075 0.013274622 -0.076475024
000240 ee d8 df bd 40 07 86 3e 00 df 92 ba 0d 5d 77 be
       -0.10930048 0.26177406 -0.0011205375 -0.2415659
000250 58 54 63 3e f4 03 36 be 53 16 84 be 4e 72 a4 bd
       0.22200143 -0.17774945 -0.25798282 -0.080296144
000260 fc 9a 77 3e f2 92 51 3e 44 c1 db 3d b0 50 71 be
       0.24180216 0.20466211 0.10730222 -0.23565936
000270 98 ae 29 3d 56 4d 74 be e5 fc a8 3d 6f 0c 3d 3d
       0.04142627 -0.23857626 0.08251361 0.046154436
000280 26 a9 09 bf e5 19 01 3f 9b a1 08 3f 62 39 05 be
       -0.53773725 0.50430137 0.5337159 -0.13010171
000290 d7 d8 c7 be b1 86 b8 3d fb 94 bc 3c 7a d9 b8 3d
       -0.39032623 0.09010065 0.023020258 0.09025855
0002a0 67 97 51 be a5 5d f9 bd 19 f8 ac bd d5 d1 3f 3d
       -0.20467912 -0.121760644 -0.084457584 0.04683097
0002b0 e5 d4 8a bd 8f 05 b1 be 5a e5 2e bd 58 c2 8f 3d
       -0.06778888 -0.34574553 -0.042699195 0.0701949
0002c0 7c aa 75 be 98 55 34 bd 48 81 36 bd ca 49 96 be
       -0.23990816 -0.04402694 -0.044556886 -0.29353172
0002d0 7d 4c 53 bc c0 d0 db be 32 e1 b4 bd ec b7 8d 3d
       -0.012896654 -0.429327 -0.08832015 0.06919846
0002e0 0e 7a 4d be 13 13 b5 bd 65 ec ca bd ef 7c c3 3d
       -0.20066091 -0.08841529 -0.0990837 0.095453136
0002f0 d6 b4 0d 3f bd 7e dd 3e 15 9c d7 3e f5 20 c6 be
       0.5535406 0.43260756 0.4211127 -0.3869702
000300 f8 f6 de 3d a2 88 71 bd 91 d4 09 3e d2 d4 d7 be
       0.10886949 -0.058968194 0.13459994 -0.42154557
000310 93 75 cb be fe 89 31 3d f9 6d 54 3e 65 49 45 3e
       -0.3973814 0.04334449 0.20745076 0.19266279
000320 cf 8b 93 be 94 cd 9d bd a0 70 05 3c e6 c8 dc bd
       -0.28817603 -0.077052265 0.008144528 -0.10780506
000330 4a 77 10 bd f9 cb b4 be 05 29 96 3d 7b 7e 8e 3c
       -0.035270013 -0.3531187 0.073320426 0.017394295
000340 36 cd ae 3c f2 ba fc 3e c3 89 41 be 4e d3 a0 bb
       0.021338087 0.49361378 -0.18900208 -0.004908002
000350 bc 3f 19 3e 50 52 53 3d 7c 37 c8 3d b8 40 89 be
       0.14965719 0.05159217 0.09776208 -0.2680719
000360 fa cb 1e be 34 fd 29 3e 58 59 f4 3d cf 6f 96 be
       -0.15507498 0.16600496 0.119311035 -0.29382178
000370 8d 84 d5 be 61 82 7d 3d 41 04 ec 3d 07 4a 82 3c
       -0.4170269 0.061891917 0.11524249 0.01590444
000380 ed ce 11 be 4a f1 9b bd a7 4f bf bd 2d 5b 69 3d
       -0.14239092 -0.076143816 -0.09341364 0.056971718
000390 95 2d 3b be f8 c5 85 3e e4 dc 48 3e 80 60 13 bd
       -0.18279107 0.261276 0.19615513 -0.0359807
0003a0 2e 80 03 3e 28 d7 2e 3d 6d e2 32 be c0 c0 87 bd
       0.12841865 0.042685658 -0.17469187 -0.06628561
0003b0 20 45 2c 3e 00 75 7a 3e 38 24 a5 3d 57 21 88 be
       0.16823244 0.24458694 0.08063549 -0.26587936
0003c0 26 90 8b be 5d 07 1d be 69 38 89 be be 5f 59 3e
       -0.27258414 -0.1533484 -0.2680085 0.21227929
0003d0 d6 53 30 3e 60 e7 50 bc 69 2e 34 be 24 af aa bd
       0.17219481 -0.012750477 -0.17595829 -0.08334187
0003e0 b7 a0 80 be 43 dc 13 bf ba f1 9b 3e 05 49 1a 3e
       -0.25122616 -0.5775797 0.3045786 0.15066917
0003f0 ed cd 8f bd 3e 7a 91 3e 7a fd 92 3d 72 b9 5d 3b
       -0.07021699 0.28413576 0.07177253 0.0033832458

conv1.0.bias f4 [64]
000000 9f ef 22 3f 22 5b 91 3f 00 00 00 00 c7 73 cf 3f
       0.6364688 1.1355937 0.0 1.6207207
000010 d6 16 21 c0 04 f6 ca 3f 17 87 4c 3f 00 00 00 00
       -2.5170188 1.5856328 0.7989363 0.0
000020 00 00 00 00 28 2e 54 3f 00 00 00 00 00 00 00 00
       0.0 0.8288293 0.0 0.0
000030 e5 25 5a 3f 1b ed f1 3f 3f 69 10 3f 00 00 00 00
       0.8521407 1.8900484 0.5641059 0.0
000040 3a 59 0f c0 00 00 00 00 10 56 f0 bf 4b 30 0a c0
       -2.239821 0.0 -1.8776264 -2.1591976
000050 30 aa 0d c0 05 0d 14 c0 e8 8a 39 3f a6 26 b2 be
       -2.2135124 -2.3132946 0.7247758 -0.3479511
000060 0e 86 d6 bf bf d4 e5 bf 27 15 b6 3f e1 b2 f4 3f
       -1.675966 -1.795555 1.4225205 1.911709
000070 aa 79 ad 3f 0f 44 cd 3f 26 a9 52 3f 00 00 00 00
       1.3552754 1.6036395 0.8228935 0.0
000080 3c d9 97 3f 83 e2 06 c0 02 67 e0 3f 08 ec d4 3e
       1.186317 -2.1075752 1.7531435 0.41586328
000090 00 00 00 00 00 00 00 00 94 6c 15 bd 8c 65 c5 3f
       0.0 0.0 -0.0364805 1.5421615
0000a0 3d e2 63 3f 09 a5 69 3f e7 a4 e3 3f 29 da 1f c0
       0.8901709 0.9126745 1.7784699 -2.4976904
0000b0 00 00 00 00 60 8a c8 3f 9e 4a 08 c0 38 0a 0a bd
       0.0 1.5667229 -2.1295543 -0.03370115
0000c0 e1 55 51 3f 59 6b ed bf 00 00 00 00 b9 be d0 3f
       0.81771666 -1.8548385 0.0 1.6308204
0000d0 35 6e d3 bf 00 00 00 00 00 00 00 00 b2 b0 a2 bf
       -1.6518008 0.0 0.0 -1.2710173
0000e0 d5 58 fd 3f 41 e8 d1 3f 00 00 00 00 00 00 00 00
       1.9792734 1.6399003 0.0 0.0
0000f0 4a 30 b4 3f 00 00 00 00 c2 0f f2 bf 5f 88 1a c0
       1.4077237 0.0 -1.8911059 -2.4145734

conv2.0.weight f4 [64, 64]
000000 f1 aa 25 be a1 a2 be bd 9e 89 42 be f0 70 7a bc
       -0.1617849 -0.09308363 -0.1899781 -0.015285715
000010 ec ba 1c bd 4e f7 ce 3d 05 99 57 3e 90 b3 ac 3c
       -0.0382642 0.101057634 0.21054466 0.021081716
000020 df 85 49 3e 02 49 43 be 7a f1 8f bd 4b 8b 21 3e
       0.19679974 -0.19070819 -0.0702848 0.15775792
000030 38 94 54 bd e9 47 5a be 80 51 ad 3b b5 3d d2 bd
       -0.051899165 -0.21316494 0.0052892566 -0.10265676
000040 d6 7e 94 3d 8b ca 38 3e 3c 2e 1c be 26 96 9c 3d
       0.072507545 0.18046014 -0.15252012 0.07645826
000050 50 3e dc bd 52 4b ba 3d 7a db 1d be c6 6e 10 be
       -0.10754073 0.090963975 -0.15415755 -0.14104757
000060 6a 28 bb 3d 26 d0 14 be 00 22 24 ba e4 0e 01 be
       0.09138568 -0.14532527 -0.000626117 -0.12603337
000070 29 c4 00 3e ee ef 21 be 16 94 b7 3d 1e 85 e8 3d
       0.12574829 -0.15814182 0.08963792 0.11353515
000080 96 fe f5 3d 04 0a 77 bd 3f 64 41 3e 32 38 04 be
       0.12011449 -0.060312286 0.18885897 -0.12912062
000090 a8 72 e2 bc b5 db f0 bd 72 3c 9b 3d 10 e0 77 3c
       -0.027642563 -0.11760656 0.075798884 0.015129104
0000a0 ea 70 b7 3d 1f f2 58 be 01 5b 43 be 26 3d 04 be
       0.089570835 -0.21186112 -0.19077684 -0.12913951
0000b0 df 76 4f 3e af a9 26 3e 11 5b cc bd a2 cc b0 3d
       0.2026019 0.16275667 -0.09978307 0.086327806
0000c0 d0 7c 8e bd 22 19 be 3d b3 bb 3b be fc 74 ea bd
       -0.069574 0.092821375 -0.1833332 -0.11448094
0000d0 4f ec 04 3e 52 4b fd 3d 13 41 4c 3e a0 55 a6 3b
       0.1298077 0.12367882 0.19946699 0.0050761253
0000e0 4d 16 5c 3e 94 71 05 be ba 94 83 3d 60 e8 52 3c
       0.21492882 -0.13031608 0.06424852 0.012872785
0000f0 38 fa 2b be d9 44 e1 bd 8c 5d cd bd fa c8 a0 3d
       -0.1679467 -0.1099946 -0.10027608 0.07850833
000100 18 ed 4a 3e fd 7e 0c 3e 91 a4 49 be b3 dd 54 bc
       0.19817007 0.13720317 -0.19691683 -0.01299231
000110 3e 90 11 3e 5b f1 ad be 8b 4e 73 be 22 7b 34 be
       0.1421518 -0.33973202 -0.2376043 -0.17625096
000120 16 29 cc 3d 9b cf e8 3e 78 7d 66 bd 65 2a 55 3e
       0.09968774 0.4547089 -0.056272 0.20816953
000130 4c 4b 13 3f 5b 19 c8 be d7 d9 22 bf 50 19 a9 3c
       0.5753677 -0.39081845 -0.6361365 0.020641953
000140 62 a9 ab be 81 f1 1d 3e 58 67 90 be e9 cf b9 bd
       -0.33527666 0.15424158 -0.28203845 -0.09072859
000150 63 e8 15 3f 96 89 d4 bd 25 4b 0b 3f 6d 2a 12 bd
       0.5855772 -0.10377805 0.54411536 -0.03568499
000160 3d fa 7d bf bd 62 45 bf 6f 6f 95 be 5c 73 42 be
       -0.9920996 -0.7710379 -0.2918658 -0.18989319
000170 9f 90 a7 be 6e 56 fc be 02 e8 d4 3e 7b 0d 0b be
       -0.32727525 -0.4928469 0.41583258 -0.13579361
000180 11 8a b8 3e f5 df 04 3e 40 f5 15 be 14 59 e6 bd
       0.36042836 0.12976058 -0.14644337 -0.11247459
000190 8e f6 eb 3d 34 58 55 3d e0 32 4f bc 69 00 59 bd
       0.11521636 0.05208607 -0.012646407 -0.052978907
0001a0 c9 16 1e 3e c5 77 60 be 1e d0 37 be f8 73 d4 bd
       0.1543838 -0.21920688 -0.17950484 -0.10373682
0001b0 f0 84 44 bc 8c aa 90 3d ea 60 17 3e 1d f9 5f 3f
       -0.011994585 0.07063779 0.14783064 0.8748949
0001c0 dd 66 90 be 25 14 3f be 08 49 03 3d 34 b1 d5 bd
       -0.28203478 -0.18660028 0.03205207 -0.104341894
0001d0 13 b1 f7 3a dd e9 2c 3e 8a c8 fa 3d 2e 18 19 bf
       0.0018897377 0.16886087 0.12245281 -0.5980252
0001e0 62 e4 0f be b0 6a 33 bd f2 f0 bb bd d6 9f 82 bd
       -0.14051965 -0.043802917 -0.09176816 -0.063781425
0001f0 0e 77 cd be a6 93 b0 3d 13 a9 05 bd 22 02 1a be
       -0.40129894 0.08621912 -0.032631945 -0.15039876
000200 29 b5 06 3e 6b 2d b6 bc fa 98 fd 3d 34 92 32 3f
       0.13155045 -0.022238454 0.123826936 0.6975434
000210 ea b4 c9 be 31 a0 75 3e 7c b8 12 bf d8 6b 8f 3c
       -0.3939584 0.2398689 -0.5731275 0.017507479
000220 04 f7 68 3d 3d 8a 8d bf 25 72 3a 3e a7 b9 36 3e
       0.056876197 -1.1057812 0.18207605 0.17844258
000230 73 0e dc bf 3d 6e b9 3e f9 cb fb be 7b ae 4c be
       -1.719191 0.36216918 -0.49179056 -0.19988434
000240 38 7d 73 be 4f ec 2b 3e ea 42 c1 bc ad 8e 89 be
       -0.23778236 0.16789363 -0.023591477 -0.26866665
000250 89 77 b7 bf 4d 8e d7 be 39 85 f4 bf 05 d3 62 bd
       -1.4333354 -0.42100754 -1.9103156 -0.055377025
000260 59 79 19 be b7 0f 9c be 8f a4 e0 3d 77 e2 0d 3e
       -0.14987697 -0.3048074 0.10968887 0.1385592
000270 b4 14 55 3e 4a c9 df 3e 99 3a 0e 3f 6a 22 bb 3d
       0.20808679 0.4370826 0.5555816 0.09137423
000280 dc 4b ce bf 6c f6 4b bf ee 39 5d 3f 3c 5d da bf
       -1.61169 -0.79672885 0.8641652 -1.7059703
000290 7c 3e 29 be fc 40 20 be 12 4e 97 3d dd 19 06 3f
       -0.16527742 -0.1564979 0.073879376 0.52383214
0002a0 71 e5 84 bf fd 62 10 3e ad 8f d0 3e a9 26 c9 be
       -1.038252 0.14100261 0.40734616 -0.39287308
0002b0 92 9d aa 3d 8b 85 67 3f 63 5d b0 bd 9f ca 04 bf
       0.083308354 0.90438145 -0.08611562 -0.51871675
0002c0 ad ef 10 bf 38 0f ac bc 72 b5 b8 bd 87 95 f0 3d
       -0.56615716 -0.02100335 -0.09018983 0.1174727
0002d0 08 9c 2f bf 8a 19 92 3d 24 44 3a bd 10 7a 0d be
       -0.6859746 0.071337774 -0.04547514 -0.13816094
0002e0 0b 0f ae 3e e6 d1 af 3e 60 1c 1e bc 7d f8 5c be
       0.33995852 0.34339827 -0.00965032 -0.21579166
0002f0 c2 7f d7 3e 6a 78 8d 3d 0b 68 1a 3e 86 a0 a2 bf
       0.4208966 0.06907733 0.15078752 -1.2705238
000300 0c 11 31 3f eb ed 87 ba 7c 4b 9f bd a1 51 55 3e
       0.69166636 -0.0010370588 -0.077780694 0.2083192
000310 ca f5 8a be a1 b3 5a 3c 32 d7 fe 39 1e 9d ba 3d
       -0.27140647 0.013348491 0.00048606988 0.09111999
000320 73 18 bd bd 25 78 cc 3d c8 cf d0 bd 62 74 36 be
       -0.09233179 0.09983853 -0.10195881 -0.17817834
000330 47 1c 93 bf fb f8 03 be f7 31 f6 be 48 3b 3b bd
       -1.1493005 -0.12887947 -0.48084995 -0.045710832
000340 5c 1c 40 bc 2c e8 a3 bd bc 6a 68 3d cb c9 1a be
       -0.011725511 -0.08003268 0.056742415 -0.1511604
000350 68 d8 0a bf 20 e2 d0 be ea 24 83 be 0d 9d 04 bc
       -0.5423646 -0.4079752 -0.256141 -0.008094084
000360 8e dd 14 3e 18 23 eb 3c 40 41 9a bd 47 fd 2e 3f
       0.14537641 0.028703257 -0.07531977 0.6835522
000370 bb ff af bc ef 2e 6c 3e 97 e7 5e 3f 32 5c e1 3d
       -0.021484246 0.23064779 0.8707213 0.11003913
000380 4b 1c 0d 3e 60 6d 32 be af b2 50 3f cc 46 13 3d
       0.13780324 -0.17424536 0.8152265 0.03595619
000390 e8 8d 00 3d 59 1b 02 3e 5a 82 eb 3d 4c 86 e1 3c
       0.031385332 0.12705745 0.11499472 0.027529858
0003a0 43 5c 28 3d 37 2c 9e bd 65 99 2c 3f 3c 9d a8 be
       0.041103613 -0.07723277 0.6742156 -0.3293246
0003b0 61 90 1d 3e 12 47 24 3f b6 5e 7f be 57 1b 23 3f
       0.15387107 0.64170945 -0.24938473 0.6371359
0003c0 36 36 26 bf 8f a7 d3 bd 91 a2 5d 3e b8 8a 14 3e
       -0.6492647 -0.10334694 0.21644045 0.14506042
0003d0 f9 17 2c bd 52 f8 f1 bd 95 80 36 be d7 d6 81 bd
       -0.04201505 -0.118149415 -0.17822488 -0.063398056
0003e0 10 b7 1d 3e d5 fb a7 3e 5a ac e7 3d 72 65 be 3d
       0.15401864 0.3280932 0.1131217 0.09296693
0003f0 79 2b 55 3d 14 91 1d be 1c ed 29 3e 10 35 3f be
       0.052043412 -0.15387374 0.16594356 -0.18672585

conv2.0.bias f4 [64]
000000 00 00 00 00 7d d9 14 3c d8 14 b2 3f 70 47 bb 3f
       0.0 0.009085056 1.3912611 1.4631176
000010 31 3a c9 bc d4 08 9f 3f 8f 14 dd bf e7 8b aa 3f
       -0.02456388 1.2424569 -1.7271899 1.3323945
000020 74 c7 14 bd fd 3c a4 3f b9 89 a5 3f f9 dd 9d 3f
       -0.036323026 1.2831112 1.2932655 1.2333366
000030 78 dc b2 3f d2 03 88 bd 60 64 9d 3f 60 cd 02 bb
       1.3973532 -0.06641354 1.2296257 -0.0019958839
000040 8d fa 9e 3f ce e5 05 bd 75 0e bb 3f b7 01 73 bc
       1.2420212 -0.032689862 1.4613787 -0.014831952
000050 cf ac cb bf 00 00 00 00 e4 e7 e3 bf 86 9c 9b 3f
       -1.5912112 0.0 -1.7805142 1.2157142
000060 58 81 bc 3f 00 00 00 00 00 00 00 00 23 68 e0 bf
       1.4726973 0.0 0.0 -1.753178
000070 2a 98 a2 3f 3e 53 9d 3f 6d 89 b6 3f 7e 50 4e 3f
       1.2702687 1.2291028 1.4260689 0.8059157
000080 7a 54 bc 3f d9 b6 99 3f b9 08 aa 3f d6 7b c9 3f
       1.471328 1.2008926 1.3283912 1.5740917
000090 7d 7c 9b 3f 68 06 f4 bc f7 ce 00 bd 82 76 9a 3f
       1.2147366 -0.029788211 -0.031447377 1.2067416
0000a0 fd 5c 99 3f 93 d8 d3 bf ce e8 fc bb 6e d8 33 bf
       1.1981503 -1.6550468 -0.007718182 -0.7025212
0000b0 f8 d4 95 3f 08 7a d2 bf 9e db 3d 3f 4d a1 a7 3f
       1.1705618 -1.6443491 0.74163234 1.30961
0000c0 ee c0 a4 3f 77 45 06 bd 92 59 a2 3f 46 e9 7a bc
       1.2871377 -0.03278109 1.2683585 -0.015314406
0000d0 70 40 d4 bf 54 69 b3 3f 45 bf c3 bf 0d 78 14 bd
       -1.6582165 1.4016519 -1.5292746 -0.0362473
0000e0 b2 32 d0 bf 1c bf 00 bd b2 c7 a1 3f 92 67 d3 bf
       -1.6265471 -0.031432256 1.2639067 -1.6515982
0000f0 44 86 c9 bf 70 2d a3 3e c5 9e 9f 3f 00 00 00 00
       -1.57441 0.31870604 1.2470328 0.0

conv3.0.weight f4 [1, 64]
000000 d0 c0 56 3e d1 2e 7e 3f 8e be c4 3f 39 5c 75 3e
       0.2097199 0.99290186 1.5370653 0.23960961
000010 4f 7a f4 bc c0 e8 74 3f f5 48 11 bf e2 ef bf 3f
       -0.029843478 0.9566765 -0.5675195 1.4995081
000020 a6 ec 6e 3e fa 24 5d 3e 1f a3 f5 3f 07 cf 9d 3e
       0.23332462 0.21596137 1.9190406 0.30822012
000030 5a 34 b0 3f 2f 39 22 be 68 85 e3 3e 70 a1 86 3e
       1.3765976 -0.15842126 0.44437718 0.26295042
000040 db a2 09 3f 3c cc 81 be 06 6f a5 3f 67 b7 91 bd
       0.5376412 -0.2535113 1.2924507 -0.07115059
000050 24 d9 eb be b0 db b7 3d dc 14 0a bf 47 35 e0 3f
       -0.46064103 0.08977449 -0.5393808 1.7516259
000060 25 fe 55 3f 04 19 83 be f8 eb 86 3e d7 d4 13 bf
       0.8359092 -0.25605023 0.26351905 -0.5774664
000070 46 60 8b 3f f8 a4 02 3f cc aa c7 3e 4b 40 b3 bf
       1.0888755 0.5103297 0.38997495 -1.4003996
000080 cd 29 d0 3f da c0 c6 3f 47 e7 34 3f 28 5b 1f 3f
       1.6262757 1.5527604 0.706654 0.6224847
000090 5a 2e a0 3f c5 9d ad 3d 02 f7 81 3b e6 a2 b6 3f
       1.2514145 0.08477358 0.003966213 1.4268463
0000a0 ae 6f e9 3e b4 ac 26 bf c1 0e 94 3e f0 94 0d bf
       0.45593017 -0.65107274 0.28917506 -0.55305386
0000b0 a1 1e 99 3e 16 f2 0d bf 7e a1 8c bf 45 d1 bb 3f
       0.2990618 -0.5544752 -1.0986784 1.4673239
0000c0 b8 1e cc 3f c6 3a ba bd 2a a6 92 3e b9 bb 0a ba
       1.5946875 -0.090932414 0.28642398 -0.0005292255
0000d0 8c fe 0c bf 3c 50 54 3f ef 7a 97 bf bd b4 d7 bc
       -0.5507591 0.8293493 -1.1834391 -0.0263313
0000e0 ca 54 16 bf f8 c6 33 3e 7b 74 02 3f c2 ab 93 bf
       -0.5872313 0.1755637 0.50958985 -1.1536791
0000f0 d9 73 24 bf e7 fb ac bf 0c c6 01 3f fe 93 36 be
       -0.6423927 -1.3514374 0.5069282 -0.17829892

exp_avg f4 [64, 4]
000000 b0 48 d2 3d 2e 75 a7 bf 29 7e cd c1 8c e3 2d c2
       0.1026777 -1.3082635 -25.686602 -43.472214
000010 49 98 09 3f de 29 3d bf 4e be a4 c0 82 c0 6c c1
       0.53747994 -0.7389201 -5.1482306 -14.796999
000020 00 00 00 00 00 00 00 00 00 00 00 00 00 00 00 00
       0.0 0.0 0.0 0.0
000030 30 4b 61 40 c1 87 8e c1 a6 55 d3 c1 a3 f3 7a c3
       3.520214 -17.816286 -26.41682 -250.9517
000040 12 94 2f c0 ce 87 a6 41 54 41 3f 40 86 cf 38 43
       -2.7434125 20.81631 2.9883623 184.81064
000050 8b 25 47 3f d2 2b c0 c0 6d 84 c7 c0 e4 f8 80 c2
       0.7779166 -6.005349 -6.2349153 -64.486115
000060 04 00 00 00 ec 42 89 bc 2b 7e 23 ba 80 64 f4 bc
       6e-45 -0.016755544 -0.0006236757 -0.029833078
000070 00 00 00 00 00 00 00 00 00 00 00 00 00 00 00 00
       0.0 0.0 0.0 0.0
000080 00 00 00 00 00 00 00 00 00 00 00 00 00 00 00 00
       0.0 0.0 0.0 0.0
000090 ba f6 46 3a c0 4f a9 be a4 53 f9 40 2b dd 09 41
       0.00075898657 -0.33068657 7.79146 8.616496
0000a0 00 00 00 00 00 00 00 00 00 00 00 00 00 00 00 00
       0.0 0.0 0.0 0.0
0000b0 00 00 00 00 00 00 00 00 00 00 00 00 00 00 00 00
       0.0 0.0 0.0 0.0
0000c0 c0 8f 0d 3b 9a a1 fb 3f 09 b1 fe 41 22 86 32 42
       0.0021600574 1.9658692 31.836443 44.63099
0000d0 9c 61 e9 3f cb 33 4c c1 66 fe 60 c0 da 4b 0c c3
       1.8232913 -12.762645 -3.5155272 -140.2963
0000e0 00 00 00 00 04 00 00 80 2f a4 78 3e fe ac 40 3e
       0.0 -6e-45 0.24281381 0.18815991
0000f0 00 00 00 00 00 00 00 00 00 00 00 00 00 00 00 00
       0.0 0.0 0.0 0.0
000100 34 9b 97 be 49 54 9b 41 5c 13 96 41 74 0a 5c 43
       -0.29610598 19.416155 18.759453 220.04083
000110 00 00 00 00 00 00 00 00 00 00 00 00 00 00 00 00
       0.0 0.0 0.0 0.0
000120 ef 2c 24 bf 71 04 bb 40 70 a3 ba 40 ee 62 75 42
       -0.64131063 5.844292 5.832451 61.34661
000130 4a 77 c9 bf 82 a7 6a 41 78 9a 2c 41 4c e5 0c 43
       -1.5739529 14.665895 10.787712 140.89569
000140 b9 d1 5a c0 d8 57 34 42 eb 5b 81 42 3b 0d b1 43
       -3.4190505 45.085785 64.67953 354.10336
000150 8a d6 be c0 38 10 ad 41 db 4f 61 c1 ec 42 25 43
       -5.963689 21.63292 -14.081996 165.26141
000160 1d 70 ea 3b c5 18 a2 bf ef 84 59 41 e3 fe 71 41
       0.007154478 -1.2663809 13.5949545 15.124728
000170 f1 81 e0 bd 8b 24 62 c1 18 ac bf c0 77 08 71 c2
       -0.10962284 -14.133922 -5.9897575 -60.258266
000180 94 bf 51 bf 02 9c ec 40 ec 53 07 41 3b 5a a5 42
       -0.8193295 7.394044 8.457989 82.67623
000190 ce 33 32 bf de e3 0b 41 c8 da f9 40 3a 15 a5 42
       -0.696103 8.743132 7.8079567 82.54146
0001a0 c4 e6 7f 3f db 31 6a c0 1a 31 c4 c0 ab 8f 53 c2
       0.99961495 -3.659293 -6.130994 -52.8903
0001b0 9a 3b c8 40 58 62 5e c2 16 a5 65 c2 b2 e9 fc c3
       6.2572756 -55.59604 -57.411217 -505.82574
0001c0 05 9c 2a 3f 4e a1 b9 bf 3c 6b 90 c0 73 d3 18 c2
       0.66644317 -1.4502351 -4.51309 -38.206493
0001d0 d8 ba c2 3f 7d db 1d c1 c6 d1 cf c0 c0 24 cc c2
       1.521327 -9.866086 -6.494357 -102.07178
0001e0 61 2f 1e 3e 77 c4 fc bf 51 85 1d c2 dd 59 87 c2
       0.15447761 -1.9747456 -39.38019 -67.675514
0001f0 00 00 00 00 00 00 00 00 00 00 00 00 00 00 00 00
       0.0 0.0 0.0 0.0
000200 be 5a fa bd 47 67 1c c2 64 88 ec c1 32 79 56 c3
       -0.12224339 -39.100857 -29.566597 -214.47342
000210 2f 20 74 c0 23 5d 1e 42 ba d3 17 42 c1 aa b4 43
       -3.8144643 39.590954 37.956764 361.334
000220 03 e0 e2 40 5b 12 1f c2 38 73 30 c2 3e 08 fe c3
       7.089845 -39.767925 -44.11252 -508.0644
000230 af 0b 2e c1 ce 4d 0c c2 ea 31 a6 c2 57 54 f8 c3
       -10.877852 -35.07598 -83.09749 -496.6589
000240 00 00 00 00 00 00 00 00 00 00 00 00 00 00 00 00
       0.0 0.0 0.0 0.0
000250 00 00 00 00 00 00 00 00 00 00 00 00 00 00 00 00
       0.0 0.0 0.0 0.0
000260 00 00 00 00 04 00 00 00 04 00 00 00 04 00 00 00
       0.0 6e-45 6e-45 6e-45
000270 4d 7d 07 40 2a 0d 3d c1 a1 93 91 c1 78 35 21 c3
       2.1170228 -11.815714 -18.197084 -161.20886
000280 cd ad 93 3f 91 ed 15 41 2a 62 4b 42 a6 bc 66 43
       1.1537415 9.3705 50.845863 230.73691
000290 81 de b7 3e 6f 36 fd bf a2 a6 31 c0 39 c9 71 c1
       0.35911945 -1.9782237 -2.7757955 -15.111627
0002a0 08 0b ae 40 68 9a 10 c2 8e ab 32 c2 e1 9a d0 c3
       5.4388466 -36.150787 -44.667534 -417.21
0002b0 74 be 93 c0 0b f9 84 41 06 d6 f5 40 30 f8 50 43
       -4.6169987 16.621603 7.682376 208.96948
0002c0 00 00 00 00 00 00 00 00 00 00 00 00 00 00 00 00
       0.0 0.0 0.0 0.0
0002d0 6a 24 9f 40 36 12 c5 c1 6f 6b 0c c2 92 d4 a9 c3
       4.973195 -24.633892 -35.104916 -339.6607
0002e0 a0 d2 8f bf ed c7 63 41 52 d6 3c 41 3c e0 f1 42
       -1.1236153 14.23631 11.802324 120.93796
0002f0 e0 f4 1e bb db 87 03 c0 25 8e 93 c1 61 0c 87 c1
       -0.0024254844 -2.055167 -18.444407 -16.881044
000300 00 00 00 00 04 00 00 00 7a e8 26 3f 77 c6 ec 3e
       0.0 6e-45 0.6519848 0.46245167
000310 c4 42 04 bf 7e 2d ea 40 f7 a3 8f 40 f8 39 7b 42
       -0.51664376 7.3180532 4.4887652 62.80661
000320 00 00 00 00 00 00 00 00 00 00 00 00 00 00 00 00
       0.0 0.0 0.0 0.0
000330 5a 56 f6 3e 9f 45 96 c0 53 ef c3 c0 92 53 a2 c2
       0.48112756 -4.6959987 -6.1229644 -81.16322
000340 85 f3 87 c0 08 e9 fa 41 6b d2 c2 41 47 39 b7 43
       -4.2484765 31.363785 24.352743 366.44748
000350 00 00 00 00 00 00 00 00 00 00 00 00 00 00 00 00
       0.0 0.0 0.0 0.0
000360 00 00 00 00 00 00 00 00 00 00 00 00 00 00 00 00
       0.0 0.0 0.0 0.0
000370 c8 c7 97 be f4 0d 41 40 3b f4 6c 40 71 a7 0d 42
       -0.29644608 3.0164766 3.7024066 35.413517
000380 3f a3 d4 3f 50 d6 3f c1 eb cc 48 c1 42 df f0 c2
       1.6612319 -11.989822 -12.550029 -120.43605
000390 cc 92 d0 3f 3c 03 78 c1 69 35 66 c1 1a 48 03 c3
       1.6294799 -15.50079 -14.38804 -131.28165
0003a0 00 00 00 00 00 00 00 00 00 00 00 00 00 00 00 00
       0.0 0.0 0.0 0.0
0003b0 00 00 00 00 00 00 00 00 00 00 00 00 00 00 00 00
       0.0 0.0 0.0 0.0
0003c0 49 a8 77 3f 14 d9 9e c0 68 82 03 c1 6f 9b 75 c2
       0.9674116 -4.963999 -8.219337 -61.40179
0003d0 00 00 00 00 00 00 00 00 00 00 00 00 00 00 00 00
       0.0 0.0 0.0 0.0
0003e0 5c 30 fe be 46 ce 0c 41 c5 87 a4 40 f6 58 ae 42
       -0.4964627 8.80036 5.1415734 87.17375
0003f0 6a 39 93 c0 7c 10 5c 42 9e f1 ea 41 dc b1 38 44
       -4.6007586 55.016098 29.367977 738.77905

exp_avg_sq f4 [64, 4]
000000 fa b4 99 3f b3 d6 28 41 05 df 2a 45 57 24 2a 46
       1.2008355 10.552417 2733.9387 10889.085
000010 da a6 ca 3f ed 72 25 44 2f 1a ab 44 7b a7 df 47
       1.5832169 661.7957 1368.8182 114510.96
000020 00 00 00 00 00 00 00 00 00 00 00 00 00 00 00 00
       0.0 0.0 0.0 0.0
000030 93 e8 82 42 c5 62 f2 46 4f 49 6f 47 13 4d b0 4a
       65.45425 31025.385 61257.31 5.7770335e+06
000040 be de d9 41 75 b8 82 46 06 d0 ea 46 d9 bc 3f 4a
       27.23376 16732.229 30056.012 3.1414302e+06
000050 15 34 4b 40 d8 62 ed 44 63 d3 6a 45 80 09 b0 48
       3.1750538 1899.0889 3757.2117 360524.0
000060 c4 a5 af 34 92 ab 06 3f 32 39 85 3d 62 e5 4e 40
       3.27169e-07 0.52605546 0.0650505 3.2327504
000070 00 00 00 00 00 00 00 00 00 00 00 00 00 00 00 00
       0.0 0.0 0.0 0.0
000080 00 00 00 00 00 00 00 00 00 00 00 00 00 00 00 00
       0.0 0.0 0.0 0.0
000090 16 e7 52 3a a6 a7 35 42 2d f3 c7 44 d0 74 a6 45
       0.0008045299 45.41372 1599.5992 5326.6016
0000a0 00 00 00 00 00 00 00 00 00 00 00 00 00 00 00 00
       0.0 0.0 0.0 0.0
0000b0 00 00 00 00 00 00 00 00 00 00 00 00 00 00 00 00
       0.0 0.0 0.0 0.0
0000c0 be 67 ca 3e 2a 21 de 41 ba 0d c5 45 24 4b 59 46
       0.39532274 27.766193 6305.716 13906.785
0000d0 f8 95 67 41 d8 12 0b 46 cd 6d 86 46 e9 da d5 49
       14.474113 8900.711 17206.9 1.7519011e+06
0000e0 00 00 00 00 76 4c 7c 38 2e e2 c2 40 18 d2 1d 40
       0.0 6.015269e-05 6.09011 2.465948
0000f0 00 00 00 00 00 00 00 00 00 00 00 00 00 00 00 00
       0.0 0.0 0.0 0.0
000100 21 49 01 41 64 af c2 45 e9 54 2f 46 1f 9e 8c 49
       8.080354 6229.924 11221.228 1.1519399e+06
000110 00 00 00 00 00 00 00 00 00 00 00 00 00 00 00 00
       0.0 0.0 0.0 0.0
000120 17 17 04 40 4f f0 8b 44 2a 87 09 45 2c 56 50 48
       2.0639093 1119.5096 2200.4478 213336.69
000130 f7 95 31 41 53 74 d3 45 72 33 42 46 41 e2 99 49
       11.0991125 6766.5405 12428.861 1.2606161e+06
000140 6e e9 04 43 6a 62 49 47 a8 95 a8 48 43 c3 94 4b
       132.91183 51554.414 345261.25 1.949863e+07
000150 dd 6f e0 42 d9 74 76 47 df fc d5 47 2c 65 3d 4b
       112.21848 63092.848 109561.74 1.2412204e+07
000160 b1 28 60 40 d7 bb 81 42 af ad 6a 45 7b 39 57 46
       3.5024836 64.866875 3754.8552 13774.37
000170 00 6e 89 3d 8a cb b9 42 c3 11 0e 42 50 54 77 45
       0.06710434 92.89754 35.517345 3957.2695
000180 22 dc 80 40 5d b7 04 45 7a 63 7f 45 c4 c2 bf 48
       4.0268717 2123.4602 4086.2173 392726.12
000190 81 96 33 40 4c e2 ce 44 a5 26 3d 45 5d 2c 93 48
       2.806061 1655.0718 3026.4153 301410.9
0001a0 67 82 bb 40 ba 85 1e 45 5a 83 a0 45 68 57 e6 48
       5.8596683 2536.358 5136.419 471739.25
0001b0 20 22 3f 43 e6 06 bf 47 e5 ea 3f 48 4c c9 8b 4b
       191.1333 97805.8 196523.58 1.8322072e+07
0001c0 cb 35 0a 40 5a ff 73 44 c4 18 fa 44 42 2d 39 48
       2.1595333 975.98987 2000.7739 189621.03
0001d0 35 54 2c 41 d5 e6 94 45 3f 98 13 46 05 d4 5d 49
       10.770558 4764.854 9446.062 908608.3
0001e0 29 80 1e 40 f7 67 bd 41 a9 9f bf 45 b3 e9 c8 46
       2.4765723 23.675764 6131.9575 25716.85
0001f0 00 00 00 00 00 00 00 00 00 00 00 00 00 00 00 00
       0.0 0.0 0.0 0.0
000200 ff 54 80 3e 84 cd e0 44 19 04 73 46 4f 65 fd 47
       0.25064847 1798.4224 15553.024 129738.62
000210 85 40 8d 42 0d 05 14 47 ee 3d 8b 47 74 47 d5 4a
       70.626015 37893.05 71291.86 6.98873e+06
000220 2f 63 7c 43 8e 3b fd 47 c6 d7 7a 48 f4 44 bb 4b
       252.38744 129655.11 256863.1 2.4545768e+07
000230 49 5d 61 43 d5 ff a8 47 b0 7e ca 47 4c ea 2d 4b
       225.3644 86527.664 103677.375 1.1397708e+07
000240 00 00 00 00 00 00 00 00 00 00 00 00 00 00 00 00
       0.0 0.0 0.0 0.0
000250 00 00 00 00 00 00 00 00 00 00 00 00 00 00 00 00
       0.0 0.0 0.0 0.0
000260 00 00 00 00 c1 38 f2 2f 29 2e 59 32 d7 ae e5 31
       0.0 4.405987e-10 1.2641558e-08 6.684654e-09
000270 e8 6c c6 41 a3 e4 2f 46 ef c3 ae 46 52 ff fd 49
       24.803177 11257.159 22369.967 2.0807462e+06
000280 f6 6d 9c 41 e5 e7 62 45 ea be be 46 07 ff fe 48
       19.553692 3630.4934 24415.457 522232.22
000290 f7 0a 1d 3f 86 b1 64 43 d1 73 f3 43 e0 25 1e 47
       0.61344856 228.69345 486.90482 40485.875
0002a0 07 8b 19 43 97 de 94 47 85 7d 15 48 9f f7 59 4b
       153.54308 76221.18 153078.08 1.4284703e+07
0002b0 1e b8 88 42 cc 4d 16 47 52 d7 8a 47 7c 4d e5 4a
       68.359604 38477.797 71086.64 7.51379e+06
0002c0 00 00 00 00 00 00 00 00 00 00 00 00 00 00 00 00
       0.0 0.0 0.0 0.0
0002d0 83 df 02 43 bb 9d 72 47 d3 cd f3 47 d0 7c 31 4b
       130.8731 62109.73 124827.65 1.1631824e+07
0002e0 7f d0 b3 40 e5 e4 63 45 7d 16 d3 45 05 16 26 49
       5.619201 3646.306 6754.811 680288.3
0002f0 65 bd 0c 3c 23 6c b6 41 39 ae be 44 b1 48 bc 44
       0.008590077 22.802801 1525.4445 1506.2716
000300 00 00 00 00 50 45 9e 37 fe b1 f2 40 42 37 44 40
       0.0 1.8867344e-05 7.5842276 3.0658727
000310 ee b5 a7 3f cd b5 84 44 ad aa fc 44 ea 62 44 48
       1.3102396 1061.6813 2021.3336 201099.66
000320 00 00 00 00 00 00 00 00 00 00 00 00 00 00 00 00
       0.0 0.0 0.0 0.0
000330 a1 d0 55 40 ce 27 07 45 7e ca 69 45 6e 1c c2 48
       3.3408587 2162.4878 3740.6558 397539.44
000340 9b 6b de 41 c6 35 cb 46 17 cd 92 46 6b ac 62 4a
       27.802542 26010.887 18790.545 3.7138188e+06
000350 00 00 00 00 00 00 00 00 00 00 00 00 00 00 00 00
       0.0 0.0 0.0 0.0
000360 00 00 00 00 00 00 00 00 00 00 00 00 00 00 00 00
       0.0 0.0 0.0 0.0
000370 fe 72 07 3f b1 51 81 43 64 f1 ec 43 d2 de 33 47
       0.5290984 258.6382 473.88586 46046.82
000380 91 eb 4d 41 c9 20 d3 45 b9 cd 4a 46 61 8d 99 49
       12.870011 6756.098 12979.431 1.2579001e+06
000390 21 5b 3b 41 ef d0 d1 45 94 4b 51 46 ad c4 97 49
       11.709748 6714.1167 13394.895 1.2432856e+06
0003a0 00 00 00 00 00 00 00 00 00 00 00 00 00 00 00 00
       0.0 0.0 0.0 0.0
0003b0 00 00 00 00 00 00 00 00 00 00 00 00 00 00 00 00
       0.0 0.0 0.0 0.0
0003c0 0c 12 ab 40 44 6f 05 45 db b7 8e 45 7e cc c4 48
       5.345953 2134.954 4566.982 403043.94
0003d0 00 00 00 00 00 00 00 00 00 00 00 00 00 00 00 00
       0.0 0.0 0.0 0.0
0003e0 67 0a 8e 3f 8e 97 77 44 fe 24 de 44 cc 94 3a 48
       1.1096925 990.36804 1777.156 191059.19
0003f0 36 c6 e9 42 4e 59 0a 48 54 b2 30 48 16 5b af 4b
       116.88713 141669.22 180937.31 2.2984236e+07

exp_avg f4 [64]
000000 aa b3 75 bf 45 9e 81 bd 00 00 00 00 cc f7 c1 bf
       -0.9597727 -0.06329016 0.0 -1.5153747
000010 d8 8c c1 3f dd 92 d1 be e5 04 b6 bf 00 00 00 00
       1.5121107 -0.4093236 -1.4220244 0.0
000020 00 00 00 00 47 17 93 bf 00 00 00 00 00 00 00 00
       0.0 -1.1491479 0.0 0.0
000030 7b 0a 07 c0 89 22 1e bf 16 1b 26 c0 00 00 00 00
       -2.1100147 -0.61771446 -2.5954032 0.0
000040 5f bd 3c 40 00 00 00 00 fc 1f fe 3e b5 f0 cd 3f
       2.9490583 0.0 0.49633777 1.6089083
000050 32 9e 80 40 7c 2f bc 3e 1e ca 02 c0 8c 80 bc be
       4.019311 0.36754978 -2.0435863 -0.36816823
000060 ca a0 2e 3f d8 56 55 3f 92 82 4f be 9a 81 3f c0
       0.68214095 0.8333564 -0.20264652 -2.9922853
000070 bd 1d 30 be 20 a0 01 bf 7e 06 d0 bf 00 00 00 00
       -0.17198844 -0.50634956 -1.6251981 0.0
000080 d4 c9 ea c0 16 0c 8b 40 34 2b 51 c0 d4 2d 3d c1
       -7.337137 4.3452253 -3.268262 -11.8236885
000090 00 00 00 00 00 00 00 00 04 00 00 00 c1 7f 5d bf
       0.0 0.0 6e-45 -0.8652306
0000a0 1e 6d 59 40 fc 32 06 3e aa b3 17 c0 a4 a9 13 40
       3.397285 0.13105386 -2.3703408 2.307229
0000b0 00 00 00 00 80 c7 ee bf ec b1 a9 3f 50 25 83 c0
       0.0 -1.8654633 1.3257422 -4.0983047
0000c0 36 84 5a c0 99 03 10 3f 00 00 00 00 53 4d 62 bf
       -3.4143195 0.5625549 0.0 -0.8839924
0000d0 22 b3 a9 40 00 00 00 00 00 00 00 00 5d 99 ca 3e
       5.303117 0.0 0.0 0.39570132
0000e0 c0 6d 36 bf ed 4e 47 bf 00 00 00 00 00 00 00 00
       -0.71261215 -0.77854806 0.0 0.0
0000f0 97 99 0e be 00 00 00 00 15 f9 3a 3f 46 31 0f 41
       -0.13925777 0.0 0.7303632 8.94953

exp_avg_sq f4 [64]
000000 fa 60 03 43 34 86 6c 41 00 00 00 00 bf 05 f5 43
       131.37881 14.782764 0.0 490.0449
000010 5c 70 4c 43 40 37 de 41 1c 6c 60 41 00 00 00 00
       204.4389 27.776978 14.026394 0.0
000020 00 00 00 00 71 2f 00 43 00 00 00 00 00 00 00 00
       0.0 128.18532 0.0 0.0
000030 a4 6d 1f 44 a4 9a e9 42 ce 8a 42 42 00 00 00 00
       637.71313 116.80203 48.63555 0.0
000040 1c 9c 91 42 00 00 00 00 75 86 77 41 8e 8f a7 42
       72.8049 0.0 15.470326 83.78038
000050 e9 01 d8 44 02 e9 3c 44 b5 fa 48 43 be 60 a4 3e
       1728.0597 755.64075 200.97932 0.32105058
000060 81 d9 e5 41 8d 27 a9 41 1f c5 24 42 cd 87 b9 44
       28.731203 21.144312 41.1925 1484.2438
000070 92 4d 87 41 3a 27 92 42 30 0c 91 43 00 00 00 00
       16.912876 73.076614 290.0952 0.0
000080 46 6d 22 44 73 8e f3 43 c2 bc f6 44 7f 78 b2 44
       649.7074 487.11288 1973.8987 1427.7655
000090 00 00 00 00 00 00 00 00 ae 49 56 2f 7a 71 36 43
       0.0 0.0 1.9489363e-10 182.44327
0000a0 6a 2c b0 43 d4 e6 c2 40 78 f3 93 44 05 ec f0 43
       352.347 6.0906773 1183.6084 481.8439
0000b0 00 00 00 00 e9 59 7a 44 d3 b3 34 42 bf dd 88 42
       0.0 1001.40485 45.17561 68.4331
0000c0 8d e0 af 42 5b 0e 51 41 00 00 00 00 07 06 db 41
       87.938576 13.066005 0.0 27.377943
0000d0 89 30 50 43 00 00 00 00 00 00 00 00 6b ba 67 40
       208.18959 0.0 0.0 3.620753
0000e0 67 d9 c2 42 a7 0d c4 42 00 00 00 00 00 00 00 00
       97.424614 98.026665 0.0 0.0
0000f0 c4 31 20 42 00 00 00 00 63 02 3c 41 cd 18 ae 44
       40.0486 0.0 11.750583 1392.775

exp_avg f4 [64, 64]
000000 00 00 00 00 00 00 00 00 00 00 00 00 00 00 00 00
       0.0 0.0 0.0 0.0
000010 00 00 00 00 00 00 00 00 00 00 00 00 00 00 00 00
       0.0 0.0 0.0 0.0
000020 00 00 00 00 00 00 00 00 00 00 00 00 00 00 00 00
       0.0 0.0 0.0 0.0
000030 00 00 00 00 00 00 00 00 00 00 00 00 00 00 00 00
       0.0 0.0 0.0 0.0
000040 00 00 00 00 00 00 00 00 00 00 00 00 00 00 00 00
       0.0 0.0 0.0 0.0
000050 00 00 00 00 00 00 00 00 00 00 00 00 00 00 00 00
       0.0 0.0 0.0 0.0
000060 00 00 00 00 00 00 00 00 00 00 00 00 00 00 00 00
       0.0 0.0 0.0 0.0
000070 00 00 00 00 00 00 00 00 00 00 00 00 00 00 00 00
       0.0 0.0 0.0 0.0
000080 00 00 00 00 00 00 00 00 00 00 00 00 00 00 00 00
       0.0 0.0 0.0 0.0
000090 00 00 00 00 00 00 00 00 00 00 00 00 00 00 00 00
       0.0 0.0 0.0 0.0
0000a0 00 00 00 00 00 00 00 00 00 00 00 00 00 00 00 00
       0.0 0.0 0.0 0.0
0000b0 00 00 00 00 00 00 00 00 00 00 00 00 00 00 00 00
       0.0 0.0 0.0 0.0
0000c0 00 00 00 00 00 00 00 00 00 00 00 00 00 00 00 00
       0.0 0.0 0.0 0.0
0000d0 00 00 00 00 00 00 00 00 00 00 00 00 00 00 00 00
       0.0 0.0 0.0 0.0
0000e0 00 00 00 00 00 00 00 00 00 00 00 00 00 00 00 00
       0.0 0.0 0.0 0.0
0000f0 00 00 00 00 00 00 00 00 00 00 00 00 00 00 00 00
       0.0 0.0 0.0 0.0
000100 4a 27 ba bd 2e 5b 03 be 00 00 00 00 f6 87 be bd
       -0.09089525 -0.12827751 0.0 -0.09303276
000110 04 00 00 00 82 5b 8b bd 04 00 00 80 00 00 00 00
       6e-45 -0.06804563 -6e-45 0.0
000120 00 00 00 00 eb 37 c2 bd 00 00 00 00 00 00 00 00
       0.0 -0.09483322 0.0 0.0
000130 1b 80 f4 bd e8 f6 7b bb 50 0e 16 3a 00 00 00 00
       -0.11938497 -0.0038446728 0.00057241786 0.0
000140 f4 3a 16 ba 00 00 00 00 20 d6 d5 39 04 00 00 00
       -0.00057308306 0.0 0.0004078606 6e-45
000150 c1 13 37 bb 04 00 00 00 e2 c7 15 be 69 13 52 22
       -0.0027935358 6e-45 -0.1462703 2.8470583e-18
000160 c0 c1 21 3c c8 11 95 3b da bc 5a bd ed 32 ef bd
       0.009872854 0.004549239 -0.05340276 -0.11679635
000170 4c cd 82 bd e0 11 11 3a 54 76 c4 bd 00 00 00 00
       -0.063868135 0.00055339746 -0.09592882 0.0
000180 f1 49 b1 bd 04 00 00 00 9f 97 9e bd d4 2c e7 bb
       -0.08656681 6e-45 -0.07743763 -0.0070549045
000190 00 00 00 00 00 00 00 00 00 00 00 00 68 4d 06 be
       0.0 0.0 0.0 -0.13115466
0001a0 81 51 46 be 6a 57 a4 bd be 91 bc bd 04 00 00 00
       -0.19367029 -0.080244854 -0.092074856 6e-45
0001b0 00 00 00 00 57 43 aa bd 04 00 00 00 b2 0d 42 bd
       0.0 -0.08313625 6e-45 -0.047376342
0001c0 91 2e bd 39 23 7f 0d 3c 00 00 00 00 5d 9b 03 be
       0.00036083584 0.008636269 0.0 -0.12852235
0001d0 04 00 00 00 00 00 00 00 00 00 00 00 b2 e0 9f 3b
       6e-45 0.0 0.0 0.0048790807
0001e0 c9 84 d3 bd 00 09 1c be 00 00 00 00 00 00 00 00
       -0.10328061 -0.15237808 0.0 0.0
0001f0 cb 18 3b bd 00 00 00 00 66 1b 68 bc 7f 7b 03 29
       -0.04567794 0.0 -0.014166689 2.919496e-14
000200 d9 68 19 3d c4 0a 9d c0 00 00 00 00 97 50 14 bf
       0.037453506 -4.907564 0.0 -0.5793547
000210 11 ec 2b c0 4f f0 bf c0 92 6a 70 3e 00 00 00 00
       -2.6862833 -5.9980845 0.23478153 0.0
000220 00 00 00 00 04 40 4a 3e 00 00 00 00 00 00 00 00
       0.0 0.19750983 0.0 0.0
000230 8d 7d 89 3e 16 63 54 bf 8b 96 29 3e 00 00 00 00
       0.268536 -0.82963693 0.16561334 0.0
000240 40 19 b0 be 00 00 00 00 e1 96 e7 c0 cd 75 e9 bf
       -0.34394264 0.0 -7.237168 -1.8239075
000250 72 c7 7c 3e 92 33 8a bf f8 08 89 3d fc be 0d bd
       0.24685457 -1.0796988 0.06691164 -0.034605965
000260 26 68 e5 c0 10 59 3f c0 cd 76 be bf f2 f2 1b 3e
       -7.1689634 -2.989811 -1.4880005 0.15229395
000270 86 8a 37 c0 5f be d0 bf b2 a2 b0 3d 00 00 00 00
       -2.8678298 -1.6308097 0.08624782 0.0
000280 6d 34 20 3f e6 e0 dc bf 04 e5 bc 3e 38 62 45 3e
       0.62579995 -1.7256134 0.36893475 0.19275749
000290 00 00 00 00 00 00 00 00 00 00 00 00 9e 37 80 bf
       0.0 0.0 0.0 -1.0016973
0002a0 5c 4c ce bd df c2 5b c0 63 6c 5f bf ee fd 71 bf
       -0.10073158 -3.433769 -0.8727476 -0.9452809
0002b0 00 00 00 00 6a 03 53 bf 81 6a 30 c0 34 84 ac 21
       0.0 -0.82427084 -2.7565005 1.1690167e-18
0002c0 1d 1d 76 3e 2f 9e f7 c0 00 00 00 00 b9 e6 4e 3e
       0.24034543 -7.7380595 0.0 0.20205201
0002d0 7b 89 05 bf 00 00 00 00 00 00 00 00 de fa a2 bf
       -0.52162904 0.0 0.0 -1.2732809
0002e0 9c 03 a4 bf 22 c0 94 3e 00 00 00 00 00 00 00 00
       -1.2813601 0.29052836 0.0 0.0
0002f0 74 99 c7 c0 00 00 00 00 c9 7e a1 c0 d1 88 9b be
       -6.237482 0.0 -5.0467267 -0.3037782
000300 12 91 d6 bc c4 c4 9f bf 00 00 00 00 eb 02 0a be
       -0.026192222 -1.2481923 0.0 -0.13477676
000310 42 11 20 bf 1f 85 ce bf ac 1f 16 3d 00 00 00 00
       -0.62526333 -1.6134375 0.0366513 0.0
000320 00 00 00 00 70 0f 9e ba 00 00 00 00 00 00 00 00
       0.0 -0.0012059044 0.0 0.0
000330 05 2f 4f 3c ab 42 15 bf 70 3c d4 3c 00 00 00 00
       0.012645488 -0.5830485 0.025907725 0.0
000340 c4 0a ac be 00 00 00 00 92 ae 10 c0 01 9e 30 bf
       -0.33601964 0.0 -2.260655 -0.68991095
000350 6a 9f f4 3c 1a 30 29 be 26 f4 d2 bc c8 dd db be
       0.02986117 -0.16522256 -0.025751185 -0.42942643
000360 60 11 14 c0 3b c5 91 bf c1 d7 9c be 4e bf 13 bf
       -2.3135605 -1.1388315 -0.30633357 -0.5771378
000370 5d ef 8d bf 0e 7c b5 be 96 69 a6 bc 00 00 00 00
       -1.1088673 -0.3544621 -0.02031402 0.0
000380 1f 01 11 bf 14 6e 0d bf 7f f9 b8 3c ed e0 9e bf
       -0.56642336 -0.5524609 0.022579907 -1.2412392
000390 00 00 00 00 00 00 00 00 04 00 00 00 97 1f 5e be
       0.0 0.0 6e-45 -0.21691738
0003a0 06 c5 26 bf b7 f2 9c bf 0e be 59 be 81 91 14 be
       -0.65144384 -1.2261571 -0.21263906 -0.1450863
0003b0 00 00 00 00 64 df 2a be 2a 6e 2d bf 7c 07 0f bc
       0.0 -0.1668678 -0.6774622 -0.008729812
0003c0 36 8a 19 3d 6c ef 1a c0 00 00 00 00 f6 6a 67 bc
       0.037485324 -2.4208632 0.0 -0.014124623
0003d0 48 a2 4a bf 00 00 00 00 00 00 00 00 84 f2 ec be
       -0.7915387 0.0 0.0 -0.46278775
0003e0 ac 34 bb be 67 96 d7 be 00 00 00 00 00 00 00 00
       -0.36563623 -0.42106935 0.0 0.0
0003f0 95 32 d8 bf 00 00 00 00 c4 c2 72 bf 77 5d 19 bf
       -1.6890436 0.0 -0.9482844 -0.5990824

exp_avg_sq f4 [64, 64]
000000 00 00 00 00 00 00 00 00 00 00 00 00 00 00 00 00
       0.0 0.0 0.0 0.0
000010 00 00 00 00 00 00 00 00 00 00 00 00 00 00 00 00
       0.0 0.0 0.0 0.0
000020 00 00 00 00 00 00 00 00 00 00 00 00 00 00 00 00
       0.0 0.0 0.0 0.0
000030 00 00 00 00 00 00 00 00 00 00 00 00 00 00 00 00
       0.0 0.0 0.0 0.0
000040 00 00 00 00 00 00 00 00 00 00 00 00 00 00 00 00
       0.0 0.0 0.0 0.0
000050 00 00 00 00 00 00 00 00 00 00 00 00 00 00 00 00
       0.0 0.0 0.0 0.0
000060 00 00 00 00 00 00 00 00 00 00 00 00 00 00 00 00
       0.0 0.0 0.0 0.0
000070 00 00 00 00 00 00 00 00 00 00 00 00 00 00 00 00
       0.0 0.0 0.0 0.0
000080 00 00 00 00 00 00 00 00 00 00 00 00 00 00 00 00
       0.0 0.0 0.0 0.0
000090 00 00 00 00 00 00 00 00 00 00 00 00 00 00 00 00
       0.0 0.0 0.0 0.0
0000a0 00 00 00 00 00 00 00 00 00 00 00 00 00 00 00 00
       0.0 0.0 0.0 0.0
0000b0 00 00 00 00 00 00 00 00 00 00 00 00 00 00 00 00
       0.0 0.0 0.0 0.0
0000c0 00 00 00 00 00 00 00 00 00 00 00 00 00 00 00 00
       0.0 0.0 0.0 0.0
0000d0 00 00 00 00 00 00 00 00 00 00 00 00 00 00 00 00
       0.0 0.0 0.0 0.0
0000e0 00 00 00 00 00 00 00 00 00 00 00 00 00 00 00 00
       0.0 0.0 0.0 0.0
0000f0 00 00 00 00 00 00 00 00 00 00 00 00 00 00 00 00
       0.0 0.0 0.0 0.0
000100 b2 b4 a4 3d ab ea 95 3e 00 00 00 00 4a 8a 02 3e
       0.080422774 0.292806 0.0 0.12748066
000110 84 6f e7 32 32 76 d6 3d cd a1 b0 36 00 00 00 00
       2.694265e-08 0.10471763 5.264045e-06 0.0
000120 00 00 00 00 5a f3 e2 3d 00 00 00 00 00 00 00 00
       0.0 0.11081572 0.0 0.0
000130 34 ff db 3d b5 54 72 3c a4 d1 68 37 00 00 00 00
       0.107420355 0.014790704 1.3877088e-05 0.0
000140 10 3d ca 38 00 00 00 00 2d 69 1b 3d 79 3f cf 32
       9.6434844e-05 0.0 0.0379421 2.4126836e-08
000150 47 39 ed 37 c4 82 06 2f 37 73 73 3e 8f bf 0b 32
       2.8279273e-05 1.2233686e-10 0.2377442 8.13442e-09
000160 48 76 e7 39 ff c7 0f 39 11 60 58 3d 66 46 6b 3e
       0.0004414788 0.00013712047 0.05282599 0.22976074
000170 fd d1 b1 3d e5 80 c0 3a b3 02 ba 3d 00 00 00 00
       0.0868263 0.0014686851 0.09082546 0.0
000180 fd fd 0a 3e 43 5b 1c 32 b8 81 b8 3d 38 fe a9 3c
       0.13573451 9.101146e-09 0.09009117 0.020751104
000190 00 00 00 00 00 00 00 00 00 00 00 00 56 7e 86 3e
       0.0 0.0 0.0 0.26268262
0001a0 1b f3 22 3f c5 c8 0d 3e 19 75 09 3e e8 41 92 30
       0.636522 0.13846119 0.13423575 1.064163e-09
0001b0 00 00 00 00 25 2f d5 3d 26 ba 34 33 3d 4c 88 3c
       0.0 0.10409383 4.2078817e-08 0.016637916
0001c0 bd c0 2f 37 32 ef 01 3d 00 00 00 00 3b 31 71 3e
       1.0475688e-05 0.031722255 0.0 0.23553936
0001d0 ce 2a 9f 33 00 00 00 00 00 00 00 00 e6 7b 5b 39
       7.4118006e-08 0.0 0.0 0.00020931623
0001e0 0c 01 31 3e fb 48 bf 3e 00 00 00 00 00 00 00 00
       0.17285556 0.37360367 0.0 0.0
0001f0 7b 4c 76 3d 00 00 00 00 5e 22 f0 3c 8b ac a4 35
       0.06013153 0.0 0.029313263 1.2269169e-06
000200 df d4 3d 3f 0d 14 2e 45 00 00 00 00 97 7e 30 43
       0.7415294 2785.2532 0.0 176.49449
000210 a0 14 ac 43 ae 69 72 45 99 5f d6 3e 00 00 00 00
       344.16113 3878.605 0.4186981 0.0
000220 00 00 00 00 e9 d9 36 3f 00 00 00 00 00 00 00 00
       0.0 0.71426255 0.0 0.0
000230 3c 60 2b 3f ab 55 8c 43 2d ee 52 3e 00 00 00 00
       0.66943717 280.66928 0.2059867 0.0
000240 e0 e4 20 42 00 00 00 00 b8 83 86 45 7d de 48 43
       40.22351 0.0 4304.465 200.8691
000250 74 ca 8d 41 b2 ec af 42 57 e4 8b 3f 0e 98 14 3f
       17.723854 87.962296 1.0929059 0.5804452
000260 c5 db 75 45 05 ce 31 44 25 2f cb 43 dc 94 8f 42
       3933.7356 711.21906 406.36832 71.79074
000270 3b 98 90 44 ea 62 93 43 40 79 87 3f 00 00 00 00
       1156.7572 294.77277 1.0583878 0.0
000280 67 84 12 40 57 e2 2a 43 cf bd dc 41 0b f8 87 41
       2.2893312 170.88414 27.59268 16.996115
000290 00 00 00 00 00 00 00 00 00 00 00 00 15 5c 95 43
       0.0 0.0 0.0 298.7194
0002a0 0e 48 c7 41 ad 9d b1 44 92 5e 6a 43 ef ca 72 42
       24.910183 1420.9274 234.36942 60.698177
0002b0 00 00 00 00 10 d3 67 43 49 46 ea 43 32 30 b3 38
       0.0 231.82446 468.5491 8.544362e-05
0002c0 97 0e e0 3e bc 8d 90 45 00 00 00 00 16 72 97 42
       0.4376113 4625.717 0.0 75.722824
0002d0 6c 23 1e 41 00 00 00 00 00 00 00 00 10 4a 05 43
       9.883648 0.0 0.0 133.2893
0002e0 73 e3 c8 43 d3 0c 43 42 00 00 00 00 00 00 00 00
       401.77695 48.762524 0.0 0.0
0002f0 15 25 6e 45 00 00 00 00 a1 f4 e3 44 98 b6 10 41
       3810.3176 0.0 1823.6447 9.044579
000300 aa 08 d4 3c 5a ec 82 42 00 00 00 00 bd 69 82 40
       0.025883038 65.461624 0.0 4.0754075
000310 1e 90 03 41 63 29 b8 42 77 eb 2b 3c 00 00 00 00
       8.222685 92.08083 0.010493151 0.0
000320 00 00 00 00 1b 42 07 3d 00 00 00 00 00 00 00 00
       0.0 0.033022027 0.0 0.0
000330 7e bb cc 3c 3d f2 e7 40 c2 c3 9d 3b 00 00 00 00
       0.024991747 7.24832 0.004814596 0.0
000340 4f 3c 84 3f 00 00 00 00 2e 17 d1 42 4c c4 a1 40
       1.0330905 0.0 104.54527 5.055212
000350 80 94 d0 3e 82 bc 03 40 c4 cf 73 3d eb 4b e6 3d
       0.40738297 2.0583806 0.059524313 0.11244949
000360 2d df c0 42 1e a2 8e 41 2b 26 16 41 7c ce 0d 40
       96.43589 17.829159 9.384318 2.2157278
000370 4b 24 e2 41 10 1f d9 40 2c 7e 0b 3d 00 00 00 00
       28.267721 6.785042 0.034055874 0.0
000380 ec e8 c3 3e 58 d9 87 40 08 12 24 3f a7 ec 05 40
       0.38263643 4.245281 0.64090014 2.092569
000390 00 00 00 00 00 00 00 00 d8 92 fb 2a 13 d0 dc 40
       0.0 0.0 4.468845e-13 6.9003997
0003a0 ea 1b 9a 3f 7f e4 08 42 3e d2 ad 40 3b 86 b3 3f
       1.2039769 34.22314 5.4319143 1.4025339
0003b0 00 00 00 00 33 cf aa 40 42 5a 32 41 d1 75 f1 3a
       0.0 5.337793 11.147036 0.0018421953
0003c0 6b 46 27 3c 0e d1 e0 42 00 00 00 00 66 4b dc 3f
       0.01020966 112.40831 0.0 1.721051
0003d0 3a e3 42 3f 00 00 00 00 00 00 00 00 a4 fe 52 40
       0.7612797 0.0 0.0 3.296792
0003e0 15 e1 16 41 34 4f bf 3f 00 00 00 00 00 00 00 00
       9.429952 1.4946046 0.0 0.0
0003f0 0f 40 b5 42 00 00 00 00 56 cb 27 42 c0 db 00 3f
       90.625114 0.0 41.94857 0.5033531

exp_avg f4 [64]
000000 00 00 00 00 a3 c9 7b bd 00 bd 20 b9 ec 37 14 bd
       0.0 -0.061471593 -0.00015329197 -0.036186144
000010 04 00 00 00 60 ba 88 bc a0 78 66 3e a5 0b 43 be
       6e-45 -0.016690433 0.22506952 -0.19047411
000020 04 00 00 00 0b a3 04 bd 24 e8 fa be da 1d 1e 3c
       6e-45 -0.032382052 -0.49005234 0.009650672
000030 d4 7d 46 bd f5 f7 00 00 ac 28 8e bd da 05 66 3d
       -0.048459843 8.895e-41 -0.06941351 0.056157924
000040 ba 5d b9 3b 04 00 00 00 0a 1c cd 3c 04 00 00 00
       0.005656925 6e-45 0.025037784 6e-45
000050 d4 fb 3e 3e 00 00 00 00 f7 95 65 3e c5 aa 63 bd
       0.18650752 0.0 0.22420488 -0.05558278
000060 ca 0a e0 3c 00 00 00 00 00 00 00 00 84 fc 5a 3e
       0.027348895 0.0 0.0 0.2138539
000070 72 c3 74 3d cb ed 9f bd 07 28 73 bd 3e 94 dd be
       0.059756704 -0.07809027 -0.059364345 -0.43277162
000080 6f 7c e8 bd 36 19 52 bd ca 23 b8 bd 53 9e 0f bd
       -0.11351859 -0.051293574 -0.08991201 -0.0350631
000090 96 60 7c bc 04 00 00 00 04 00 00 00 95 1c 0c be
       -0.015403887 6e-45 6e-45 -0.13682778
0000a0 f4 a3 8e bd a3 4e 8f 3e 04 00 00 00 e9 14 b8 3e
       -0.06964865 0.27989683 6e-45 0.35953453
0000b0 41 aa 39 bd 4a ee ee 3d 02 60 5e be ca 81 a0 3d
       -0.045328382 0.11666544 -0.21716312 0.07837255
0000c0 0d e3 31 be af 04 5b 11 da 8b ca 3b 04 00 00 00
       -0.17371769 1.7277497e-28 0.0061812224 6e-45
0000d0 c2 ec 02 3e ee 49 d1 bd 78 20 bb 3e 04 00 00 00
       0.12785628 -0.10219179 0.3654821 6e-45
0000e0 14 ad 56 3e 04 00 00 00 80 bc 9f bd 84 18 80 3e
       0.20964462 6e-45 -0.077996254 0.25018704
0000f0 94 1d aa 3e e2 b2 87 bd c2 58 f9 bb 00 00 00 00
       0.3322569 -0.06625916 -0.0076094577 0.0

exp_avg_sq f4 [64]
000000 00 00 00 00 e8 80 6a 3d db a6 28 41 6b c4 82 3e
       0.0 0.05725184 10.540736 0.2554048
000010 b1 93 2c 34 85 5c 5a 40 b4 08 3e 3f 60 3e 1f 41
       1.6072478e-07 3.411897 0.7423203 9.952728
000020 88 1b 13 34 54 7a 45 3e 83 6a 6a 41 7b 5f b3 3e
       1.3700458e-07 0.19284946 14.651004 0.35033783
000030 1d c4 cb 40 1c b6 c6 35 81 ff 55 3f 7d d8 d3 3b
       6.3676896 1.480515e-06 0.83592993 0.0064650164
000040 d0 b2 66 3f 09 49 d9 33 bd c3 e6 40 78 05 ad 2b
       0.90116596 1.0118135e-07 7.211394 1.2293907e-12
000050 a7 4f ec 3e 00 00 00 00 8d 67 36 3f c0 6d 4c 41
       0.4615452 0.0 0.71251756 12.776794
000060 d5 6b 2e 40 00 00 00 00 00 00 00 00 ba fb 24 3f
       2.7253315 0.0 0.0 0.64446604
000070 23 50 9c 40 22 47 9d 3f 07 fc 2d 3f d8 61 9c 40
       4.8847823 1.2287333 0.6796269 4.886944
000080 65 48 26 41 89 cf 23 41 fb 9d ff 3f 21 95 b1 3f
       10.392674 10.238168 1.9970087 1.3873636
000090 55 13 c9 40 e0 a8 cc 2d 80 f3 c5 2b 0f b6 03 41
       6.28361 2.326711e-11 1.4065277e-12 8.231948
0000a0 14 3d 79 3f c9 99 7e 3f 73 16 80 2c a4 cb bf 3e
       0.9735882 0.9945341 3.640471e-12 0.37460053
0000b0 cb b5 d3 3e fb 1e 39 3f 99 22 b2 3f 9f e4 12 41
       0.41349635 0.723129 1.3916808 9.180816
0000c0 c1 a0 35 41 be 4b 27 34 64 83 8e 3e 57 0e 8d 2f
       11.351747 1.5580642e-07 0.27834618 2.565794e-10
0000d0 d0 1a 2e 3f e7 d0 3b 40 c4 a6 85 40 7d cb c3 2c
       0.6800966 2.9346254 4.176607 5.564825e-12
0000e0 1b 60 62 3f a4 21 7e 2f 4e ac 9e 3f c8 4f 4a 40
       0.88427895 2.3113117e-10 1.2396333 3.1611195
0000f0 8e 7a 6f 3f d7 97 8f 3f ab 9b 84 3f 00 00 00 00
       0.9354638 1.1218213 1.0360006 0.0
