1/trained_models/tetris_auto_10000.pt (torch, 61793 bytes, 15 tensors)

conv1.0.weight f4 [64, 4]
000000 5c 9e cb 3d f3 45 4e bf 12 88 86 3e d2 75 02 be
       0.09942314 -0.80575484 0.26275688 -0.12740257
000010 a6 df a1 3d c7 c2 97 be e7 d5 cf 3d 8f b7 ef 3d
       0.07903986 -0.2964079 0.101482205 0.11704933
000020 f4 62 be bd cd 1b 28 be c3 8b 57 be 40 9f f8 bc
       -0.092962176 -0.16416855 -0.21049409 -0.030349374
000030 65 ff 1a 3c 04 b2 a0 be 9a 4c 3a bd b9 23 38 3d
       0.009460305 -0.31385815 -0.04548321 0.044955943
000040 9c 2a 1b 3c c9 93 88 bd fb e3 06 be 30 cc e2 3d
       0.009470608 -0.06668813 -0.13172905 0.11074102
000050 67 53 28 be af 8a 4f be e8 dd 5f be fc cb 3f 3e
       -0.16438065 -0.20267747 -0.21861994 0.18730158
000060 18 98 c2 3e 7b cd 51 3e 3e f3 d6 be 50 55 3a bd
       0.38006663 0.20488541 -0.41982454 -0.045491517
000070 e0 e3 21 3e 18 5a f9 3d c0 81 d4 bd 94 b3 8c be
       0.15809584 0.12175387 -0.1037631 -0.27480757
000080 58 0b f1 bd 34 4d 98 3d 8e b0 84 bd 7b 0d 67 be
       -0.11769742 0.074366 -0.06478988 -0.22563736
000090 95 96 3c bf d4 5b a0 3e db df a2 3e 05 af 5e be
       -0.7366727 0.3132006 0.31811413 -0.21746452
0000a0 a0 53 89 3e 28 27 de 3d 80 95 a3 bb 9c ca 8f be
       0.26821613 0.10847312 -0.004992187 -0.28084266
0000b0 58 ed 17 bd 90 ef 4a 3d 0a 98 e1 bd 0c 08 5b be
       -0.037091583 0.04954487 -0.11015327 -0.21389788
0000c0 91 fc 5a be fd 79 3f bf 4f c3 ea 3e b7 87 ab be
       -0.21385409 -0.74795514 0.45852134 -0.3350198
0000d0 50 83 37 3f a5 ba 65 3e c8 d5 be be 52 0d 5b 3d
       0.7168474 0.2243448 -0.37272477 0.0534795
0000e0 2c 47 c4 3d a8 b6 fd 3d f7 16 83 3e 53 52 08 bf
       0.095838875 0.123883545 0.25603458 -0.53250617
0000f0 40 4c 49 bd 84 39 8c 3d 70 5a 01 3e f1 73 8b be
       -0.049144983 0.06846908 0.12632155 -0.27236894
000100 eb 01 1e bc be 56 1f 3e 16 40 35 3d 1c 0b 1a 3c
       -0.009644012 0.15560433 0.04425057 0.009402063
000110 8a fa 35 3e d8 5b 0e 3e a0 1c 30 3c 14 a5 fe bd
       0.17771354 0.13902223 0.010749012 -0.1243383
000120 4e ad 0d be 5e 86 68 bc 67 d9 4e 3e b9 7e 13 3e
       -0.13835642 -0.014192192 0.2020012 0.1440381
000130 eb 4d e5 3d 41 d1 d7 3d 05 ab 99 bc 8a bd 6a 3d
       0.11196502 0.10537959 -0.018758306 0.057309665
000140 32 f4 fe bd ee f9 70 bf eb 64 30 3e f1 6f 76 3d
       -0.1244892 -0.9413136 0.17225997 0.06016535
000150 6e a8 82 3e 34 c4 13 bf 2d ab 92 be 44 7d ee 3d
       0.25519127 -0.5772126 -0.28646222 0.11644986
000160 1b 63 cd 3f 3e 40 58 be c3 27 f9 3e da f2 6f be
       1.604587 -0.21118256 0.48663148 -0.23432484
000170 f8 86 e5 bd 25 c8 21 3f e9 e8 73 3c d0 b2 4e bd
       -0.11207384 0.6319602 0.014887073 -0.050463498
000180 ff dd 76 be 03 1e e2 3d 28 15 49 bd 7d 97 2d 3e
       -0.24108122 0.110408805 -0.04909244 0.1695232
000190 ca e2 71 bd 93 f3 27 3e 4f be 84 3d 78 37 40 3d
       -0.059054174 0.1640151 0.06481611 0.0469279
0001a0 3c 16 46 3c ee 19 8a be a0 ff 2a be 28 1d 82 3d
       0.012090262 -0.26972908 -0.16699076 0.06353217
0001b0 dc 1e 49 3e 3a a9 bc 3e 42 7e 46 3d 5f b3 4d bc
       0.19640678 0.3684786 0.048460253 -0.012554972
0001c0 de 44 ff 3d 47 3d 0b 3e e2 13 0c be 64 3a 93 3d
       0.12464307 0.13597594 -0.1367946 0.071888715
0001d0 65 65 bf 3e 29 94 65 bd eb 8c ed be 9a 74 a8 3d
       0.37382045 -0.0560495 -0.46396574 0.08225365
0001e0 70 ec 91 3d 49 c5 57 bf a4 4c 84 3e 40 8e 00 be
       0.07125175 -0.8428541 0.25839722 -0.12554264
0001f0 6c 17 55 3e 14 5a 96 3e 56 0a 02 be d4 a5 77 be
       0.20809716 0.293656 -0.12699255 -0.24184352
000200 30 f1 b9 be e9 3e 80 3f c0 e7 05 3e a4 79 34 be
       -0.36316824 1.0019199 0.13076687 -0.17624527
000210 95 08 0c 3c 33 d9 8f 3c 86 d3 af bc c8 c1 7a 3d
       0.008546968 0.017559623 -0.021463167 0.06121996
000220 c2 bf f1 bc a4 e2 08 be ce 19 b1 bd bb a0 8a 3c
       -0.029510383 -0.13367707 -0.086475 0.016922345
000230 d8 61 52 be 7b af 63 3f 2f 20 24 3e 43 db e2 bd
       -0.20545137 0.88939637 0.16027902 -0.11076977
000240 ee d8 df bd 40 07 86 3e 00 df 92 ba 0d 5d 77 be
       -0.10930048 0.26177406 -0.0011205375 -0.2415659
000250 58 54 63 3e f4 03 36 be 53 16 84 be 4e 72 a4 bd
       0.22200143 -0.17774945 -0.25798282 -0.080296144
000260 fc 9a 77 3e f2 92 51 3e 44 c1 db 3d b0 50 71 be
       0.24180216 0.20466211 0.10730222 -0.23565936
000270 3c dc 35 3c 0e e4 86 be 47 30 bb 3d 50 7b 21 3d
       0.011099871 -0.26345867 0.091400675 0.03942424
000280 58 ac 0e bf ff 16 11 3f e4 b2 1b 3f 8a 4b 0f be
       -0.55731726 0.56675714 0.6081984 -0.1399366
000290 03 41 c5 be 81 a1 b7 3d 66 94 23 bb e1 3a 35 3d
       -0.38526163 0.08966351 -0.0024960279 0.044245604
0002a0 61 cb 59 be f4 e1 1c be fe b6 9a bd c5 fc 36 3d
       -0.21268989 -0.1532057 -0.07554434 0.044674654
0002b0 3f 8b 23 bc e3 fc a2 be cf ff 3d bd ab c4 6e 3d
       -0.009981929 -0.31833562 -0.046386536 0.058293026
0002c0 7c aa 75 be 98 55 34 bd 48 81 36 bd ca 49 96 be
       -0.23990816 -0.04402694 -0.044556886 -0.29353172
0002d0 1f 32 30 bd 8d ec eb be 37 ab 93 bd eb a2 81 3d
       -0.04301655 -0.4607891 -0.07210391 0.06329902
0002e0 29 4d 0c be 1b c0 a7 bd 4d 3d c6 bd 9f 04 bb 3d
       -0.1370131 -0.08190938 -0.09679661 0.09131741
0002f0 82 7f 0f 3f 6c e8 b5 3e 2a 4e f9 3e e3 1b e5 be
       0.56053936 0.35528886 0.48692447 -0.44747838
000300 f8 f6 de 3d a2 88 71 bd cf b0 47 3e 2d d6 01 bf
       0.10886949 -0.058968194 0.19501041 -0.5071743
000310 ed 11 d1 be 29 50 34 3d 9a 75 35 3e 31 71 1f 3e
       -0.4083399 0.04402176 0.17720643 0.15570523
000320 cf 8b 93 be 94 cd 9d bd a0 70 05 3c e6 c8 dc bd
       -0.28817603 -0.077052265 0.008144528 -0.10780506
000330 59 8a ed bd 91 13 eb be 8f 84 b2 3d 8a ad f3 3c
       -0.11598653 -0.45913365 0.0871669 0.029745836
000340 06 0d 25 bc ee 8b 11 3f 7c 16 28 be 94 7f 18 bc
       -0.010073906 0.5685414 -0.16414827 -0.009307761
000350 bc 3f 19 3e 50 52 53 3d 7c 37 c8 3d b8 40 89 be
       0.14965719 0.05159217 0.09776208 -0.2680719
000360 fa cb 1e be 34 fd 29 3e 58 59 f4 3d cf 6f 96 be
       -0.15507498 0.16600496 0.119311035 -0.29382178
000370 d8 77 d4 be 8d ee 79 3d 20 18 83 3d 1c cf 6e 3b
       -0.41497684 0.061018515 0.06401086 0.0036439365
000380 2f 88 12 be 55 35 a8 bd 50 0b a7 bd 89 3e 5c 3d
       -0.14309762 -0.08213297 -0.081564546 0.053770576
000390 09 90 45 be 82 7c 87 3e 41 83 5d 3e 9f 9c 19 bd
       -0.19293226 0.2646218 0.216321 -0.03750288
0003a0 2e 80 03 3e 28 d7 2e 3d 6d e2 32 be c0 c0 87 bd
       0.12841865 0.042685658 -0.17469187 -0.06628561
0003b0 20 45 2c 3e 00 75 7a 3e 38 24 a5 3d 57 21 88 be
       0.16823244 0.24458694 0.08063549 -0.26587936
0003c0 ba 3f 6f be fc d1 0b be de af 7c be 0c 89 4f 3e
       -0.23364154 -0.13654321 -0.24676463 0.20267123
0003d0 d6 53 30 3e 60 e7 50 bc 69 2e 34 be 24 af aa bd
       0.17219481 -0.012750477 -0.17595829 -0.08334187
0003e0 c7 6d a8 be 09 1a 1c bf e7 d7 96 3e c0 7d ea 3d
       -0.32896253 -0.60977226 0.29461595 0.11449766
0003f0 52 fa 86 bc e0 39 b6 3e ce c3 81 3d 8b 0d 0d bc
       -0.016476784 0.3559103 0.06336175 -0.008609186

conv1.0.bias f4 [64]
000000 15 70 28 3f 92 0a a0 3f 00 00 00 00 02 71 e6 3f
       0.65796024 1.2503226 0.0 1.8003237
000010 7d 74 29 c0 85 6e e4 3f ad 7e 56 3f 00 00 00 00
       -2.6477349 1.7846228 0.8378704 0.0
000020 00 00 00 00 ad 34 60 3f 00 00 00 00 00 00 00 00
       0.0 0.87580377 0.0 0.0
000030 e2 ef 63 3f 3b 12 04 40 69 cf 15 3f 00 00 00 00
       0.8903791 2.0636127 0.5851961 0.0
000040 fb d7 31 c0 00 00 00 00 fc b6 02 c0 a3 a6 16 c0
       -2.7788074 0.0 -2.0424185 -2.3539207
000050 2d 70 06 c0 46 a2 1a c0 79 9e 42 3f 2d 51 4c bf
       -2.1005967 -2.4161544 0.7602306 -0.79811364
000060 68 cc e9 bf fe 57 fd bf 0c 33 c6 3f 7a 7e 04 40
       -1.8265505 -1.9792478 1.5484328 2.0702195
000070 62 0a c2 3f a9 07 df 3f ce 5a 57 3f 00 00 00 00
       1.5159419 1.7424213 0.8412293 0.0
000080 6b 04 70 3f 6d 66 0d c0 0d 7e fa 3f 17 2c 63 3e
       0.9375674 -2.2093766 1.9569718 0.22184788
000090 00 00 00 00 00 00 00 00 94 6c 15 bd 6b 36 da 3f
       0.0 0.0 -0.0364805 1.7047857
0000a0 a3 a2 02 3f 03 7f 76 3f c3 b5 f7 3f 38 3a 2c c0
       0.51029414 0.96287555 1.9352344 -2.6910534
0000b0 00 00 00 00 f1 17 df 3f e8 52 14 c0 d8 79 16 be
       0.0 1.7429181 -2.3175602 -0.14694917
0000c0 17 74 57 3f ff 2a 08 c0 00 00 00 00 37 5a 03 40
       0.84161514 -2.1276243 0.0 2.0523813
0000d0 59 11 09 c0 00 00 00 00 00 00 00 00 6f 37 d7 bf
       -2.1416838 0.0 0.0 -1.6813792
0000e0 4d 65 0a 40 fd d6 ea 3f 00 00 00 00 00 00 00 00
       2.162433 1.8346859 0.0 0.0
0000f0 38 66 c0 3f 00 00 00 00 3d 93 0b c0 da ef 36 c0
       1.5031195 0.0 -2.1808617 -2.8583894

conv2.0.weight f4 [64, 64]
000000 f1 aa 25 be a1 a2 be bd 9e 89 42 be f0 70 7a bc
       -0.1617849 -0.09308363 -0.1899781 -0.015285715
000010 ec ba 1c bd 4e f7 ce 3d 05 99 57 3e 90 b3 ac 3c
       -0.0382642 0.101057634 0.21054466 0.021081716
000020 df 85 49 3e 02 49 43 be 7a f1 8f bd 4b 8b 21 3e
       0.19679974 -0.19070819 -0.0702848 0.15775792
000030 38 94 54 bd e9 47 5a be 80 51 ad 3b b5 3d d2 bd
       -0.051899165 -0.21316494 0.0052892566 -0.10265676
000040 d6 7e 94 3d 8b ca 38 3e 3c 2e 1c be 26 96 9c 3d
       0.072507545 0.18046014 -0.15252012 0.07645826
000050 50 3e dc bd 52 4b ba 3d 7a db 1d be c6 6e 10 be
       -0.10754073 0.090963975 -0.15415755 -0.14104757
000060 6a 28 bb 3d 26 d0 14 be 00 22 24 ba e4 0e 01 be
       0.09138568 -0.14532527 -0.000626117 -0.12603337
000070 29 c4 00 3e ee ef 21 be 16 94 b7 3d 1e 85 e8 3d
       0.12574829 -0.15814182 0.08963792 0.11353515
000080 96 fe f5 3d 04 0a 77 bd 3f 64 41 3e 32 38 04 be
       0.12011449 -0.060312286 0.18885897 -0.12912062
000090 a8 72 e2 bc b5 db f0 bd 72 3c 9b 3d 10 e0 77 3c
       -0.027642563 -0.11760656 0.075798884 0.015129104
0000a0 ea 70 b7 3d 1f f2 58 be 01 5b 43 be 26 3d 04 be
       0.089570835 -0.21186112 -0.19077684 -0.12913951
0000b0 df 76 4f 3e af a9 26 3e 11 5b cc bd a2 cc b0 3d
       0.2026019 0.16275667 -0.09978307 0.086327806
0000c0 d0 7c 8e bd 22 19 be 3d b3 bb 3b be fc 74 ea bd
       -0.069574 0.092821375 -0.1833332 -0.11448094
0000d0 4f ec 04 3e 52 4b fd 3d 13 41 4c 3e a0 55 a6 3b
       0.1298077 0.12367882 0.19946699 0.0050761253
0000e0 4d 16 5c 3e 94 71 05 be ba 94 83 3d 60 e8 52 3c
       0.21492882 -0.13031608 0.06424852 0.012872785
0000f0 38 fa 2b be d9 44 e1 bd 8c 5d cd bd fa c8 a0 3d
       -0.1679467 -0.1099946 -0.10027608 0.07850833
000100 3e 35 be 3e 75 11 c3 3d 91 a4 49 be 92 9d fb bb
       0.37149996 0.09524814 -0.19691683 -0.007678696
000110 3e 90 11 3e 48 96 ec be 8b 4e 73 be 22 7b 34 be
       0.1421518 -0.46208405 -0.2376043 -0.17625096
000120 16 29 cc 3d 01 cc 11 3f 78 7d 66 bd 65 2a 55 3e
       0.09968774 0.5695191 -0.056272 0.20816953
000130 48 68 62 3f 95 3e 53 bf 35 a4 be bf 50 19 a9 3c
       0.8844037 -0.8251737 -1.4893862 0.020641953
000140 42 eb aa be 81 f1 1d 3e da a0 2a bf e9 cf b9 bd
       -0.33382612 0.15424158 -0.6665169 -0.09072859
000150 46 40 11 3f 96 89 d4 bd 8f a9 2b 3f e3 87 75 bf
       0.567387 -0.10377805 0.670556 -0.9591047
000160 96 e0 b3 bf 4d d0 00 bf f6 5a ae be c7 9d 5a be
       -1.4052913 -0.5031784 -0.34053773 -0.2134925
000170 7e bf d4 be dd 28 7c bf 00 71 15 3f 7b 0d 0b be
       -0.41552347 -0.9849985 0.5837555 -0.13579361
000180 50 8a bc 3e f5 df 04 3e 77 b3 0f be 37 f6 89 be
       0.36824274 0.12976058 -0.14033304 -0.2694566
000190 8e f6 eb 3d 34 58 55 3d e0 32 4f bc 76 9c 56 bd
       0.11521636 0.05208607 -0.012646407 -0.052395307
0001a0 f8 30 29 3e c4 7b 90 be 47 dd 44 be f8 73 d4 bd
       0.16522586 -0.28219426 -0.19225036 -0.10373682
0001b0 f0 84 44 bc 23 bc 97 3d ea 60 17 3e f6 6b a5 3f
       -0.011994585 0.07408931 0.14783064 1.2923572
0001c0 e1 d6 8e bf b0 db 21 bf 08 49 03 3d e4 81 a5 bd
       -1.1159326 -0.6322584 0.03205207 -0.08081415
0001d0 13 b1 f7 3a dd e9 2c 3e 8a c8 fa 3d c4 45 0f bf
       0.0018897377 0.16886087 0.12245281 -0.5596583
0001e0 c3 fb 26 be 6a d5 42 bd f2 f0 bb bd d6 9f 82 bd
       -0.16306977 -0.04756681 -0.09176816 -0.063781425
0001f0 4f 6b 16 bf a6 93 b0 3d 95 69 5c be c3 df 19 be
       -0.5875749 0.08621912 -0.21524651 -0.15026765
000200 e3 e0 31 3d 3f e7 1d bc fa 98 fd 3d 5c a9 34 3f
       0.04342736 -0.009637653 0.123826936 0.7057092
000210 78 01 be be 92 84 80 3e dd 1f 1d bf d8 6b 8f 3c
       -0.37110496 0.25101143 -0.61376745 0.017507479
000220 04 f7 68 3d f3 57 9c bf 25 72 3a 3e a7 b9 36 3e
       0.056876197 -1.221434 0.18207605 0.17844258
000230 36 9a fe bf 19 8e c1 3e 86 5c 05 bf 7b ae 4c be
       -1.9890811 0.37803724 -0.52094305 -0.19988434
000240 f1 e9 34 bf 4f ec 2b 3e 51 e5 9e bb cc 9a 75 be
       -0.70669466 0.16789363 -0.004849114 -0.23984832
000250 d7 72 d9 bf 51 c7 bf be f9 62 06 c0 0a ef 84 be
       -1.6988171 -0.37456754 -2.0997908 -0.25963622
000260 80 82 07 be 12 ed 90 be 59 c7 dd 3d 48 8c 2a 3e
       -0.13233376 -0.2830587 0.10829038 0.16655076
000270 94 28 5b 3e 43 20 f3 3e 99 de f9 3e 6a 22 bb 3d
       0.21402198 0.4748555 0.4880264 0.09137423
000280 c8 ee d5 bf 3d 31 43 bf e0 7c 5c 3f d8 3d ce bf
       -1.6713495 -0.76247007 0.86128044 -1.6112623
000290 7c 3e 29 be fc 40 20 be 12 4e 97 3d ee 6d 0a 3f
       -0.16527742 -0.1564979 0.073879376 0.5407399
0002a0 15 19 84 bf de 9c 13 3e 9a 1b d6 3e 45 61 a7 be
       -1.0320154 0.14415309 0.41817933 -0.32691398
0002b0 92 9d aa 3d c3 0a 69 3f eb 7c 78 bd f5 cd 72 bf
       0.083308354 0.91032046 -0.060666006 -0.94845515
0002c0 e9 d6 18 bf 2b 8c 88 bb 72 b5 b8 bd 57 09 27 3e
       -0.59702927 -0.0041671 -0.09018983 0.16312157
0002d0 96 20 86 bf 8a 19 92 3d 24 44 3a bd d1 60 33 be
       -1.0478694 0.071337774 -0.04547514 -0.17517401
0002e0 56 21 b6 3e 33 0e c2 3e 60 1c 1e bc 7d f8 5c be
       0.35572308 0.37901458 -0.00965032 -0.21579166
0002f0 f4 2f dc 3e 6a 78 8d 3d ec 49 3a 3e c1 a8 01 c0
       0.43005335 0.06907733 0.18192261 -2.025925
000300 c3 8a 49 3f f3 f1 81 3b 7c 4b 9f bd 67 24 55 3e
       0.7872736 0.00396561 -0.077780694 0.20814668
000310 9a a9 65 be bc 63 89 3c 1f bb 3c bd 1e 9d ba 3d
       -0.22427979 0.01677119 -0.04607689 0.09111999
000320 73 18 bd bd 99 33 26 3e c8 cf d0 bd 62 74 36 be
       -0.09233179 0.1623062 -0.10195881 -0.17817834
000330 dd 60 a5 bf 2c ea f7 bd 6b e2 05 bf 48 3b 3b bd
       -1.2920185 -0.121052116 -0.5229861 -0.045710832
000340 e5 b3 e5 bd 2c e8 a3 bd 46 5e c2 3d 2e 4f 6e bd
       -0.11215953 -0.08003268 0.094906375 -0.05818098
000350 bc e0 45 bf f6 3c bc be bd 1d 6d be dd 70 5c 3e
       -0.7729604 -0.3676526 -0.23155876 0.21527429
000360 97 1d 3c 3e 38 86 c4 3d c6 ba a7 bd bb a2 34 3f
       0.18370663 0.09595913 -0.08189921 0.70560807
000370 fd 0e 98 bc 8b 91 87 3e 60 27 76 3f 32 5c e1 3d
       -0.018561834 0.26478228 0.9615383 0.11003913
000380 5f 6e 89 3e 14 4b ac bd 07 43 4e 3f a3 f1 74 3e
       0.2684202 -0.084127575 0.80571026 0.23920302
000390 e8 8d 00 3d 59 1b 02 3e 5a 82 eb 3d f9 f5 bd 3c
       0.031385332 0.12705745 0.11499472 0.023188578
0003a0 e2 33 48 3e d8 73 91 bd 7d 50 29 3f 41 83 89 be
       0.19551042 -0.071021736 0.6613844 -0.2685795
0003b0 61 90 1d 3e 25 b0 24 3f 66 27 4e be 5a 3e 6e 3f
       0.15387107 0.64331275 -0.20132217 0.9306389
0003c0 03 95 2f bf c6 87 87 bd 91 a2 5d 3e a7 16 4b 3e
       -0.6858675 -0.066176936 0.21644045 0.1983286
0003d0 f4 0a 94 3c 52 f8 f1 bd 95 80 36 be 54 4e 45 3d
       0.01807163 -0.118149415 -0.17822488 0.048170403
0003e0 11 52 0c 3e 95 6b b7 3e 5a ac e7 3d 72 65 be 3d
       0.13703181 0.35824266 0.1131217 0.09296693
0003f0 03 22 67 3d 14 91 1d be c1 0e 51 3e 54 b1 a2 be
       0.05642892 -0.15387374 0.20415784 -0.31775916

conv2.0.bias f4 [64]
000000 00 00 00 00 6e 6f 37 3c 66 db c2 3f 53 d0 c0 3f
       0.0 0.0111960005 1.5223205 1.5063576
000010 31 3a c9 bc 3d 46 ac 3f 95 40 09 c0 ac c1 b9 3f
       -0.02456388 1.3458935 -2.1445668 1.4512229
000020 74 c7 14 bd 31 df a9 3f 63 e7 b7 3f 6b 4b ac 3f
       -0.036323026 1.3271238 1.4367489 1.3460516
000030 71 f4 c1 3f d2 03 88 bd 53 30 a1 3f 76 14 08 bc
       1.5152723 -0.06641354 1.2592872 -0.0083056595
000040 0e 7e ad 3f e2 c7 53 bd 65 c0 c8 3f b7 01 73 bc
       1.3554094 -0.051704295 1.5683714 -0.014831952
000050 9a af f2 bf 00 00 00 00 07 8b 02 c0 f1 57 a7 3f
       -1.8959839 0.0 -2.0397356 1.3073713
000060 10 82 ca 3f fd 71 44 bc 00 00 00 00 e1 a6 0c c0
       1.5820942 -0.011990068 0.0 -2.1976855
000070 13 56 b0 3f 7a 3d a3 3f 84 74 bc 3f ff 4d 93 3f
       1.3776268 1.2753136 1.4723058 1.1508178
000080 c9 68 c7 3f f7 c1 a5 3f 8f 06 b9 3f 05 4b d9 3f
       1.5578853 1.2949818 1.4455127 1.6976019
000090 8a 4d a9 3f 68 06 f4 bc f7 ce 00 bd 4c 92 a6 3f
       1.3226788 -0.029788211 -0.031447377 1.3013396
0000a0 7f 3f 9f 3f ab 72 f7 bf ce e8 fc bb 88 2b 9b bf
       1.2441252 -1.9331869 -0.007718182 -1.212266
0000b0 93 ac 9b 3f d5 0e f6 bf b8 f2 1b 3f 3a 6d b4 3f
       1.216204 -1.9223276 0.60917234 1.4095833
0000c0 2e 9a b1 3f 77 45 06 bd a0 ba b1 3f 46 e9 7a bc
       1.3875177 -0.03278109 1.3885078 -0.015314406
0000d0 2a 6a f9 bf c0 47 c1 3f 7e 3d e2 bf 0d 78 14 bd
       -1.9485524 1.5100021 -1.7675016 -0.0362473
0000e0 83 9d f2 bf 1c bf 00 bd d5 ac a7 3f ab 71 f7 bf
       -1.8954319 -0.031432256 1.3099619 -1.9331564
0000f0 e0 16 fc bf 26 79 86 3e 2d 11 ae 3f 00 00 00 00
       -1.9694481 0.26264304 1.3598992 0.0

conv3.0.weight f4 [1, 64]
000000 d0 c0 56 3e 59 9e df 3f 16 ea d0 3f 7c 68 80 3e
       0.2097199 1.7470199 1.6321437 0.25079715
000010 4f 7a f4 bc 1d 6a 9f 3f 77 2a 99 bf 62 3c cf 3f
       -0.029843478 1.2454258 -1.1966084 1.6190302
000020 a6 ec 6e 3e 24 63 7c 3e 10 62 08 40 43 c5 f8 3e
       0.23332462 0.24647194 2.1309853 0.48588
000030 9a 2c d0 3f 2f 39 22 be 9c 2e eb 3e b9 e0 84 3e
       1.6263611 -0.15842126 0.45933998 0.259527
000040 2b a8 61 3f 55 7c 80 be b2 5e c0 3f 67 b7 91 bd
       0.8814723 -0.25094858 1.5028899 -0.07115059
000050 ed cf 55 bf b0 db b7 3d 47 db 67 bf 32 14 02 40
       -0.83520395 0.08977449 -0.90568966 2.0324826
000060 51 7d 88 3f ef c3 94 be f8 eb 86 3e 25 09 aa bf
       1.0663244 -0.29055735 0.26351905 -1.3284041
000070 e8 be a6 3f 63 8f 07 3f 9e ab d9 3e fd 92 04 c0
       1.302701 0.52953166 0.42513746 -2.0714715
000080 06 82 e1 3f 17 da e4 3f 6d d8 68 3f 1c 15 62 3f
       1.7617805 1.7879056 0.9095524 0.8831346
000090 82 28 c1 3f c5 9d ad 3d 02 f7 81 3b 63 c6 d8 3f
       1.5090487 0.08477358 0.003966213 1.6935543
0000a0 dc 8c f1 3e 78 db 88 bf c1 0e 94 3e 9b 3f a3 bf
       0.4717778 -1.0691977 0.28917506 -1.2753786
0000b0 af 6a a5 3e c4 4f 74 bf 31 ff 89 bf c1 64 dd 3f
       0.32307956 -0.9543421 -1.0781003 1.7296373
0000c0 14 f9 e2 3f c6 3a ba bd 21 37 ec 3e b9 bb 0a ba
       1.7732263 -0.090932414 0.4613581 -0.0005292255
0000d0 ef 20 75 bf 9d 30 7f 3f f6 6c ad bf bd b4 d7 bc
       -0.9575338 0.99683553 -1.3548877 -0.0263313
0000e0 96 60 63 bf f8 c6 33 3e 6c 44 04 3f 57 5f cd bf
       -0.88819253 0.1755637 0.51666903 -1.604472
0000f0 d0 47 a7 bf f5 17 b8 bf 7e d5 29 3f fe 93 36 be
       -1.306879 -1.4382311 0.6634139 -0.17829892

exp_avg f4 [64, 4]
000000 d8 09 c3 3e 61 fa 94 3f 92 2d ce 40 8e 36 9d 41
       0.38093448 1.163891 6.443063 19.651638
000010 a7 8b 1f bf 00 6f 07 c1 b6 38 81 c0 98 f6 a1 c2
       -0.6232247 -8.4646 -4.0381727 -80.98163
000020 00 00 00 00 00 00 00 00 00 00 00 00 00 00 00 00
       0.0 0.0 0.0 0.0
000030 e0 e4 6c c0 09 76 0b c2 20 cb 79 c0 6a 29 72 c3
       -3.7014694 -34.86527 -3.9030228 -242.16177
000040 3c 7b 07 40 a8 a5 71 41 40 c0 6a 3f 90 f1 84 42
       2.1168966 15.102943 0.916996 66.4718
000050 25 2e 40 bf 97 76 bb c0 c0 6a c7 3f d8 dd 91 c1
       -0.7507041 -5.8582263 1.5579453 -18.233322
000060 3b 76 31 b1 bc 28 c3 bf 39 3a a7 be b6 dd 67 c0
       -2.5824096e-09 -1.5246806 -0.32661608 -3.6229072
000070 00 00 00 00 00 00 00 00 00 00 00 00 00 00 00 00
       0.0 0.0 0.0 0.0
000080 00 00 00 00 00 00 00 00 00 00 00 00 00 00 00 00
       0.0 0.0 0.0 0.0
000090 1b 9f 92 38 a0 95 a0 bf 6a 44 c8 bf ec 92 ee c0
       6.991458e-05 -1.2545662 -1.5645878 -7.455435
0000a0 00 00 00 00 00 00 00 00 00 00 00 00 00 00 00 00
       0.0 0.0 0.0 0.0
0000b0 00 00 00 00 00 00 00 00 00 00 00 00 00 00 00 00
       0.0 0.0 0.0 0.0
0000c0 b7 7d 4e 39 cf fb 0c c0 a6 31 03 c1 ec 07 59 c1
       0.00019692523 -2.2028692 -8.199621 -13.564434
0000d0 d3 3d d5 bf f0 31 d5 c0 be e0 53 41 10 0c 44 42
       -1.6659492 -6.662346 13.242369 49.01178
0000e0 00 00 00 00 04 00 00 80 ea e0 6c 3f 56 df 5d 3f
       0.0 -6e-45 0.9253069 0.8666891
0000f0 00 00 00 00 00 00 00 00 00 00 00 00 00 00 00 00
       0.0 0.0 0.0 0.0
000100 98 52 2e 40 78 24 c0 c1 c0 cb 0e c0 74 8e 94 c3
       2.7237911 -24.017807 -2.231186 -297.1129
000110 00 00 00 00 00 00 00 00 00 00 00 00 00 00 00 00
       0.0 0.0 0.0 0.0
000120 aa ab fc 3e 56 23 68 40 a0 c0 80 be 30 51 7b 41
       0.4934972 3.6271567 -0.2514696 15.707321
000130 9a 47 92 3f bc 39 b9 40 c0 6a e2 be c0 26 c0 40
       1.1428101 5.7882977 -0.4422207 6.00473
000140 64 86 b3 bd 6f f5 d6 41 1f 76 c4 c2 7e 59 18 c4
       -0.08765867 26.86984 -98.230705 -609.3983
000150 58 e9 83 40 68 08 d6 40 50 d2 84 c1 80 f7 a0 c0
       4.1222343 6.688526 -16.602692 -5.0302124
000160 cd cc e0 be 19 f6 35 c0 35 16 b1 c1 5f 35 53 c2
       -0.4390625 -2.8431456 -22.135843 -52.80212
000170 a0 1d d1 3f ab 6c 28 42 00 9e 57 41 6a 2e a0 43
       1.6337166 42.10612 13.476074 320.3626
000180 3b 2c 4c 3f 42 df a5 40 10 77 d4 3f 7e 35 0d 42
       0.7975499 5.183503 1.6598835 35.30224
000190 cc 4a 0e 3f c9 8e 86 40 08 3d a3 3f a0 32 97 41
       0.5558288 4.20493 1.2753 18.89972
0001a0 dc 2c 83 bf 8f cb 1e c1 80 6f a6 bf a6 8a 93 c2
       -1.0248065 -9.924697 -1.3002777 -73.7708
0001b0 0b 4f c5 c0 2d 30 18 c2 b8 12 6c 41 38 75 3e c3
       -6.165899 -38.047047 14.75457 -190.45789
0001c0 a5 d1 25 bf 8e 64 2e c1 a0 50 d7 3e 82 1b 60 c2
       -0.6477302 -10.8995495 0.420537 -56.026863
0001d0 cd cf 02 c0 c5 9b a2 c1 88 2a 21 c0 26 03 13 c3
       -2.0439332 -20.32606 -2.518221 -147.0123
0001e0 59 1f 18 3f 33 12 07 40 2f 67 95 41 b7 0d 51 42
       0.5942283 2.1104858 18.675383 52.263393
0001f0 00 00 00 00 00 00 00 00 00 00 00 00 00 00 00 00
       0.0 0.0 0.0 0.0
000200 9a b2 15 3e b1 15 d3 40 74 c1 92 c0 88 8a d3 41
       0.14618912 6.596398 -4.586115 26.442642
000210 07 0f 41 40 02 58 b2 41 00 26 8a 40 78 13 18 43
       3.0165422 22.292973 4.3171387 152.07605
000220 4e 2c e1 c0 5d 71 39 c2 88 70 d0 41 a0 97 4e c3
       -7.0366583 -46.360706 26.054947 -206.59229
000230 27 ec 99 3f 73 88 16 42 cc 61 ff 41 72 ce 9a 43
       1.2025193 37.63325 31.922752 309.61285
000240 00 00 00 00 00 00 00 00 00 00 00 00 00 00 00 00
       0.0 0.0 0.0 0.0
000250 00 00 00 00 00 00 00 00 00 00 00 00 00 00 00 00
       0.0 0.0 0.0 0.0
000260 00 00 00 00 04 00 00 00 04 00 00 00 04 00 00 00
       0.0 6e-45 6e-45 6e-45
000270 24 5d 16 c0 6d 0a b7 c1 50 58 07 c0 98 9f 20 c3
       -2.3494349 -22.88009 -2.1147652 -160.62341
000280 65 e4 a2 3f ce ac a8 41 a0 89 bb bf 8d ae 0b 43
       1.272595 21.084377 -1.4651375 139.68184
000290 ff a7 85 be 34 b1 1f c0 b0 07 bf 3e 55 39 9f c1
       -0.26104733 -2.4951906 0.37310553 -19.902994
0002a0 8a 00 af c0 a6 e9 40 c2 c0 57 2d 40 16 9b 92 c3
       -5.468816 -48.228172 2.7084808 -293.2116
0002b0 35 2e 98 40 1d 3d 91 41 54 b9 41 c1 58 a2 e9 42
       4.7556405 18.15484 -12.107746 116.81708
0002c0 00 00 00 00 00 00 00 00 00 00 00 00 00 00 00 00
       0.0 0.0 0.0 0.0
0002d0 0a c1 a1 c0 f8 42 4f c2 b0 5e cb c0 22 ab b1 c3
       -5.0548143 -51.8154 -6.3553085 -355.33698
0002e0 61 0b 3b 3f 40 b4 9b 3e f8 96 30 c0 88 97 fb c1
       0.7306424 0.30410957 -2.7592144 -31.44899
0002f0 86 75 92 b9 a4 2c bb 3f aa da e3 c0 2a 0f e0 c0
       -0.00027934852 1.4622998 -7.1204424 -7.001851
000300 00 00 00 00 04 00 00 00 15 15 cb bf 38 81 48 bf
       0.0 6e-45 -1.5865809 -0.7832217
000310 37 78 8c 3e 5e f3 7c c0 54 ae 54 c0 9a 6e 57 c2
       0.27435467 -3.952354 -3.3231401 -53.85801
000320 00 00 00 00 00 00 00 00 00 00 00 00 00 00 00 00
       0.0 0.0 0.0 0.0
000330 b4 08 ce bf cc a5 28 41 20 be a1 3f 96 5e 08 43
       -1.6096406 10.540478 1.2636147 136.36948
000340 c1 42 0e 41 bc a1 a9 c1 8b 91 ac c2 7c 80 ea c3
       8.891297 -21.203972 -86.28426 -469.00378
000350 00 00 00 00 00 00 00 00 00 00 00 00 00 00 00 00
       0.0 0.0 0.0 0.0
000360 00 00 00 00 00 00 00 00 00 00 00 00 00 00 00 00
       0.0 0.0 0.0 0.0
000370 37 02 43 bc 90 46 15 40 4f ec a5 c0 1e 92 6b c2
       -0.0119023835 2.3324318 -5.1850963 -58.892693
000380 94 61 d1 bf d2 37 4c c1 00 e8 8e 3e 84 67 95 c2
       -1.6357903 -12.763628 0.27911377 -74.70218
000390 32 e1 d9 bf 68 73 ee c0 60 8c b6 40 00 9c db c0
       -1.7021849 -7.4515877 5.7046356 -6.862793
0003a0 00 00 00 00 00 00 00 00 00 00 00 00 00 00 00 00
       0.0 0.0 0.0 0.0
0003b0 00 00 00 00 00 00 00 00 00 00 00 00 00 00 00 00
       0.0 0.0 0.0 0.0
0003c0 5a ab 7a bf 62 85 59 c1 58 bc b9 bf 03 4b ca c2
       -0.9791771 -13.595064 -1.4510603 -101.14651
0003d0 00 00 00 00 00 00 00 00 00 00 00 00 00 00 00 00
       0.0 0.0 0.0 0.0
0003e0 93 3d f6 3d a3 b9 d4 c0 43 98 df c0 18 a8 b7 c2
       0.12023463 -6.6476607 -6.9873366 -91.82831
0003f0 8e 64 bc 40 93 07 67 c3 c6 6b 06 c3 a9 40 31 c5
       5.8872747 -231.02959 -134.42099 -2836.0413

exp_avg_sq f4 [64, 4]
000000 ec 9e 4a 40 f8 7e 0a 42 c9 f4 b4 45 a4 19 8f 46
       3.1659498 34.623993 5790.598 18316.82
000010 50 5b cd 40 1d f6 2b 45 10 06 8c 45 c4 01 e6 48
       6.4173965 2751.382 4480.758 471054.12
000020 00 00 00 00 00 00 00 00 00 00 00 00 00 00 00 00
       0.0 0.0 0.0 0.0
000030 41 41 88 43 18 e9 17 48 e8 32 67 48 df 20 d3 4b
       272.5098 155556.38 236747.62 2.7673022e+07
000040 87 a1 d1 42 6d 55 93 47 50 c4 d1 47 d4 b5 4c 4b
       104.81548 75434.85 107400.625 1.3415892e+07
000050 b9 6f 40 41 31 ed 01 46 ed d6 47 46 4c 31 b6 49
       12.027276 8315.298 12789.731 1.4925215e+06
000060 9b f4 51 3a 50 0f 86 40 79 88 55 40 2a cd 8d 42
       0.00080091663 4.189369 3.3364546 70.90071
000070 00 00 00 00 00 00 00 00 00 00 00 00 00 00 00 00
       0.0 0.0 0.0 0.0
000080 00 00 00 00 00 00 00 00 00 00 00 00 00 00 00 00
       0.0 0.0 0.0 0.0
000090 d9 db 43 3b 7b b9 5b 43 46 b6 e1 45 0a b5 b9 46
       0.0029885678 219.72453 7222.784 23770.52
0000a0 00 00 00 00 00 00 00 00 00 00 00 00 00 00 00 00
       0.0 0.0 0.0 0.0
0000b0 00 00 00 00 00 00 00 00 00 00 00 00 00 00 00 00
       0.0 0.0 0.0 0.0
0000c0 c1 aa ff 3c fe 4f e3 42 b6 50 a2 46 bc b0 27 47
       0.031209351 113.656235 20776.355 42928.734
0000d0 d5 3d 7c 42 84 9a 3a 47 71 77 92 47 41 91 06 4b
       63.060383 47770.516 74990.88 8.819009e+06
0000e0 00 00 00 00 8c 95 93 35 50 c2 33 42 c5 fc 90 41
       0.0 1.0995877e-06 44.93976 18.123423
0000f0 00 00 00 00 00 00 00 00 00 00 00 00 00 00 00 00
       0.0 0.0 0.0 0.0
000100 ef 5e d9 43 09 e7 b5 48 d8 f1 ee 48 ac 1d 79 4c
       434.74167 372536.28 489358.75 6.530424e+07
000110 00 00 00 00 00 00 00 00 00 00 00 00 00 00 00 00
       0.0 0.0 0.0 0.0
000120 a6 09 aa 40 01 83 6c 45 9d bd b1 45 a1 b5 26 49
       5.313678 3784.1877 5687.7017 682842.06
000130 2f 16 1f 42 c9 a7 f8 46 17 69 2b 47 d9 d6 ab 4a
       39.771664 31827.893 43881.09 5.6308285e+06
000140 4d 2f 05 44 c6 bc 82 48 c2 ce 96 49 82 d9 9f 4c
       532.7391 267750.2 1.2354162e+06 8.380725e+07
000150 8b 58 e5 43 8f 3e 95 48 4d e4 d8 48 c3 38 57 4c
       458.69174 305652.47 444194.4 5.6419084e+07
000160 50 fd dd 40 54 92 67 43 2e f6 31 46 95 93 1b 47
       6.937172 231.5716 11389.545 39827.582
000170 2d c2 f9 41 8a 08 25 46 b7 f3 70 46 cb bf a1 49
       31.219812 10562.135 15420.929 1.3250494e+06
000180 8f 4a 4f 41 e1 04 01 46 3e 1c 3c 46 4a 90 b2 49
       12.955703 8257.22 12039.061 1.4627932e+06
000190 65 c3 08 41 be a2 d1 45 be a2 0e 46 9a ed 8f 49
       8.547704 6708.343 9128.686 1.1790592e+06
0001a0 26 c7 aa 41 73 15 31 46 aa 67 88 46 c6 25 f5 49
       21.34724 11333.362 17459.832 2.0082488e+06
0001b0 b8 43 3d 44 17 e3 dd 48 eb 5c 35 49 8a 26 9d 4c
       757.0581 454424.72 742862.7 8.239214e+07
0001c0 e7 f4 e7 40 01 3a 70 45 ff 84 c1 45 74 92 29 49
       7.2486453 3843.6252 6192.6245 694567.25
0001d0 ff b2 84 42 31 cc ff 46 f0 a2 54 47 95 9f b6 4a
       66.3496 32742.096 54434.938 5.9842025e+06
0001e0 b3 ac e5 40 56 0a a8 42 8c af 48 46 af 6f 26 47
       7.1773314 84.02019 12843.887 42607.684
0001f0 00 00 00 00 00 00 00 00 00 00 00 00 00 00 00 00
       0.0 0.0 0.0 0.0
000200 26 62 b8 40 6b 74 61 46 80 2d 7f 47 b8 98 52 49
       5.761981 14429.1045 65325.5 862603.5
000210 82 59 78 43 fc 76 19 48 5e 4a 66 48 5d e5 d5 4b
       248.34964 157147.94 235817.47 2.803577e+07
000220 83 ce 87 44 20 e5 28 49 4f 45 80 49 34 b7 ec 4c
       1086.4535 691794.0 1.0507939e+06 1.2410717e+08
000230 06 44 f9 42 5b 0d 22 47 16 e7 b9 47 a9 4e 7f 4a
       124.63286 41485.355 95182.17 4.1829542e+06
000240 00 00 00 00 00 00 00 00 00 00 00 00 00 00 00 00
       0.0 0.0 0.0 0.0
000250 00 00 00 00 00 00 00 00 00 00 00 00 00 00 00 00
       0.0 0.0 0.0 0.0
000260 00 00 00 00 8b b0 0d 2d 56 15 7e 2f e2 5a 06 2f
       0.0 8.0541225e-12 2.3108745e-10 1.2219517e-10
000270 5c 27 d4 42 6f d9 64 47 f7 01 b0 47 74 ec 1e 4b
       106.07687 58585.434 90115.93 1.041522e+07
000280 7d 68 e8 41 4a c3 fa 45 62 2f 35 47 68 86 6b 49
       29.05102 8024.411 46383.383 964710.5
000290 90 af d2 3f 9e fe 2a 44 c0 28 a5 44 eb aa ef 47
       1.6459827 683.9784 1321.2734 122709.836
0002a0 c3 d2 14 44 ad c5 a7 48 2a 84 05 49 9a 76 6b 4c
       595.29315 343597.4 546882.6 6.172529e+07
0002b0 bf b3 8b 43 81 d2 41 48 a7 db 8d 48 d4 92 0b 4c
       279.40427 198474.02 290525.22 3.658837e+07
0002c0 00 00 00 00 00 00 00 00 00 00 00 00 00 00 00 00
       0.0 0.0 0.0 0.0
0002d0 48 41 03 44 7d 08 90 48 6a d5 df 48 e5 a4 48 4c
       525.02 294979.9 458411.3 5.2597652e+07
0002e0 1b 49 a5 41 5f 2e 8d 46 20 13 c6 46 49 6f 44 4a
       20.660696 18071.186 25353.562 3.2183862e+06
0002f0 9f 2f 2b 3d 76 69 86 42 13 71 d8 45 ab 47 c2 45
       0.041793462 67.20598 6926.1343 6216.9585
000300 00 00 00 00 d2 29 b9 34 fa 9e 54 42 2e 16 aa 41
       0.0 3.4489364e-07 53.15525 21.26083
000310 27 e9 65 40 af 7f 7d 45 e3 a3 ae 45 75 5a 30 49
       3.5923555 4055.9802 5588.486 722343.3
000320 00 00 00 00 00 00 00 00 00 00 00 00 00 00 00 00
       0.0 0.0 0.0 0.0
000330 fe c4 49 42 d3 15 2e 47 0b b3 6a 47 16 d8 f3 4a
       50.442375 44565.824 60083.043 7.990283e+06
000340 a0 1e 5d 44 fd de 09 49 c8 52 0c 49 96 1c ae 4c
       884.4785 564719.8 574764.5 9.128466e+07
000350 00 00 00 00 00 00 00 00 00 00 00 00 00 00 00 00
       0.0 0.0 0.0 0.0
000360 00 00 00 00 00 00 00 00 00 00 00 00 00 00 00 00
       0.0 0.0 0.0 0.0
000370 91 10 c8 3e 9d 68 de 44 d5 92 22 45 85 f8 9e 48
       0.3907514 1779.2692 2601.177 325572.16
000380 40 f6 55 42 e9 1a 03 47 2e c9 44 47 96 7a b6 4a
       53.49048 33562.91 50377.18 5.979467e+06
000390 74 6e 78 42 0f ec 29 47 83 4d 86 47 66 f3 f0 4a
       62.107864 43500.06 68763.02 7.895475e+06
0003a0 00 00 00 00 00 00 00 00 00 00 00 00 00 00 00 00
       0.0 0.0 0.0 0.0
0003b0 00 00 00 00 00 00 00 00 00 00 00 00 00 00 00 00
       0.0 0.0 0.0 0.0
0003c0 12 98 85 41 c9 99 e3 45 4c 01 48 46 e9 49 9f 49
       16.699253 7283.223 12800.324 1.3048931e+06
0003d0 00 00 00 00 00 00 00 00 00 00 00 00 00 00 00 00
       0.0 0.0 0.0 0.0
0003e0 ff 0b 11 40 c8 11 57 45 70 2c 94 45 18 80 18 49
       2.2663572 3441.1113 4741.5547 624641.5
0003f0 da 5a 3a 45 99 8d 05 4a 63 7a 22 4a 92 ee ac 4d
       2981.6782 2.1881342e+06 2.6620408e+06 3.626645e+08

exp_avg f4 [64]
000000 9a aa 31 c0 32 f5 d5 bf 00 00 00 00 8f 77 df c0
       -2.7760377 -1.6715453 0.0 -6.9833446
000010 7a 39 0e 40 5f a1 af bf 5b bf 03 40 00 00 00 00
       2.222258 -1.3721122 2.0585544 0.0
000020 00 00 00 00 45 26 65 40 00 00 00 00 00 00 00 00
       0.0 3.5804608 0.0 0.0
000030 ac 29 32 41 0e bb d5 bf ea b9 7f 40 00 00 00 00
       11.135174 -1.669771 3.9957223 0.0
000040 f2 77 41 40 00 00 00 00 30 f7 e9 3e ed 6f 9d 3f
       3.022946 0.0 0.45696402 1.2299782
000050 ca 43 38 c1 9f 79 4d 40 51 4b c0 3f 06 9d 7d 40
       -11.51655 3.2105482 1.5022985 3.962709
000060 e3 14 91 3f 10 d0 2a 3f 11 a5 ef bf aa fa 2a c1
       1.1334499 0.6672373 -1.8722249 -10.686197
000070 69 51 ac bf 98 9d 86 c0 f4 4e 2a c0 00 00 00 00
       -1.3462344 -4.2067375 -2.661069 0.0
000080 e5 03 17 41 5a 72 75 40 86 d9 3b c1 f1 d9 33 41
       9.438451 3.8351045 -11.740606 11.240708
000090 00 00 00 00 00 00 00 00 04 00 00 00 9e 56 90 c0
       0.0 0.0 6e-45 -4.5105734
0000a0 ba 63 bc 40 9d e4 5e bf 22 3e 21 c1 ea b1 74 40
       5.8871737 -0.87067586 -10.077669 3.823359
0000b0 00 00 00 00 4d 80 1e c1 28 97 23 3f bd 60 ab bf
       0.0 -9.906323 0.6390252 -1.3388897
0000c0 53 8f 96 40 d4 4a 16 3e 00 00 00 00 52 2c 87 bf
       4.7049956 0.14676982 0.0 -1.05604
0000d0 b0 9f b6 40 00 00 00 00 00 00 00 00 cc c8 23 be
       5.706993 0.0 0.0 -0.15994567
0000e0 fe ce 36 c0 92 8b 3d c0 00 00 00 00 00 00 00 00
       -2.8563838 -2.9616437 0.0 0.0
0000f0 2a 8a 0f c0 00 00 00 00 10 f6 99 be 06 ee 13 c1
       -2.2428079 0.0 -0.30070543 -9.245611

exp_avg_sq f4 [64]
000000 2a 8b c4 43 26 af 36 42 00 00 00 00 e4 3c e1 44
       393.08722 45.671043 0.0 1801.9028
000010 3b ac 35 44 6e d5 c0 42 73 51 39 42 00 00 00 00
       726.6911 96.416855 46.32954 0.0
000020 00 00 00 00 3f f0 09 44 00 00 00 00 00 00 00 00
       0.0 551.75385 0.0 0.0
000030 0a ef 17 45 6b 8d 00 44 42 49 14 43 00 00 00 00
       2430.94 514.20966 148.28616 0.0
000040 73 4d 51 45 00 00 00 00 59 1c 1a 42 ee 80 94 43
       3348.8406 0.0 38.527683 297.00726
000050 73 90 cf 45 46 fd 39 45 87 15 31 44 3d de 0e 43
       6642.056 2975.8296 708.33636 142.86812
000060 87 30 a6 42 da 9a 78 42 32 a8 06 43 86 8f af 45
       83.09478 62.151222 134.65701 5617.9404
000070 6c f5 56 42 ca a3 d8 43 87 97 51 44 00 00 00 00
       53.73967 433.2796 838.3676 0.0
000080 33 3f 20 45 85 33 c7 44 17 5c f2 45 11 5c e8 44
       2563.95 1593.61 7755.511 1858.8771
000090 00 00 00 00 00 00 00 00 05 b3 7a 2c 70 eb 2d 44
       0.0 0.0 3.5626513e-12 695.6787
0000a0 12 e6 40 44 13 39 92 41 11 32 82 45 af 0c f4 44
       771.59485 18.277868 4166.2583 1952.3964
0000b0 00 00 00 00 16 f6 5b 45 c2 42 29 43 8f 5f 84 43
       0.0 3519.3804 169.26077 264.74655
0000c0 43 78 80 43 ec 58 15 42 00 00 00 00 85 de cd 43
       256.93954 37.336838 0.0 411.73843
0000d0 a6 fc 91 45 00 00 00 00 00 00 00 00 b3 f7 8a 41
       4671.581 0.0 0.0 17.370947
0000e0 8d a7 ba 43 7a 4e fb 43 00 00 00 00 00 00 00 00
       373.309 502.6131 0.0 0.0
0000f0 e6 31 eb 42 00 00 00 00 2f ac 00 42 e8 f4 93 46
       117.59746 0.0 32.168148 18938.453

exp_avg f4 [64, 64]
000000 00 00 00 00 00 00 00 00 00 00 00 00 00 00 00 00
       0.0 0.0 0.0 0.0
000010 00 00 00 00 00 00 00 00 00 00 00 00 00 00 00 00
       0.0 0.0 0.0 0.0
000020 00 00 00 00 00 00 00 00 00 00 00 00 00 00 00 00
       0.0 0.0 0.0 0.0
000030 00 00 00 00 00 00 00 00 00 00 00 00 00 00 00 00
       0.0 0.0 0.0 0.0
000040 00 00 00 00 00 00 00 00 00 00 00 00 00 00 00 00
       0.0 0.0 0.0 0.0
000050 00 00 00 00 00 00 00 00 00 00 00 00 00 00 00 00
       0.0 0.0 0.0 0.0
000060 00 00 00 00 00 00 00 00 00 00 00 00 00 00 00 00
       0.0 0.0 0.0 0.0
000070 00 00 00 00 00 00 00 00 00 00 00 00 00 00 00 00
       0.0 0.0 0.0 0.0
000080 00 00 00 00 00 00 00 00 00 00 00 00 00 00 00 00
       0.0 0.0 0.0 0.0
000090 00 00 00 00 00 00 00 00 00 00 00 00 00 00 00 00
       0.0 0.0 0.0 0.0
0000a0 00 00 00 00 00 00 00 00 00 00 00 00 00 00 00 00
       0.0 0.0 0.0 0.0
0000b0 00 00 00 00 00 00 00 00 00 00 00 00 00 00 00 00
       0.0 0.0 0.0 0.0
0000c0 00 00 00 00 00 00 00 00 00 00 00 00 00 00 00 00
       0.0 0.0 0.0 0.0
0000d0 00 00 00 00 00 00 00 00 00 00 00 00 00 00 00 00
       0.0 0.0 0.0 0.0
0000e0 00 00 00 00 00 00 00 00 00 00 00 00 00 00 00 00
       0.0 0.0 0.0 0.0
0000f0 00 00 00 00 00 00 00 00 00 00 00 00 00 00 00 00
       0.0 0.0 0.0 0.0
000100 63 85 4f bd 6c 01 ae bc 00 00 00 00 b5 39 0d bd
       -0.050664317 -0.021240912 0.0 -0.03447886
000110 04 00 00 00 14 36 f5 bc 04 00 00 80 00 00 00 00
       6e-45 -0.029933013 -6e-45 0.0
000120 00 00 00 00 47 39 ae 3c 00 00 00 00 00 00 00 00
       0.0 0.021267546 0.0 0.0
000130 af e3 3d bd 01 60 25 3c 2d 7d 9d 3b 00 00 00 00
       -0.046359714 0.01009369 0.004806182 0.0
000140 04 00 00 80 00 00 00 00 fb 51 af 3c 04 00 00 00
       -6e-45 0.0 0.021401396 6e-45
000150 18 a6 e6 ba 04 00 00 00 e8 45 db bb 28 e0 38 39
       -0.0017597107 6e-45 -0.006691683 0.00017631112
000160 48 e2 1a 39 80 4c 01 b5 f8 dc f1 bc 14 33 2a 3c
       0.00014770881 -4.8167567e-07 -0.029524311 0.010388155
000170 cb 13 b9 bb ee 5d 38 39 9a d0 5c bd 00 00 00 00
       -0.0056481115 0.00017582599 -0.053909875 0.0
000180 8a 8f 77 3d 04 00 00 00 78 06 d7 bc 8a 40 76 3d
       0.060439624 6e-45 -0.026248202 0.060120143
000190 00 00 00 00 00 00 00 00 00 00 00 00 1c 72 ce bc
       0.0 0.0 0.0 -0.025200896
0001a0 dd 85 5c 3d a0 6d 0d 39 f8 2b d6 bc 04 00 00 00
       0.0538386 0.00013487646 -0.026144013 6e-45
0001b0 00 00 00 00 52 18 35 bd 04 00 00 00 6f 47 09 3d
       0.0 -0.044212647 6e-45 0.03351539
0001c0 05 2f 7e 3b e8 39 bd 3c 00 00 00 00 9f 0a 29 bd
       0.003878535 0.0230989 0.0 -0.041269895
0001d0 04 00 00 00 00 00 00 00 00 00 00 00 8e 05 00 00
       6e-45 0.0 0.0 1.993e-42
0001e0 eb 8f bc bc 5b 11 36 3c 00 00 00 00 00 00 00 00
       -0.023017844 0.011112536 0.0 0.0
0001f0 98 17 c5 bc 00 00 00 00 b5 30 f8 3b 04 00 00 80
       -0.024059102 0.0 0.0075741657 -6e-45
000200 29 87 74 be f6 f5 aa c0 00 00 00 00 f6 2d e4 bf
       -0.23879685 -5.3425245 0.0 -1.7826526
000210 9c 1c 58 c0 24 19 1c c1 f5 18 94 be 00 00 00 00
       -3.3767462 -9.756138 -0.2892529 0.0
000220 00 00 00 00 58 c9 99 be 00 00 00 00 00 00 00 00
       0.0 -0.30036426 0.0 0.0
000230 5c 12 cd be ba e5 c9 c0 ba 3d 51 be 00 00 00 00
       -0.4005307 -6.309293 -0.20433703 0.0
000240 fc 87 cd 3e 00 00 00 00 d7 37 cf c0 d6 9b 0e c0
       0.4014281 0.0 -6.4755664 -2.2282615
000250 41 42 c5 3f 9e d5 69 bf 06 20 b6 bd 2f 40 e8 be
       1.5410844 -0.9134158 -0.08892827 -0.45361468
000260 40 d3 08 c1 4e 6d 1b c0 93 fc 2a c0 98 3f 85 c0
       -8.551575 -2.4285464 -2.671666 -4.164013
000270 2c da c2 c0 95 d5 aa c0 2f 70 89 be 00 00 00 00
       -6.0891323 -5.338572 -0.26843402 0.0
000280 89 12 0e bf 36 1e f6 bf 9a 74 da bf 32 89 48 bf
       -0.5549703 -1.922797 -1.7066834 -0.78334343
000290 00 00 00 00 00 00 00 00 00 00 00 00 ff b2 f5 bf
       0.0 0.0 0.0 -1.919525
0002a0 00 d1 99 3b ba 78 6b c0 76 9a 3b c0 24 19 8e 3e
       0.004694104 -3.6792436 -2.9313025 0.27753556
0002b0 00 00 00 00 4b c1 c8 bf 39 e6 21 c0 74 ff 24 3a
       0.0 -1.5683988 -2.5296767 0.0006294169
0002c0 7f 4f 96 be cf c3 e9 c0 00 00 00 00 30 da f0 be
       -0.29357526 -7.3051524 0.0 -0.47041464
0002d0 59 dd 08 bf 00 00 00 00 00 00 00 00 c6 0a f8 3d
       -0.5346275 0.0 0.0 0.1211143
0002e0 16 30 86 c0 02 44 f0 bf 00 00 00 00 00 00 00 00
       -4.19337 -1.8770754 0.0 0.0
0002f0 4e fa 2a c1 00 00 00 00 b0 3f 3d bf 78 68 af 3e
       -10.68611 0.0 -0.73925304 0.3425939
000300 4e e1 4b bd c2 5f 59 bf 00 00 00 00 32 85 8c be
       -0.049775414 -0.8491174 0.0 -0.2744537
000310 c7 c5 cb be c6 d1 a0 bf 49 a3 c8 bc 00 00 00 00
       -0.3979933 -1.2564018 -0.024491923 0.0
000320 00 00 00 00 a9 a6 79 bd 00 00 00 00 00 00 00 00
       0.0 -0.060949955 0.0 0.0
000330 33 32 83 bd 26 24 15 bf 1f ac fb bc 00 00 00 00
       -0.06406059 -0.58258283 -0.030721722 0.0
000340 72 84 4b 3e 00 00 00 00 60 24 3c bf 56 83 16 be
       0.19874743 0.0 -0.73493004 -0.14698538
000350 d9 52 68 3e 5a fc 0c be 02 2f dd bc 92 ed f8 3e
       0.22687854 -0.1376814 -0.026999954 0.48618752
000360 fa 6a 5a bf c4 90 02 be 43 ca c8 be 81 04 56 be
       -0.85319483 -0.12750536 -0.39216813 -0.20900156
000370 60 00 16 bf c0 be 44 bf 4f 34 62 bd 00 00 00 00
       -0.5859432 -0.7685356 -0.055225667 0.0
000380 89 ac 27 3f 1a 07 3b be 00 5c 80 be da 9b 1f 3f
       0.6549764 -0.18264428 -0.2507019 0.62347186
000390 00 00 00 00 00 00 00 00 04 00 00 00 cf 4f a4 be
       0.0 0.0 6e-45 -0.3209214
0003a0 23 30 a8 3e bb 2d b0 be 25 60 de be 0e 19 33 3d
       0.32849225 -0.3440989 -0.43432727 0.043725066
0003b0 00 00 00 00 c2 5c 7c be f2 84 a6 be b5 f5 56 3b
       0.0 -0.2464476 -0.32523304 0.0032800261
0003c0 a3 92 36 bd 41 ad 46 bf 00 00 00 00 f4 ad b8 bd
       -0.044573437 -0.77608114 0.0 -0.09017554
0003d0 e0 d0 e7 3e 00 00 00 00 00 00 00 00 b2 6b 70 3d
       0.45276546 0.0 0.0 0.058696456
0003e0 74 b0 0f bf bc 1b 0d bd 00 00 00 00 00 00 00 00
       -0.5612862 -0.034450278 0.0 0.0
0003f0 51 63 a6 bf 00 00 00 00 44 17 64 be a0 10 b8 3e
       -1.2999059 0.0 -0.222745 0.35950184

exp_avg_sq f4 [64, 64]
000000 00 00 00 00 00 00 00 00 00 00 00 00 00 00 00 00
       0.0 0.0 0.0 0.0
000010 00 00 00 00 00 00 00 00 00 00 00 00 00 00 00 00
       0.0 0.0 0.0 0.0
000020 00 00 00 00 00 00 00 00 00 00 00 00 00 00 00 00
       0.0 0.0 0.0 0.0
000030 00 00 00 00 00 00 00 00 00 00 00 00 00 00 00 00
       0.0 0.0 0.0 0.0
000040 00 00 00 00 00 00 00 00 00 00 00 00 00 00 00 00
       0.0 0.0 0.0 0.0
000050 00 00 00 00 00 00 00 00 00 00 00 00 00 00 00 00
       0.0 0.0 0.0 0.0
000060 00 00 00 00 00 00 00 00 00 00 00 00 00 00 00 00
       0.0 0.0 0.0 0.0
000070 00 00 00 00 00 00 00 00 00 00 00 00 00 00 00 00
       0.0 0.0 0.0 0.0
000080 00 00 00 00 00 00 00 00 00 00 00 00 00 00 00 00
       0.0 0.0 0.0 0.0
000090 00 00 00 00 00 00 00 00 00 00 00 00 00 00 00 00
       0.0 0.0 0.0 0.0
0000a0 00 00 00 00 00 00 00 00 00 00 00 00 00 00 00 00
       0.0 0.0 0.0 0.0
0000b0 00 00 00 00 00 00 00 00 00 00 00 00 00 00 00 00
       0.0 0.0 0.0 0.0
0000c0 00 00 00 00 00 00 00 00 00 00 00 00 00 00 00 00
       0.0 0.0 0.0 0.0
0000d0 00 00 00 00 00 00 00 00 00 00 00 00 00 00 00 00
       0.0 0.0 0.0 0.0
0000e0 00 00 00 00 00 00 00 00 00 00 00 00 00 00 00 00
       0.0 0.0 0.0 0.0
0000f0 00 00 00 00 00 00 00 00 00 00 00 00 00 00 00 00
       0.0 0.0 0.0 0.0
000100 a3 2a c7 3e 59 d6 b1 3f 00 00 00 00 61 d9 20 3f
       0.38899717 1.3893539 0.0 0.62831694
000110 4c 61 07 30 44 e4 f7 3e 02 a5 ce 33 00 00 00 00
       4.925098e-10 0.4841634 9.622637e-08 0.0
000120 00 00 00 00 6f 3c 36 3f 00 00 00 00 00 00 00 00
       0.0 0.71185964 0.0 0.0
000130 66 2b 1b 3f 9e 7a 68 3d f8 0c 31 39 00 00 00 00
       0.60613096 0.05675756 0.00016884867 0.0
000140 3d a0 ec 35 00 00 00 00 cd b3 c6 3d 7f 76 f2 2f
       1.7630006e-06 0.0 0.09702263 4.410374e-10
000150 8d 7e 24 3a cc 5d 1d 2c 35 c6 af 3f 11 00 92 39
       0.0006274961 2.236311e-12 1.3732363 0.0002784734
000160 1d a7 88 39 1c f4 c0 37 9f b7 2e 3e 42 8d ae 3f
       0.0002606445 2.3001856e-05 0.17062233 1.3636858
000170 ac eb a9 3e 50 82 54 3b bc ed ee 3e 00 00 00 00
       0.33187616 0.0032426305 0.46665752 0.0
000180 c4 a9 f7 3e b5 ec 36 2f 48 c7 ff 3e 90 4f 39 3e
       0.48371708 1.6636899e-10 0.49956727 0.18096757
000190 00 00 00 00 00 00 00 00 00 00 00 00 c0 76 a9 3f
       0.0 0.0 0.0 1.3239365
0001a0 a3 5e 59 40 4e 97 d7 3e e4 cf 22 3f c4 1b ab 2d
       3.3964012 0.42107624 0.63598466 1.945278e-11
0001b0 00 00 00 00 34 43 02 3f 64 6f 53 30 f7 d5 ee 3d
       0.0 0.50883794 7.691965e-10 0.11661904
0001c0 79 e5 c7 38 04 b8 a4 3d 00 00 00 00 57 6e c2 3f
       9.531802e-05 0.08042911 0.0 1.5189923
0001d0 82 36 ba 30 00 00 00 00 00 00 00 00 b0 10 2d 37
       1.3548773e-09 0.0 0.0 1.0315489e-05
0001e0 1a aa 5f 3f e6 73 0b 40 00 00 00 00 00 00 00 00
       0.8736893 2.1789489 0.0 0.0
0001f0 bb 6a 8c 3e 00 00 00 00 4d 8f dc 3d 7f a8 c0 32
       0.2742518 0.0 0.1076952 2.2428365e-08
000200 b6 22 eb 3f f5 0e 8f 45 00 00 00 00 f7 c6 ae 43
       1.8369968 4577.8696 0.0 349.5544
000210 42 62 d4 44 c0 65 0b 46 44 a2 72 3f 00 00 00 00
       1699.0706 8921.4375 0.9477885 0.0
000220 00 00 00 00 8a 5c 11 40 00 00 00 00 00 00 00 00
       0.0 2.2712731 0.0 0.0
000230 68 d0 f9 3f 4d 78 5a 44 7f 74 eb 3e 00 00 00 00
       1.9516726 873.8797 0.45987317 0.0
000240 6e d9 70 41 00 00 00 00 d0 75 e5 45 ef 30 26 44
       15.053083 0.0 7342.7266 664.7646
000250 e4 9c 01 42 b7 e5 ad 43 9f a2 55 40 cc 73 26 41
       32.403214 347.79465 3.3380506 10.403271
000260 e4 b3 04 46 ec e1 60 44 a0 fd 1c 44 18 f0 c2 43
       8492.973 899.53 627.9629 389.87573
000270 1c 4e 0f 45 65 3b 4c 44 62 31 2a 40 00 00 00 00
       2292.8818 816.92804 2.659264 0.0
000280 90 95 9c 40 4a 8c 15 44 ff fa a5 42 85 94 05 41
       4.893257 598.192 82.99023 8.34876
000290 00 00 00 00 00 00 00 00 00 00 00 00 93 1e 17 44
       0.0 0.0 0.0 604.4777
0002a0 8d fb 3f 42 48 41 c1 44 17 f2 09 44 ec 9c da 42
       47.995655 1546.04 551.78265 109.30649
0002b0 00 00 00 00 82 93 ed 43 f1 cc 89 44 69 28 0c 3a
       0.0 475.1524 1102.4044 0.0005346598
0002c0 49 83 78 3f b0 6f 07 46 00 00 00 00 7a 5b 38 43
       0.97075325 8667.922 0.0 184.35733
0002d0 d1 71 b6 41 00 00 00 00 00 00 00 00 91 fd 0e 41
       22.805574 0.0 0.0 8.936906
0002e0 6d 33 84 44 99 ac 09 43 00 00 00 00 00 00 00 00
       1057.607 137.67421 0.0 0.0
0002f0 ee 0f 22 46 00 00 00 00 07 58 13 45 ea 2d 68 41
       10371.982 0.0 2357.5017 14.5112095
000300 dc dd 4f 3d 62 2d d6 42 00 00 00 00 6e ea 01 41
       0.05074869 107.08864 0.0 8.119734
000310 12 db 1f 42 b0 12 51 43 87 ca c3 3c 00 00 00 00
       39.963936 209.073 0.023900284 0.0
000320 00 00 00 00 52 f7 a1 3d 00 00 00 00 00 00 00 00
       0.0 0.07908501 0.0 0.0
000330 af c8 66 3d 89 c8 a7 41 7a 22 2e 3c 00 00 00 00
       0.05634373 20.972918 0.010628337 0.0
000340 02 9b fa 3e 00 00 00 00 3d 1d 2e 43 e6 1a 80 41
       0.48946387 0.0 174.11421 16.013134
000350 cf fa 3f 3f ab a7 00 41 65 6c 00 3e e3 d8 5f 3f
       0.7499208 8.040935 0.12541349 0.8744032
000360 89 b6 49 43 51 ab ae 41 38 d8 68 41 59 f3 1d 41
       201.71303 21.83365 14.552788 9.871911
000370 07 2f 5a 42 1e c5 98 41 c1 e4 90 3d 00 00 00 00
       54.545925 19.096249 0.07074881 0.0
000380 01 b8 84 3f c0 67 63 41 c8 9c f7 3f 43 aa be 3f
       1.0368654 14.21283 1.9344721 1.489571
000390 00 00 00 00 00 00 00 00 03 29 13 28 4f fe 61 41
       0.0 0.0 8.169032e-15 14.124587
0003a0 9f e4 f9 3f 51 8f 13 42 0f 6f 4d 41 54 b4 21 40
       1.9522895 36.889957 12.839614 2.5266314
0003b0 00 00 00 00 71 3b 30 41 91 0f cf 41 20 b0 3d 3b
       0.0 11.014512 25.8826 0.002894409
0003c0 64 cb b7 3c 64 e1 4d 43 00 00 00 00 c0 b9 8a 40
       0.022435851 205.88043 0.0 4.3351746
0003d0 91 aa a2 3f 00 00 00 00 00 00 00 00 e1 72 81 3e
       1.2708303 0.0 0.0 0.25282958
0003e0 da f4 c5 41 34 4d 68 40 00 00 00 00 00 00 00 00
       24.744556 3.629712 0.0 0.0
0003f0 e2 9b 73 43 00 00 00 00 a9 78 5b 42 72 31 39 3f
       243.60892 0.0 54.867832 0.7234107

exp_avg f4 [64]
000000 00 00 00 00 b0 fd e6 bb 2c e4 88 bf 0f 7d 10 be
       0.0 -0.007049285 -1.0694633 -0.14110206
000010 04 00 00 00 02 7f 44 bf d0 b2 f4 3d 4c 85 83 bf
       6e-45 -0.767563 0.11948168 -1.0275054
000020 04 00 00 00 2c 06 0e be 0c e3 9f bf 3a 6d 99 be
       6e-45 -0.13869542 -1.2491164 -0.29966146
000030 dd 22 89 bf 04 00 00 00 04 3c 8c be 04 00 00 00
       -1.0713764 6e-45 -0.27389538 6e-45
000040 6a 63 08 bf 04 00 00 00 fc 10 77 bf 04 00 00 00
       -0.53276694 6e-45 -0.9651029 6e-45
000050 fa fe 94 3d 00 00 00 00 61 64 2c be 12 3b 97 bf
       0.072751954 0.0 -0.16835167 -1.1814902
000060 7a ba 28 bf 04 00 00 00 00 00 00 00 00 75 f1 3c
       -0.6590954 6e-45 0.0 0.029474735
000070 1c b8 55 bf 4f dc 98 be 3a 55 75 be 64 8b 75 3f
       -0.83484054 -0.29855582 -0.23958293 0.9591582
000080 be c7 61 bf 26 b4 8a bf 97 47 ee be e0 35 16 bf
       -0.8819541 -1.0836227 -0.46538994 -0.58675957
000090 a2 cd 6c bf 04 00 00 00 04 00 00 00 12 2c 79 bf
       -0.9250127 6e-45 6e-45 -0.9733287
0000a0 42 28 88 be 40 e4 c2 3c 04 00 00 00 92 9d 0f 3e
       -0.26593214 0.023790479 6e-45 0.14024952
0000b0 35 48 3a be 24 c4 21 be 5b eb d5 3d 62 0d 76 bf
       -0.18191607 -0.15797478 0.10445281 -0.9611417
0000c0 e5 5d 80 bf 04 00 00 00 07 6a 71 be 04 00 00 00
       -1.0028654 6e-45 -0.23575602 6e-45
0000d0 fc 8d c8 bd 78 15 13 bf 4b 97 ee be 04 00 00 00
       -0.09792706 -0.57454634 -0.46599802 6e-45
0000e0 d4 a9 e3 bd 04 00 00 00 07 21 95 be df 21 29 bf
       -0.111163765 6e-45 -0.2912676 -0.6606731
0000f0 ce 99 9c 3e 1a 1b b1 3e 80 e0 ab be 00 00 00 00
       0.30586094 0.3459099 -0.33569717 0.0

exp_avg_sq f4 [64]
000000 00 00 00 00 b6 ff 76 3e 36 97 cd 41 f3 6c 1c 3f
       0.0 0.24120983 25.698833 0.61103743
000010 a8 e6 49 31 ee 3d 61 41 3d cb d7 40 6a ad cb 41
       2.9380463e-09 14.07762 6.7435594 25.459675
000020 86 1a 2c 31 be d2 12 3f 01 df 2a 42 4e 9c 05 40
       2.504437e-09 0.5735282 42.717777 2.087665
000030 38 c9 be 41 ce 79 e8 32 df ae 04 40 7b d7 f7 38
       23.848251 2.7063745e-08 2.0731733 0.00011818014
000040 f5 05 d5 40 0d 1e 46 31 cb c9 a9 41 cc 6b ca 28
       6.656977 2.8829874e-09 21.223532 2.2473255e-14
000050 0e 78 6c 40 00 00 00 00 78 85 8f 40 c6 a2 19 42
       3.6948276 0.0 4.4850426 38.40896
000060 03 43 28 41 ac 48 02 36 00 00 00 00 a2 88 0a 41
       10.51636 1.941381e-06 0.0 8.658358
000070 83 39 7c 41 fb bc 30 40 18 5e df 3f b8 f4 af 41
       15.764041 2.7615345 1.745059 21.994492
000080 13 39 de 41 68 f1 ed 41 ba 39 f2 40 27 92 df 40
       27.777868 29.742874 7.5695467 6.986591
000090 1a 63 a7 41 4f 6f ef 2a 1e 96 e7 28 32 01 d4 41
       20.92339 4.2532164e-13 2.5711255e-14 26.500584
0000a0 72 6c 0c 40 ce e7 ca 40 33 da 95 29 09 ab fa 40
       2.194119 6.3407965 6.654781e-14 7.8333783
0000b0 ef 55 80 3f 23 ab a0 40 14 16 09 40 d0 33 de 41
       1.0026225 5.0208907 2.1419725 27.7753
0000c0 56 8e ef 41 e2 b8 43 31 42 34 ee 3f 0e 06 a5 2c
       29.9445 2.8481328e-09 1.8609698 4.6902543e-12
0000d0 12 fd a0 40 d5 84 14 41 d2 5a 16 41 5e 10 e5 29
       5.0308924 9.28243 9.397173 1.0172482e-13
0000e0 95 98 90 40 04 a8 94 2c 53 92 29 40 eb 37 52 41
       4.5186257 4.2250665e-12 2.649556 13.138652
0000f0 fd 40 09 41 1f dc 01 40 db ce 81 40 00 00 00 00
       8.578366 2.0290601 4.056501 0.0
