1/trained_models/tetris_auto_8000.pt (torch, 61767 bytes, 15 tensors)

conv1.0.weight f4 [64, 4]
00000000: 90f9 3e3d cf86 48bf de7b 813e d02b ddbd
00000010: f02a a33d 55cd 85be 263f b63d 08a5 083e
00000020: f462 bebd cd1b 28be c38b 57be 409f f8bc
00000030: 6982 253c 1b1f 95be 484f 51bd d39f 403d
00000040: 0e84 533d dd12 9ebd 9b4e 0fbe d8e2 e33d
00000050: 5305 42be c5c3 3abe c283 5cbe af3c 4a3e
00000060: 81ad 893e b0c5 8c3e eca3 bfbe c13b 92bd
00000070: e0e3 213e 185a f93d c081 d4bd 94b3 8cbe
00000080: 580b f1bd 344d 983d 8eb0 84bd 7b0d 67be
00000090: 9209 40bf 61a3 9d3e 1258 993e a4c5 63be
000000a0: a053 893e 2827 de3d 8095 a3bb 9cca 8fbe
000000b0: 58ed 17bd 90ef 4a3d 0a98 e1bd 0c08 5bbe
000000c0: 3c20 5fbe f884 42bf a158 da3e 86bc a5be
000000d0: b86a 303f 64c9 703e 0d34 bbbe 294e 5b3d
000000e0: 2c47 c43d a8b6 fd3d 5aa4 6f3e cd56 fdbe
000000f0: 404c 49bd 8439 8c3d 705a 013e f173 8bbe
00000100: 5990 813d d0fb 1c3e a6a1 523d ba52 043c
00000110: 8afa 353e d85b 0e3e a01c 303c 14a5 febd
00000120: 18ea d5bd 4c0e 05bc c902 5c3e b755 263e
00000130: fbe3 123e 8255 c23d 3c5d f4bc 3859 6f3d
00000140: 75e4 c7bd 1e93 4fbf 739d 353e 38a8 443d
00000150: b3c2 9b3e 2d0c 18bf 4567 8fbe 9708 ec3d
00000160: 8c9a c63f d954 f7bd b74d f03e 2508 74be
00000170: e50f 4fbe a458 053f 018f 7dbd 94de 60bd
00000180: d6e2 7fbe 96a8 d23d c8ff eebc 3d6b 393e
00000190: 8c22 bdbc a587 223e 79d4 543d 3d1f 5a3d
000001a0: 569e f839 f7af 73be f7a5 27be 7565 933d
000001b0: 7a54 413e 29ae bf3e 3f18 123d f8b5 7dbc
000001c0: 27da d63d 1d07 153e d558 fcbd 388f a63d
000001d0: 2852 a83e c34d 11bd 6831 ecbe a4b5 a83d
000001e0: bda2 583d 9f4c 54bf e638 793e 555a e3bd
000001f0: 6c17 553e 145a 963e 560a 02be d4a5 77be
00000200: 19af cbbe 56fa 703f 91b3 093e 5a65 19be
00000210: 8978 023d 1896 ba3a 9f1a 9bbc 8a09 783d
00000220: 9f5f 04bd 8a6f e9bd aa93 bdbd 6ae5 8a3c
00000230: 2edb 80bd 563e 6e3f 6489 333d 28d3 a9bd
00000240: eed8 dfbd 4007 863e 00df 92ba 0d5d 77be
00000250: 5854 633e f403 36be 5316 84be 4e72 a4bd
00000260: fc9a 773e f292 513e 44c1 db3d b050 71be
00000270: 49a8 8a3c 6f4d 77be b390 b03d 8146 2c3d
00000280: 0d8c 16bf dbfa 073f 0d7e 113f bf4f 0bbe
00000290: 80a1 c6be 2284 ef3d 1262 fc3b 38b1 853d
000002a0: 56ef 5cbe 669b 05be 5f19 a6bd 0414 3a3d
000002b0: a1ee 90bc 0134 b0be 801b 2dbd 21a7 883d
000002c0: 7caa 75be 9855 34bd 4881 36bd ca49 96be
000002d0: 8963 26bd 8b77 ddbe ce0b a6bd 4b66 8b3d
000002e0: 8918 03be 84b1 bbbd df53 d7bd 9425 bd3d
000002f0: 257c 133f 6dfe d03e f16a e83e 00e3 dabe
00000300: f8f6 de3d a288 71bd e388 303e 1752 efbe
00000310: 05bc b8be e378 483d 8c9b 413e 53dd 303e
00000320: cf8b 93be 94cd 9dbd a070 053c e6c8 dcbd
00000330: 09de 21be 8250 d8be 88c6 b93d 45f8 f03c
00000340: 313b 9ebc 8f04 0b3f 7271 3abe 3145 35bb
00000350: bc3f 193e 5052 533d 7c37 c83d b840 89be
00000360: facb 1ebe 34fd 293e 5859 f43d cf6f 96be
00000370: 7470 f6be 033e 653d 9144 b63d eb38 54ba
00000380: 8896 21be b5ac 8fbd 36a1 acbd 94b1 623d
00000390: 54f4 4cbe e2bd 893e f86c 553e 74a3 19bd
000003a0: 2e80 033e 28d7 2e3d 6de2 32be c0c0 87bd
000003b0: 2045 2c3e 0075 7a3e 3824 a53d 5721 88be
000003c0: e252 77be 21a2 fbbd c629 83be 81ab 543e
000003d0: d653 303e 60e7 50bc 692e 34be 24af aabd
000003e0: 3f7b 82be 9ea1 19bf d226 943e 35d8 033e
000003f0: 2296 21bd 8f5d a43e aa2f 8d3d 5e64 62bb
0.04662472 -0.783307 0.25289816 -0.10799372 0.07967174 -0.26133218 0.08898763 0.13344204
-0.092962176 -0.16416855 -0.21049409 -0.030349374 0.010101893 -0.29125294 -0.051101 0.04702742
0.05163961 -0.07718442 -0.1399483 0.111272514 -0.18947344 -0.18238743 -0.21534637 0.19749711
0.26890185 0.27494574 -0.3742975 -0.071403034 0.15809584 0.12175387 -0.1037631 -0.27480757
-0.11769742 0.074366 -0.06478988 -0.22563736 -0.75014603 0.3078871 0.29950005 -0.22243363
0.26821613 0.10847312 -0.004992187 -0.28084266 -0.037091583 0.04954487 -0.11015327 -0.21389788
-0.2178964 -0.75984144 0.42645743 -0.32370394 0.6891284 0.23514324 -0.3656315 0.053541336
0.095838875 0.123883545 0.23402539 -0.49480286 -0.049144983 0.06846908 0.12632155 -0.27236894
0.0632636 0.15330434 0.05142369 0.008076364 0.17771354 0.13902223 0.010749012 -0.1243383
-0.104450405 -0.008121084 0.21485437 0.16243635 0.1434478 0.094889656 -0.029829614 0.058434695
-0.097603716 -0.8108386 0.17735843 0.04801199 0.3042198 -0.5939358 -0.28008476 0.11525076
1.5515914 -0.1207673 0.46934292 -0.23831232 -0.20220907 0.5208838 -0.061903957 -0.054899767
-0.24988875 0.102860615 -0.0291747 0.18107314 -0.023087762 0.15872057 0.051960442 0.053252447
0.00047420216 -0.23797594 -0.16371904 0.07197086 0.18879882 0.3743756 0.035667654 -0.015485279
0.10490828 0.14553495 -0.12321631 0.081327856 0.3287518 -0.03547455 -0.46131444 0.0823777
0.052889574 -0.82929415 0.24338111 -0.11101214 0.20809716 0.293656 -0.12699255 -0.24184352
-0.39782026 0.9413198 0.13447405 -0.14980069 0.031853233 0.0014235405 -0.018933592 0.060555972
-0.032317754 -0.113982275 -0.0925668 0.016955096 -0.06291805 0.9306387 0.043832198 -0.08292228
-0.10930048 0.26177406 -0.0011205375 -0.2415659 0.22200143 -0.17774945 -0.25798282 -0.080296144
0.24180216 0.20466211 0.10730222 -0.23565936 0.016925948 -0.24150632 0.08621349 0.042059425
-0.5880745 0.5311715 0.56832963 -0.1360464 -0.3879509 0.11695124 0.0077021206 0.065279424
-0.21575674 -0.13047561 -0.08110308 0.045429245 -0.017691912 -0.34414676 -0.042262554 0.06672502
-0.23990816 -0.04402694 -0.044556886 -0.29353172 -0.040622268 -0.43255267 -0.0810772 0.0680662
-0.12802328 -0.09164718 -0.10514044 0.09235683 0.57611305 0.4081911 0.4539409 -0.42751312
0.10886949 -0.058968194 0.17239718 -0.46742317 -0.36080948 0.04894341 0.18906993 0.17271928
-0.28817603 -0.077052265 0.008144528 -0.10780506 -0.15807356 -0.42248923 0.0907107 0.02941526
-0.019315334 0.5430383 -0.18207338 -0.002765965 0.14965719 0.05159217 0.09776208 -0.2680719
-0.15507498 0.16600496 0.119311035 -0.29382178 -0.4813267 0.055967342 0.08899797 -0.00080956396
-0.1578008 -0.07015363 -0.08429186 0.055345133 -0.20015079 0.26902682 0.2084235 -0.037509397
0.12841865 0.042685658 -0.17469187 -0.06628561 0.16823244 0.24458694 0.08063549 -0.26587936
-0.24152711 -0.12286783 -0.25617808 0.20768549 0.17219481 -0.012750477 -0.17595829 -0.08334187
-0.25484654 -0.60012233 0.28935868 0.12875445 -0.03944982 0.3210263 0.06893857 -0.0034544687

conv1.0.bias f4 [64]
00000000: 8557 2a3f 640c 9a3f 0000 0000 d266 dc3f
00000010: 19c8 25c0 9a28 da3f 4f87 473f 0000 0000
00000020: 0000 0000 6180 5e3f 0000 0000 0000 0000
00000030: 2f5b 603f 889c fe3f bc7b 0b3f 0000 0000
00000040: 3b42 25c0 0000 0000 633e fdbf 4043 11c0
00000050: d334 0bc0 de5d 18c0 3935 433f d038 3dbf
00000060: e10c e0bf 01fb f4bf bb69 bf3f 690e 0040
00000070: bf37 ba3f 7dd0 d63f 205b 583f 0000 0000
00000080: 7d42 883f ae23 0bc0 1d57 ef3f fcec 9e3e
00000090: 0000 0000 0000 0000 946c 15bd 2d09 d13f
000000a0: 225a 343f 0db4 713f 51f5 ee3f 0af9 26c0
000000b0: 0000 0000 0876 d53f e45c 0fc0 53a8 cabd
000000c0: d0e1 4c3f 6656 febf 0000 0000 e9f7 f03f
000000d0: 92b9 fcbf 0000 0000 0000 0000 2f5f bdbf
000000e0: 3052 0540 b4a7 df3f 0000 0000 0000 0000
000000f0: 92cb bb3f 0000 0000 e4b0 02c0 93c5 2dc0
0.66539794 1.2035031 0.0 1.7218878 -2.590338 1.7043641 0.7794084 0.0
0.0 0.8691464 0.0 0.0 0.87639135 1.989152 0.5448568 0.0
-2.5821674 0.0 -1.9784664 -2.2697296 -2.1750991 -2.3807292 0.76253086 -0.73914814
-1.750393 -1.91391 1.4954141 2.0008795 1.4548262 1.6782376 0.84514046 0.0
1.0645291 -2.1740527 1.869846 0.3104018 0.0 0.0 -0.0364805 1.6330925
0.7045003 0.9441536 1.8668615 -2.6089501 0.0 1.6676645 -2.2400446 -0.098953865
0.8003206 -1.9870117 0.0 1.8825656 -1.9744132 0.0 0.0 -1.4794673
2.0831413 1.7473054 0.0 0.0 1.46715 0.0 -2.0420465 -2.715184

conv2.0.weight f4 [64, 64]
00000000: f1aa 25be a1a2 bebd 9e89 42be f070 7abc
00000010: ecba 1cbd 4ef7 ce3d 0599 573e 90b3 ac3c
00000020: df85 493e 0249 43be 7af1 8fbd 4b8b 213e
00000030: 3894 54bd e947 5abe 8051 ad3b b53d d2bd
00000040: d67e 943d 8bca 383e 3c2e 1cbe 2696 9c3d
00000050: 503e dcbd 524b ba3d 7adb 1dbe c66e 10be
00000060: 6a28 bb3d 26d0 14be 0022 24ba e40e 01be
00000070: 29c4 003e eeef 21be 1694 b73d 1e85 e83d
00000080: 96fe f53d 040a 77bd 3f64 413e 3238 04be
00000090: a872 e2bc b5db f0bd 723c 9b3d 10e0 773c
000000a0: ea70 b73d 1ff2 58be 015b 43be 263d 04be
000000b0: df76 4f3e afa9 263e 115b ccbd a2cc b03d
000000c0: d07c 8ebd 2219 be3d b3bb 3bbe fc74 eabd
000000d0: 4fec 043e 524b fd3d 1341 4c3e a055 a63b
000000e0: 4d16 5c3e 9471 05be ba94 833d 60e8 523c
000000f0: 38fa 2bbe d944 e1bd 8c5d cdbd fac8 a03d
00000100: fc97 9a3e e483 f33d 91a4 49be ea67 6bbc
00000110: 3e90 113e 9d47 d4be 8b4e 73be 227b 34be
00000120: 1629 cc3d eb03 053f 787d 66bd 652a 553e
00000130: 6b4a 403f 98fb 27bf 2551 95bf 5019 a93c
00000140: 42eb aabe 81f1 1d3e 54f7 dfbe e9cf b9bd
00000150: afe9 443f 9689 d4bd a99f 1f3f 6bc9 c5be
00000160: c24b adbf 1a6c 46bf 165a abbe 7e9b 54be
00000170: 78a5 c5be 439d 41bf 25be 033f 7b0d 0bbe
00000180: 3174 b63e f5df 043e 16be 1dbe de31 6dbe
00000190: 8ef6 eb3d 3458 553d e032 4fbc 677b 4ebd
000001a0: 29aa 2c3e 109f 82be da7c 46be f873 d4bd
000001b0: f084 44bc 244a 8a3d ea60 173e 8090 8d3f
000001c0: 6783 42bf 61dc c8be 0849 033d b8ba b5bd
000001d0: 13b1 f73a dde9 2c3e 8ac8 fa3d 6032 15bf
000001e0: 8a30 23be ceaa 35bd f2f0 bbbd d69f 82bd
000001f0: ec65 03bf a693 b03d 852b 69bd c3df 19be
00000200: 59d5 bf3d 1b03 83bc fa98 fd3d 0aa5 323f
00000210: 8d51 c5be 2068 7b3e 8a7d 0fbf d86b 8f3c
00000220: 04f7 683d 89d4 99bf 2572 3a3e a7b9 363e
00000230: 616b f0bf b050 c23e 2cab f4be 7bae 4cbe
00000240: 089b f5be 4fec 2b3e d3ca 68bc 44a8 83be
00000250: 264d c8bf 5285 dbbe 341c 02c0 5f84 14be
00000260: f81b 10be b9cd 96be fdbd dc3d d9a2 2f3e
00000270: 1830 5b3e 2524 ed3e 2577 083f 6a22 bb3d
00000280: 4d17 d7bf 060d 49bf f27c 5c3f de98 d3bf
00000290: 7c3e 29be fc40 20be 124e 973d 6ffe 073f
000002a0: 4fc9 82bf e7e0 143e 7585 d33e e1fd c7be
000002b0: 929d aa3d eb9c 663f 89a7 a0bd f3cb 3abf
000002c0: 2da6 0dbf ad67 48bc 72b5 b8bd 4627 033e
000002d0: c5b9 70bf 8a19 923d 2444 3abd 1aaf 16be
000002e0: b9f8 b23e 27e9 c23e 601c 1ebc 7df8 5cbe
000002f0: 68ea d93e 6a78 8d3d 5eb4 243e b9b2 debf
00000300: e920 403f 00a2 15bb 7c4b 9fbd 9eed 4d3e
00000310: 2299 7fbe e46c 343c a8cb 4f3c 1e9d ba3d
00000320: 7318 bdbd 5c37 153e c8cf d0bd 6274 36be
00000330: 82ad 9fbf e6d7 f7bd e401 f3be 483b 3bbd
00000340: e039 90bd 2ce8 a3bd a176 9a3d 93ba cebd
00000350: 2d98 26bf ab79 d6be ae67 6ebe fa53 003e
00000360: b32c 283e 061a 813d 59a3 abbd 30fb 333f
00000370: 7d95 adbc 40bf 7e3e f2aa 6d3f 325c e13d
00000380: 2bd7 503e 6e39 04be f655 4d3f ba35 133e
00000390: e88d 003d 591b 023e 5a82 eb3d 9f83 9f3c
000003a0: 6acf 063e cd15 98bd 4704 293f 30b1 a8be
000003b0: 6190 1d3e 796a 223f 279d 6abe 8040 503f
000003c0: 53ba 23bf 5002 aebd 91a2 5d3e 5762 213e
000003d0: d252 dcbc 52f8 f1bd 9580 36be 3cf3 73bc
000003e0: 20fb 0d3e e29f b43e 5aac e73d 7265 be3d
000003f0: 65fd 4d3d 1491 1dbe e4e1 393e 05e3 8fbe
-0.1617849 -0.09308363 -0.1899781 -0.015285715 -0.0382642 0.101057634 0.21054466 0.021081716
0.19679974 -0.19070819 -0.0702848 0.15775792 -0.051899165 -0.21316494 0.0052892566 -0.10265676
0.072507545 0.18046014 -0.15252012 0.07645826 -0.10754073 0.090963975 -0.15415755 -0.14104757
0.09138568 -0.14532527 -0.000626117 -0.12603337 0.12574829 -0.15814182 0.08963792 0.11353515
0.12011449 -0.060312286 0.18885897 -0.12912062 -0.027642563 -0.11760656 0.075798884 0.015129104
0.089570835 -0.21186112 -0.19077684 -0.12913951 0.2026019 0.16275667 -0.09978307 0.086327806
-0.069574 0.092821375 -0.1833332 -0.11448094 0.1298077 0.12367882 0.19946699 0.0050761253
0.21492882 -0.13031608 0.06424852 0.012872785 -0.1679467 -0.1099946 -0.10027608 0.07850833
0.3019408 0.118903905 -0.19691683 -0.014368037 0.1421518 -0.41460887 -0.2376043 -0.17625096
0.09968774 0.51959103 -0.056272 0.20816953 0.7511355 -0.65618277 -1.1665388 0.020641953
-0.33382612 0.15424158 -0.43743384 -0.09072859 0.7691907 -0.10377805 0.62353 -0.38630232
-1.3538744 -0.775087 -0.33467168 -0.2076244 -0.38602805 -0.7563059 0.5146201 -0.13579361
0.35635522 0.12976058 -0.15404543 -0.23163554 0.11521636 0.05208607 -0.012646407 -0.050410654
0.16861786 -0.2551198 -0.19383565 -0.10373682 -0.011994585 0.067524225 0.14783064 1.1059723
-0.75981754 -0.39230636 0.03205207 -0.088735044 0.0018897377 0.16886087 0.12245281 -0.5827999
-0.15936485 -0.044352345 -0.09176816 -0.063781425 -0.51327395 0.08621912 -0.05692627 -0.15026765
0.09366865 -0.015992692 0.123826936 0.6978308 -0.3853878 0.2455144 -0.5605093 0.017507479
0.056876197 -1.2017986 0.18207605 0.17844258 -1.878277 0.37952185 -0.47786844 -0.19988434
-0.47969842 0.16789363 -0.014208513 -0.25714314 -1.5648544 -0.42875153 -2.0329714 -0.1450362
-0.14073169 -0.2945383 0.10778425 0.17151965 0.21405065 0.4631664 0.533068 0.09137423
-1.6803986 -0.785355 0.8612815 -1.6531026 -0.16527742 -0.1564979 0.073879376 0.5312261
-1.0217685 0.14538918 0.41312757 -0.39060882 0.083308354 0.9008319 -0.07844455 -0.7296745
-0.5533169 -0.0122317495 -0.09018983 0.1280795 -0.9403346 0.071337774 -0.04547514 -0.14715233
0.34955385 0.38068506 -0.00965032 -0.21579166 0.4256165 0.06907733 0.1608443 -1.7398292
0.75050217 -0.0022832155 -0.077780694 0.20110175 -0.2496076 0.01101229 0.012682833 0.09111999
-0.09233179 0.14571899 -0.10195881 -0.17817834 -1.2474825 -0.12101726 -0.4746238 -0.045710832
-0.07042289 -0.08003268 0.07542158 -0.1009418 -0.6507595 -0.418897 -0.23281738 0.12532035
0.16423301 0.06303792 -0.083807655 0.70305157 -0.021189446 0.24877644 0.92838967 0.11003913
0.2039458 -0.12912533 0.8020929 0.14375964 0.031385332 0.12705745 0.11499472 0.019471942
0.1316506 -0.07426033 0.6602215 -0.32947683 0.15387107 0.63443714 -0.22911511 0.8134842
-0.63956183 -0.08496535 0.21644045 0.1576017 -0.02689496 -0.118149415 -0.17822488 -0.014889535
0.13865328 0.3527823 0.1131217 0.09296693 0.050290484 -0.15387374 0.18152577 -0.2810289

conv2.0.bias f4 [64]
00000000: 0000 0000 9ca7 c43b c72b bc3f bd67 bd3f
00000010: 313a c9bc 1f00 a73f 5133 fcbf d596 b33f
00000020: 74c7 14bd 2068 a63f 4f9d b13f 2a99 a53f
00000030: 35f9 bc3f d203 88bd 31e1 9e3f 7614 08bc
00000040: df20 a73f cee5 05bd d52e c23f b701 73bc
00000050: 42ef e3bf 0000 0000 57cc f7bf 3f03 a23f
00000060: 3719 c43f 0000 0000 0000 0000 19c1 01c0
00000070: 61ec a93f 91a3 9f3f 69da b83f ada2 833f
00000080: afc9 c43f 9749 a03f 75de b23f 9879 d23f
00000090: 6f2e a33f 6806 f4bc f7ce 00bd b1cf a13f
000000a0: beaa 9b3f 83ce e9bf cee8 fcbb 6dac 83bf
000000b0: 4f1a 983f 2b2b e8bf 4ef6 293f 6c39 ae3f
000000c0: e262 ac3f 7745 06bd f532 aa3f 46e9 7abc
000000d0: da6e ebbf ac09 bb3f 1022 cfbf 0d78 14bd
000000e0: 652f e4bf 1cbf 00bd 5216 a43f 5a4c e9bf
000000f0: e54a e8bf 06c1 8a3e c191 a73f 0000 0000
0.0 0.006001426 1.470086 1.4797283 -0.02456388 1.3046912 -1.970316 1.4030405
-0.036323026 1.3000526 1.3876132 1.2937367 1.4763552 -0.06641354 1.2412473 -0.0083056595
1.3056906 -0.032689862 1.5170542 -0.014831952 -1.7807391 0.0 -1.9359235 1.2657241
1.5320195 0.0 0.0 -2.0274107 1.3275262 1.2471792 1.4441653 1.028402
1.5374049 1.2522458 1.3974138 1.6443357 1.2748545 -0.029788211 -0.031447377 1.2641507
1.2161481 -1.8266147 -0.007718182 -1.0286995 1.1883029 -1.8138174 0.66391456 1.3611274
1.3467677 -0.03278109 1.3296801 -0.015314406 -1.8393204 1.4612327 -1.618227 -0.0362473
-1.7826964 -0.031432256 1.2819312 -1.8226426 -1.8147856 0.2710039 1.3091356 0.0

conv3.0.weight f4 [1, 64]
00000000: d0c0 563e c1ce b53f 1487 cc3f e1cc 763e
00000010: 4f7a f4bc 0cc0 923f c070 67bf ef07 ca3f
00000020: a6ec 6e3e 5872 6b3e 022b 0440 ec0c d13e
00000030: 741a c83f 2f39 22be 864b e83e b9e0 843e
00000040: 872a 413f 3ccc 81be 3a31 b63f 67b7 91bd
00000050: 479e 2fbf b0db b73d f397 3bbf 5588 f73f
00000060: 79f3 7a3f 0419 83be f8eb 863e ef96 80bf
00000070: 864c 9c3f 4297 043f 6692 d03e a2c4 e8bf
00000080: 7b74 db3f fd9a d93f de4f 523f 447e 4a3f
00000090: d1bc b53f c59d ad3d 02f7 813b dd0f cd3f
000000a0: c76f ec3e 5917 68bf c10e 943e e040 81bf
000000b0: 3598 9e3e 8cc7 46bf 2814 8abf e41b d03f
000000c0: ab88 d93f c63a babd 3344 c53e b9bb 0aba
000000d0: 71f8 4abf 22ae 6c3f 0ee2 9cbf bdb4 d7bc
000000e0: 1dfe 3fbf f8c6 333e 25c4 023f 6836 aebf
000000f0: 081b 84bf 8ef1 b0bf 446e 183f fe93 36be
0.2097199 1.4203721 1.5978723 0.24101593 -0.029843478 1.1464858 -0.9040642 1.5783671
0.23332462 0.22992837 2.065125 0.4083017 1.5633073 -0.15842126 0.4537012 0.259527
0.75455517 -0.2535113 1.4233773 -0.07115059 -0.6860089 0.08977449 -0.7327873 1.933848
0.9802776 -0.25605023 0.26351905 -1.0046061 1.2210853 0.517933 0.40736693 -1.8185008
1.7144922 1.7000424 0.8215312 0.79098916 1.4198247 0.08477358 0.003966213 1.6020466
0.4617903 -0.90660626 0.28917506 -1.0097923 0.309755 -0.77648234 -1.0787401 1.6258512
1.6994833 -0.090932414 0.38528594 -0.0005292255 -0.7928534 0.92453206 -1.2256486 -0.0263313
-0.7499712 0.1755637 0.5108054 -1.3610353 -1.0320749 -1.3823717 0.5954325 -0.17829892

exp_avg f4 [64, 4]
00000000: 27b7 dfbe 05a0 d53f d6e8 9ac1 37eb 13c2
00000010: 375a c6be 2074 37be 002e abbc 28f3 1ac1
00000020: 0000 0000 0000 0000 0000 0000 0000 0000
00000030: 4013 09c0 7be4 4bc1 d041 86c1 2f5f 4bc3
00000040: 13f1 be3f e580 5a41 a8ad b03f c2a2 1043
00000050: 2042 b7be d545 54c0 6a8f bac0 7df1 58c2
00000060: daeb acb8 53be 4abe d85a 003f 5b75 423f
00000070: 0000 0000 0000 0000 0000 0000 0000 0000
00000080: 0000 0000 0000 0000 0000 0000 0000 0000
00000090: b116 31bc a20e 10c1 9acd 76c1 3ab1 1ac2
000000a0: 0000 0000 0000 0000 0000 0000 0000 0000
000000b0: 0000 0000 0000 0000 0000 0000 0000 0000
000000c0: a1d6 edbc d831 54c0 2bec 8941 270d 3042
000000d0: c94c 3dbf 94a9 fdc0 8a6e 81c0 26b5 c9c2
000000e0: 0000 0000 0400 0080 9df3 58bc 7bc7 d6bb
000000f0: 0000 0000 0000 0000 0000 0000 0000 0000
00000100: 306c 983f dee2 8542 a13c c242 2e9c 6544
00000110: 0000 0000 0000 0000 0000 0000 0000 0000
00000120: 4be0 813e 6b9b 1c40 0a69 3640 625c 1442
00000130: 45b2 563f 53bf 4941 0ac3 2341 8c59 1843
00000140: ec03 20c1 23fe eac1 ed3e 53c2 19c9 2fc4
00000150: 10a4 3b40 1c31 9841 2635 c241 1a86 8743
00000160: 0458 4d3f 7047 dcc0 5cea 8c40 6692 0a41
00000170: 2003 d3bd 1b50 8240 c6cf 2640 6880 3141
00000180: de81 c83e bcbf 9a40 444b af40 b9e0 8442
00000190: ac1b 9a3e 84b6 a640 21ed 9140 ff3d 7642
000001a0: 9c22 25bf 92a8 2fc0 c093 9cc0 ae79 3ac2
000001b0: bec6 65c0 76b3 32c1 1e6b bbc1 15f4 8cc3
000001c0: 0405 d8be d065 08c0 ec74 9bbf efe7 1dc1
000001d0: cc2f a7bf 0c0f bc3f 389b 1041 70e9 0040
000001e0: 6aa9 16bf 5a0e 8040 3f87 94c1 f6d3 f6c1
000001f0: 0000 0000 0000 0000 0000 0000 0000 0000
00000200: 7279 0cbe aee7 0ac1 17e9 1b42 9c82 ca42
00000210: f16a 2f40 f42c 5e41 a030 be40 741e 4343
00000220: c786 77c0 d67c 0bc2 c601 58c2 774c 07c4
00000230: 9e34 1c41 36a2 2941 27c2 4dc2 b74e b342
00000240: 0000 0000 0000 0000 0000 0000 0000 0000
00000250: 0000 0000 0000 0000 0000 0000 0000 0000
00000260: 0000 0000 0400 0000 0400 0000 0400 0000
00000270: 2282 afbf 32b0 bbc0 eb6a 00c1 5acf d9c2
00000280: 32e2 933f 6c82 33c1 e271 f140 002c da3f
00000290: d75a 86be b98d 833f b82f 75bf 6013 14bf
000002a0: 0d7e 4bc0 bab5 37c1 5e7c 9cc1 61f6 81c3
000002b0: 91b1 4f3e 9baf 6441 b033 d041 1c93 7c43
000002c0: 0000 0000 0000 0000 0000 0000 0000 0000
000002d0: 5425 40c0 a8e5 6fc1 5882 9bc1 887d 83c3
000002e0: 6ffa db3e 0691 da40 0b17 3f40 a079 b242
000002f0: 61b6 1b3d 7ee7 963f 7010 6c40 9e47 8140
00000300: 0000 0000 0400 0000 bd5d 8d3e eef4 3e3e
00000310: 7a2b 703d fb5a 9e40 e0ef d840 de3e 8f42
00000320: 0000 0000 0000 0000 0000 0000 0000 0000
00000330: fd63 ebbe 1c3a 88c1 8925 9cc1 ec2c 6dc3
00000340: 7b78 e340 9464 c742 7cfa cd42 0ed1 9244
00000350: 0000 0000 0000 0000 0000 0000 0000 0000
00000360: 0000 0000 0000 0000 0000 0000 0000 0000
00000370: e791 72bc 1e98 6440 02a4 5e40 be02 0342
00000380: 9ec3 5dbf 7d28 d6c0 9a08 25c1 72d2 d2c2
00000390: 832f 69bf 0041 b5c0 58ff e8c0 92b0 cac2
000003a0: 0000 0000 0000 0000 0000 0000 0000 0000
000003b0: 0000 0000 0000 0000 0000 0000 0000 0000
000003c0: ab4a 2bbf b09e 41bf 3d1d 77c0 73fc 92c1
000003d0: 0000 0000 0000 0000 0000 0000 0000 0000
000003e0: 61c4 923b e79b 8b40 40fa e340 0e97 7e42
000003f0: 71ee 8640 4e1a c042 3c4c 9a42 40a0 9e44
-0.43694422 1.6689459 -19.36369 -36.979702 -0.38740703 -0.17915392 -0.020895958 -9.684364
0.0 0.0 0.0 0.0 -2.1418 -12.743281 -16.782135 -203.37181
1.491732 13.656468 1.3802996 144.63577 -0.35792637 -3.3167622 -5.8300066 -54.23583
-8.24553e-05 -0.19799165 0.50138617 0.7596032 0.0 0.0 0.0 0.0
0.0 0.0 0.0 0.0 -0.010808633 -9.003572 -15.425196 -38.673073
0.0 0.0 0.0 0.0 0.0 0.0 0.0 0.0
-0.029033007 -3.3155422 17.240316 44.012844 -0.7394529 -7.9269505 -4.0447435 -100.853806
0.0 -6e-45 -0.013241676 -0.0065545416 0.0 0.0 0.0 0.0
1.1908016 66.9431 97.118416 918.4403 0.0 0.0 0.0 0.0
0.25366434 2.446986 2.850161 37.090218 0.8386577 12.60921 10.235117 152.3498
-10.0009575 -29.37409 -52.81145 -703.14215 2.9318886 19.02398 24.275951 271.04767
0.80212426 -6.8837204 4.4036083 8.660742 -0.103033304 4.0722785 2.6064315 11.093849
0.3916158 4.835905 5.4779377 66.43891 0.30099237 5.2097797 4.5601964 61.560543
-0.64505935 -2.7446637 -4.893036 -46.618828 -3.5902553 -11.168814 -23.427303 -281.9069
-0.42191327 -2.1312141 -1.2145057 -9.869124 -1.3061461 1.4692092 9.037895 2.014248
-0.58852255 4.001752 -18.566038 -30.853497 0.0 0.0 0.0 0.0
-0.13718203 -8.681562 38.977627 101.2551 2.7409022 13.885975 5.9434357 195.11896
-3.8676012 -34.87191 -54.00173 -541.19476 9.762846 10.602102 -51.4396 89.65374
0.0 0.0 0.0 0.0 0.0 0.0 0.0 0.0
0.0 6e-45 6e-45 6e-45 -1.3711588 -5.865258 -8.026103 -108.90498
1.1553404 -11.219341 7.5451517 1.7044678 -0.2624118 1.0277625 -0.9577594 -0.57842064
-3.1795685 -11.481867 -19.560726 -259.92484 0.2028258 14.292872 26.025238 252.57465
0.0 0.0 0.0 0.0 -3.0022783 -14.993568 -19.438644 -262.9807
0.42964503 6.830203 2.9857814 89.23755 0.038015727 1.1789396 3.6885033 4.0399923
0.0 6e-45 0.2761058 0.18648121 0.058635212 4.948606 6.7792816 71.62279
0.0 0.0 0.0 0.0 -0.45974723 -17.028374 -19.518328 -237.17548
7.108457 99.69644 102.98923 1174.533 0.0 0.0 0.0 0.0
0.0 0.0 0.0 0.0 -0.014805294 3.5717845 3.4787602 32.752678
-0.86626613 -6.6924424 -10.3146 -105.411026 -0.9108812 -5.6641846 -7.28117 -101.344864
0.0 0.0 0.0 0.0 0.0 0.0 0.0 0.0
-0.6691081 -0.7563276 -3.8611596 -18.373266 0.0 0.0 0.0 0.0
0.0044789766 4.362781 7.124298 63.647514 4.2166066 96.05138 77.148895 1269.0078

exp_avg_sq f4 [64, 4]
00000000: ee0e 1940 ddb0 da41 f740 9945 59c3 8446
00000010: 9eb6 5140 ad9c be44 5775 2c45 c1ff 8048
00000020: 0000 0000 0000 0000 0000 0000 0000 0000
00000030: d6bf 1243 20e1 a647 c0f9 0a48 5db8 6b4b
00000040: 7547 8342 54a2 3747 0808 8c47 9957 014b
00000050: 379c e240 d355 9b45 dd1a 0146 3a6d 5c49
00000060: c2d2 7433 b59b a93e 37ed 893e f967 8d40
00000070: 0000 0000 0000 0000 0000 0000 0000 0000
00000080: 0000 0000 0000 0000 0000 0000 0000 0000
00000090: eea4 fc3a fe7a 1043 7283 9e45 b66c 7c46
000000a0: 0000 0000 0000 0000 0000 0000 0000 0000
000000b0: 0000 0000 0000 0000 0000 0000 0000 0000
000000c0: cc27 a23d 2c19 9542 34eb 7146 a4fb f846
000000d0: f8f7 2d42 0842 ec46 a4f7 4347 5652 ab4a
000000e0: 0000 0000 5672 0837 37de 9a41 4fe2 f140
000000f0: 0000 0000 0000 0000 0000 0000 0000 0000
00000100: d6f7 af42 7236 ac47 1f32 ea47 5c79 6d4b
00000110: 0000 0000 0000 0000 0000 0000 0000 0000
00000120: ef8f 8540 8094 2945 ee63 8c45 113e f248
00000130: d51c c641 4a29 9a46 4dd1 e846 e715 594a
00000140: 36c0 9143 69e3 d247 905c 3749 ac20 1d4c
00000150: 6aca 9843 5981 4348 ab94 9648 cda9 0f4c
00000160: bbb4 b040 217d 2d43 e388 1046 cd88 ff46
00000170: 9f96 2a3f ef4e 2b44 4206 9143 d6a4 1047
00000180: a578 0341 3f64 a445 ed54 0446 9692 6649
00000190: b083 b240 a05b 8645 191b cd45 63e2 3b49
000001a0: 4ffd 4441 1da0 c945 abfd 2c46 168b 8e49
000001b0: ebdb f243 c60a 8c48 dbb8 f548 0035 474c
000001c0: 6719 a440 c7c0 2645 cc09 9345 85f1 f048
000001d0: 51d6 1142 3f0f 8b46 1e78 f146 01ee 484a
000001e0: 0984 a640 fe6c 7342 19c4 2a46 9037 1a47
000001f0: 0000 0000 0000 0000 0000 0000 0000 0000
00000200: cc10 4b40 21c3 1646 0a7a 3047 a1cf 0e49
00000210: 5da6 1f43 f960 c547 a73a 2048 5d77 8b4b
00000220: fca6 1644 a2b5 bb48 66e3 1b49 5e9b 854c
00000230: 0d09 c243 dec8 f847 d61b 2548 3eef 774b
00000240: 0000 0000 0000 0000 0000 0000 0000 0000
00000250: 0000 0000 0000 0000 0000 0000 0000 0000
00000260: 0000 0000 23ff 822e 94e8 ea30 5c6e 7830
00000270: e02f 6042 a2ca f646 3221 4f47 8cd8 ad4a
00000280: d7c0 d241 79fc be45 d40c 1747 e015 4649
00000290: ba0c bd3f bb7f 1444 8ab1 9344 1aa4 ce47
000002a0: f508 af43 bdd8 4748 7c7c ac48 b0f0 0d4c
000002b0: f9c5 4443 f8cc 0048 b8a3 4d48 c5cc bc4b
000002c0: 0000 0000 0000 0000 0000 0000 0000 0000
000002d0: 3fce 8e43 13f0 2048 9141 8948 877e e44b
000002e0: 9e68 5c41 e526 3346 3e33 8846 65f1 fb49
000002f0: 1778 aa3c 154a 5f42 7a39 8645 7381 7a45
00000300: 0000 0000 a030 2b36 2e2d d941 d526 2941
00000310: 787b 2540 8a2c 2745 b09c 7b45 e2a6 e948
00000320: 0000 0000 0000 0000 0000 0000 0000 0000
00000330: a0f0 3941 2841 4146 b649 8846 3261 094a
00000340: c247 9743 724d 6248 3a5e 5048 f084 0c4c
00000350: 0000 0000 0000 0000 0000 0000 0000 0000
00000360: 0000 0000 0000 0000 0000 0000 0000 0000
00000370: b817 763e 5a48 1844 2b98 7a44 685a da47
00000380: 09c1 fd41 a13f 9946 a767 f946 1758 574a
00000390: 1968 1942 d377 cc46 6cd8 2e47 99cb 904a
000003a0: 0000 0000 0000 0000 0000 0000 0000 0000
000003b0: 0000 0000 0000 0000 0000 0000 0000 0000
000003c0: 80a3 3341 a937 9845 a9d7 1046 2810 5949
000003d0: 0000 0000 0000 0000 0000 0000 0000 0000
000003e0: f301 3c40 6c8e 3c45 c3a8 8c45 9588 0649
000003f0: 4299 6a44 b325 5a49 54c3 8449 bf66 0c4d
2.3915362 27.336359 4904.1206 16993.674 3.276771 1524.8961 2759.3337 264190.03
0.0 0.0 0.0 0.0 146.74936 85442.25 142311.0 1.5448157e+07
65.639565 47010.33 71696.06 8.476569e+06 7.081569 4970.728 8262.716 902867.6
5.700236e-08 0.33126608 0.26938793 4.418942 0.0 0.0 0.0 0.0
0.0 0.0 0.0 0.0 0.0019275227 144.48044 5072.4307 16155.178
0.0 0.0 0.0 0.0 0.0 0.0 0.0 0.0
0.07917747 74.549164 15482.801 31869.82 43.492157 30241.016 50167.64 5.613867e+06
0.0 8.132853e-06 19.358503 7.5588756 0.0 0.0 0.0 0.0
87.984055 88172.89 119908.24 1.55631e+07 0.0 0.0 0.0 0.0
4.17382 2713.2812 4492.491 496112.53 24.764078 19732.645 29800.65 3.5567298e+06
291.50165 107974.82 751049.0 4.1190064e+07 305.58136 200197.39 308389.34 3.7660468e+07
5.522062 173.48878 9250.222 32708.4 0.6663608 685.23334 290.0489 37028.836
8.216954 5260.531 8469.231 944425.4 5.578575 4299.453 6563.387 769574.2
12.311843 6452.014 11071.417 1.1677148e+06 485.7181 286806.2 503238.84 5.222093e+07
5.128101 2668.0486 4705.2246 493452.16 36.459293 17799.623 30908.059 3.2920322e+06
5.2036176 60.856438 10929.024 39479.562 0.0 0.0 0.0 0.0
3.1729002 9648.782 45178.04 584954.06 159.64986 101057.945 164074.61 1.8280122e+07
602.60913 384429.06 638518.4 7.00485e+07 388.0707 127377.734 169071.34 1.6248638e+07
0.0 0.0 0.0 0.0 0.0 0.0 0.0 0.0
0.0 5.957037e-11 1.7091843e-09 9.0378705e-10 56.046753 31589.316 53025.195 5.696582e+06
26.34416 6111.559 38668.83 811358.0 1.4769509 593.9958 1181.5481 105800.2
350.06998 204642.95 353251.88 3.720877e+07 196.77333 131891.88 210574.88 2.4746378e+07
0.0 0.0 0.0 0.0 285.6113 164800.3 281100.53 2.9949198e+07
13.775541 11465.724 17433.621 2.0639166e+06 0.020809216 55.822346 4295.1846 4008.0906
0.0 2.550929e-06 27.14706 10.57198 2.585661 2674.7837 4025.793 478519.06
0.0 0.0 0.0 0.0 11.621246 12368.289 17444.855 2.2508285e+06
302.5606 231733.78 213368.9 3.683629e+07 0.0 0.0 0.0 0.0
0.0 0.0 0.0 0.0 0.24032485 609.1305 1002.3776 111796.81
31.719255 19615.814 31923.826 3.5281978e+06 38.351658 26171.912 44760.42 4.7446525e+06
0.0 0.0 0.0 0.0 0.0 0.0 0.0 0.0
11.227417 4870.9575 9269.915 889090.5 0.0 0.0 0.0 0.0
2.937619 3016.9014 4501.095 551049.3 938.39465 893531.2 1.0875945e+06 1.4722149e+08

exp_avg f4 [64]
00000000: 380f f8c0 ff59 17bf 0000 0000 8257 4fc0
00000010: 2085 53be 254e 87bf d2a0 813f 0000 0000
00000020: 0000 0000 777b ab3f 0000 0000 0000 0000
00000030: d61d 7941 8837 04bf 00c6 9f3f 0000 0000
00000040: 2061 1d41 0000 0000 cc12 ef3d ef79 903f
00000050: 8eaf 2dc1 743a 373f 8d4a b440 2ad0 4f3e
00000060: c577 a33e 4dbf 8b3e 54a5 4ebf f2ba 9ec0
00000070: b08e 37bf 6042 553e 5e56 17c1 0000 0000
00000080: eaa7 7141 40ec 20bd 40b3 ffc0 5af2 9340
00000090: 0000 0000 0000 0000 0400 0000 b886 edbf
000000a0: 5aba b440 f909 2ebf c590 8bc0 5fdb 863f
000000b0: 0000 0000 1aa0 8cc0 a311 843e 943a 543e
000000c0: 4b5c db3f bff4 2b3f 0000 0000 89fd 1fc0
000000d0: 047d 4b41 0000 0000 0000 0000 1883 ce3e
000000e0: b44c dfbf c7c1 debf 0000 0000 0000 0000
000000f0: cbb4 81bf 0000 0000 ff67 383f b28d 4841
-7.7518578 -0.591217 0.0 -3.239716 -0.20656252 -1.0570723 1.0127203 0.0
0.0 1.3397053 0.0 0.0 15.569784 -0.51647234 1.24823 0.0
9.836212 0.0 0.11673507 1.1287211 -10.85536 0.7157357 5.6341004 0.20294252
0.31927314 0.27294388 -0.8072102 -4.9603205 -0.717021 0.20826101 -9.458586 0.0
15.103495 -0.039287806 -7.990631 4.623334 0.0 0.0 6e-45 -1.8556738
5.647748 -0.6798397 -4.361422 1.0535697 0.0 -4.3945436 0.25794706 0.20725471
1.713754 0.6717033 0.0 -2.4998496 12.718021 0.0 0.0 0.40334392
-1.7445283 -1.7402886 0.0 0.0 -1.0133299 0.0 0.72033685 12.534594

exp_avg_sq f4 [64]
00000000: 350a 8743 774a e341 0000 0000 0239 8944
00000010: 7c2f f643 fbe8 7642 c5ed d041 0000 0000
00000020: 0000 0000 9997 ad43 0000 0000 0000 0000
00000030: d227 bf44 e2fe ae43 5f7f c242 0000 0000
00000040: 2f1d 5344 0000 0000 4b0c fa41 5471 4a43
00000050: 700c 7645 93c3 0445 6e8e f143 483c 8140
00000060: 51fe 6c42 238c 3442 947b ad42 50c2 6e45
00000070: daec 2142 6782 7743 87be 1244 0000 0000
00000080: 9731 c844 5b00 8c44 4a47 9545 d66e 1345
00000090: 0000 0000 0000 0000 9ec7 e72d 7a4e cf43
000000a0: 0118 1644 7721 6b41 cbe2 2845 acaf b244
000000b0: 0000 0000 be2e 0845 cf05 eb42 8908 2d43
000000c0: 10ac 2e43 7190 d741 0000 0000 7a06 f442
000000d0: 51fc f244 0000 0000 0000 0000 52f3 d440
000000e0: b9e7 6e43 8cfe a343 0000 0000 0000 0000
000000f0: fb12 a642 0000 0000 cb97 f541 d454 fc45
270.07974 28.41136 0.0 1097.7815 492.37097 61.72752 26.116098 0.0
0.0 347.18436 0.0 0.0 1529.2444 349.99127 97.24877 0.0
844.456 0.0 31.256002 202.44269 3936.7773 2124.2234 483.11273 4.0386086
59.248356 45.136852 86.74136 3820.1445 40.4813 247.50938 586.977 0.0
1601.5497 1120.0111 4776.911 2358.9272 0.0 0.0 2.6350307e-11 414.6131
600.37506 14.69567 2702.1746 1429.4897 0.0 2178.9214 117.511345 173.03334
174.67212 26.945528 0.0 122.01265 1943.8849 0.0 0.0 6.654702
238.90517 327.98865 0.0 0.0 83.03707 0.0 30.699118 8074.6035

exp_avg f4 [64, 64]
00000000: 0000 0000 0000 0000 0000 0000 0000 0000
00000010: 0000 0000 0000 0000 0000 0000 0000 0000
00000020: 0000 0000 0000 0000 0000 0000 0000 0000
00000030: 0000 0000 0000 0000 0000 0000 0000 0000
00000040: 0000 0000 0000 0000 0000 0000 0000 0000
00000050: 0000 0000 0000 0000 0000 0000 0000 0000
00000060: 0000 0000 0000 0000 0000 0000 0000 0000
00000070: 0000 0000 0000 0000 0000 0000 0000 0000
00000080: 0000 0000 0000 0000 0000 0000 0000 0000
00000090: 0000 0000 0000 0000 0000 0000 0000 0000
000000a0: 0000 0000 0000 0000 0000 0000 0000 0000
000000b0: 0000 0000 0000 0000 0000 0000 0000 0000
000000c0: 0000 0000 0000 0000 0000 0000 0000 0000
000000d0: 0000 0000 0000 0000 0000 0000 0000 0000
000000e0: 0000 0000 0000 0000 0000 0000 0000 0000
000000f0: 0000 0000 0000 0000 0000 0000 0000 0000
00000100: 9271 3d3d 818b 453e 0000 0000 393b 573d
00000110: 0400 0000 67de 633d 0400 0080 0000 0000
00000120: 0000 0000 e71a 0e3e 0000 0000 0000 0000
00000130: 507e 023d 111d 053c d8b2 5638 0000 0000
00000140: 0400 0080 0000 0000 087d 2a3e 0400 0000
00000150: 98b2 373b 0400 0000 b322 463e 1d2c 933a
00000160: b71a 843c 4382 ba3a b9b3 dabb 6e9f 2e3e
00000170: 3d6e 893d 07c9 1f3a 5965 2d3d 0000 0000
00000180: 9618 293e 0400 0000 510a 003d 1d7d da3d
00000190: 0000 0000 0000 0000 0000 0000 fe78 193e
000001a0: 594a d53e 35e3 f23d a916 6d3d 0400 0000
000001b0: 0000 0000 b282 da3c 0400 0000 f829 893d
000001c0: dfaf 2238 ca70 233e 0000 0000 fe3c 083e
000001d0: 0400 0000 0000 0000 0000 0000 0e7e f239
000001e0: be30 a83d ede0 803e 0000 0000 0000 0000
000001f0: 4291 ea3c 0000 0000 ac26 f93d 0400 0080
00000200: 1b07 49bf 4042 1ac0 0000 0000 fe47 83bf
00000210: 14d9 d7bf e2f7 2cc0 8b2b e1bd 0000 0000
00000220: 0000 0000 cc10 babe 0000 0000 0000 0000
00000230: 7e60 d4be 2e22 9dbf fa9e 94bd 0000 0000
00000240: b69a 1cbe 0000 0000 c205 25c0 2431 a3bf
00000250: 191a b1be b59e 5fbf 13c3 31bf 42f5 24bd
00000260: a64b 20c0 68d9 97bf 8a86 80bf 3653 98bf
00000270: 8cb7 cdbf f647 99bf 5617 66bf 0000 0000
00000280: fa12 87be c5d7 90bf 1df0 34bf e3d0 00bf
00000290: 0000 0000 0000 0000 0000 0000 62d1 aabf
000002a0: 525f 3bbf 10b9 a8bf a839 89bf 4aa5 64bf
000002b0: 0000 0000 29b1 88bf 364d acbf 8aa3 0239
000002c0: 6bf5 d9bd 5f3d 29c0 0000 0000 58db 8bbf
000002d0: 7abd 72bf 0000 0000 0000 0000 60eb c0bd
000002e0: ea8c b0bf 88df 80bf 0000 0000 0000 0000
000002f0: 8aae 2ac0 0000 0000 9e1d d0bf 8faf 71be
00000300: b467 bbbd 700e 9dbc 0000 0000 ffe8 9cbd
00000310: 29b5 4cbe 6827 7abd 629f 1b3c 0000 0000
00000320: 0000 0000 a0a2 d03c 0000 0000 0000 0000
00000330: c51a 37bd 4060 f73a 924f 33bc 0000 0000
00000340: 5640 343c 0000 0000 70ab 063d 81c4 eebd
00000350: d0fc 4fbd f55d 06be 1801 67bc cc22 043e
00000360: 00b2 5dbc 38c6 d1bc ecf2 ecbd 5cf3 553e
00000370: 18c7 933d 07bf 0cbe 3ce1 ddbd 0000 0000
00000380: 3210 bc3e b516 06be 48c9 5dbd 70b2 b73e
00000390: 0000 0000 0000 0000 0400 0000 1044 a8bc
000003a0: 417a c63e f2ee f83d 8b71 45bd c6c7 09be
000003b0: 0000 0000 a29e d0bd 3707 2cbe acb2 753c
000003c0: b188 83bc 40e2 7e3d 0000 0000 735a 24bd
000003d0: 5c34 ae3c 0000 0000 0000 0000 2014 a23a
000003e0: 002b 2cbc 6242 703e 0000 0000 0000 0000
000003f0: 78df 3abd 0000 0000 3e13 c2bd 2781 883d
0.0 0.0 0.0 0.0 0.0 0.0 0.0 0.0
0.0 0.0 0.0 0.0 0.0 0.0 0.0 0.0
0.0 0.0 0.0 0.0 0.0 0.0 0.0 0.0
0.0 0.0 0.0 0.0 0.0 0.0 0.0 0.0
0.0 0.0 0.0 0.0 0.0 0.0 0.0 0.0
0.0 0.0 0.0 0.0 0.0 0.0 0.0 0.0
0.0 0.0 0.0 0.0 0.0 0.0 0.0 0.0
0.0 0.0 0.0 0.0 0.0 0.0 0.0 0.0
0.046250887 0.19291498 0.0 0.052546714 6e-45 0.05563202 -6e-45 0.0
0.0 0.1387745 0.0 0.0 0.031858742 0.008124606 5.1188137e-05 0.0
-6e-45 0.0 0.16649258 6e-45 0.0028030034 6e-45 0.19349174 0.0011228357
0.01612602 0.0014229495 -0.0066742566 0.17053005 0.067104794 0.0006095324 0.04233298 0.0
0.16513285 6e-45 0.03125984 0.10668395 0.0 0.0 0.0 0.14987561
0.41658285 0.118597426 0.05788294 6e-45 0.0 0.026673649 6e-45 0.06697458
3.8787603e-05 0.15960994 0.0 0.13304517 6e-45 0.0 0.0 0.00046251755
0.08212422 0.25171605 0.0 0.0 0.028633717 0.0 0.12165579 -6e-45
-0.7852647 -2.4102936 0.0 -1.0256345 -1.6863122 -2.7026296 -0.10994633 0.0
0.0 -0.3634094 0.0 0.0 -0.41479868 -1.2276056 -0.07256885 0.0
-0.15293393 0.0 -2.5784764 -1.2749372 -0.34590223 -0.8735154 -0.69438285 -0.04027296
-2.5046172 -1.1863222 -1.0041058 -1.1900394 -1.6071639 -1.1975086 -0.8987936 0.0
-0.26381665 -1.1315848 -0.70678884 -0.50318736 0.0 0.0 0.0 -1.3345149
-0.7319232 -1.3181477 -1.072072 -0.8931471 0.0 -1.0679065 -1.3461063 0.00012458689
-0.10642513 -2.6443708 0.0 -1.0926313 -0.9482037 0.0 0.0 -0.09419894
-1.3793004 -1.0068216 0.0 0.0 -2.666903 0.0 -1.6259038 -0.23602127
-0.09150639 -0.019171923 0.0 -0.07661628 -0.19990982 -0.061072737 0.009498449 0.0
0.0 0.02546817 0.0 0.0 -0.044703264 0.0018873289 -0.010944264 0.0
0.011001667 0.0 0.03287834 -0.11658574 -0.05077821 -0.1312178 -0.014099382 0.12903899
-0.013531208 -0.025607213 -0.11569771 0.20893615 0.072157085 -0.13744746 -0.10833976 0.0
0.36731106 -0.130946 -0.054147035 0.35878325 0.0 0.0 6e-45 -0.020540267
0.38765147 0.1215495 -0.048203986 -0.13455114 0.0 -0.10186507 -0.16799627 0.014996212
-0.01605639 0.062227488 0.0 -0.04012532 0.021265201 0.0 0.0 0.0012365617
-0.010508299 0.23462823 0.0 0.0 -0.045623273 0.0 -0.094763264 0.06665259

exp_avg_sq f4 [64, 64]
00000000: 0000 0000 0000 0000 0000 0000 0000 0000
00000010: 0000 0000 0000 0000 0000 0000 0000 0000
00000020: 0000 0000 0000 0000 0000 0000 0000 0000
00000030: 0000 0000 0000 0000 0000 0000 0000 0000
00000040: 0000 0000 0000 0000 0000 0000 0000 0000
00000050: 0000 0000 0000 0000 0000 0000 0000 0000
00000060: 0000 0000 0000 0000 0000 0000 0000 0000
00000070: 0000 0000 0000 0000 0000 0000 0000 0000
00000080: 0000 0000 0000 0000 0000 0000 0000 0000
00000090: 0000 0000 0000 0000 0000 0000 0000 0000
000000a0: 0000 0000 0000 0000 0000 0000 0000 0000
000000b0: 0000 0000 0000 0000 0000 0000 0000 0000
000000c0: 0000 0000 0000 0000 0000 0000 0000 0000
000000d0: 0000 0000 0000 0000 0000 0000 0000 0000
000000e0: 0000 0000 0000 0000 0000 0000 0000 0000
000000f0: 0000 0000 0000 0000 0000 0000 0000 0000
00000100: 70bc 693e 349d 523f 0000 0000 a6bd b03e
00000110: ab53 7a31 26f5 933e aa0c 3f35 0000 0000
00000120: 0000 0000 1bd8 c63e 0000 0000 0000 0000
00000130: 4d98 a63e 0954 043d 0388 a238 0000 0000
00000140: b6c4 5a37 0000 0000 d1e6 b73d 4a2a 6031
00000150: 4758 b939 907d 912d 6d6d 423f 72bf ab36
00000160: bd07 313a 9835 1038 c387 ef3d ecf8 343f
00000170: 4392 613e 75ea bc3a 814a 843e 0000 0000
00000180: 6592 a13e a01e a930 4361 823e 2f27 733d
00000190: 0000 0000 0000 0000 0000 0000 f099 3d3f
000001a0: ebf8 f33f 6e70 9c3e ea43 b53e 1732 1e2f
000001b0: 0000 0000 acff 8d3e 967a c331 b7cb 7a3d
000001c0: 0733 1938 ce82 993d 0000 0000 7adf 443f
000001d0: e528 2c32 0000 0000 0000 0000 c072 9b38
000001e0: 31bd f63e 062d 953f 0000 0000 0000 0000
000001f0: 5f36 1d3e 0000 0000 4a98 a73d 771e 3234
00000200: a658 b83f afa3 8845 0000 0000 4bde 9643
00000210: f35d 8744 5256 dc45 a9ed 343f 0000 0000
00000220: 0000 0000 8677 cf3f 0000 0000 0000 0000
00000230: b2df b83f c46b 1244 f393 b13e 0000 0000
00000240: 0a4c 5e41 0000 0000 df34 d145 025a dd43
00000250: 8a11 ca41 3c2d 6a43 33f5 1d40 f832 3d3f
00000260: 7345 d545 c895 4044 dbe0 2844 3cdd 4f43
00000270: b9d1 fa44 5ba1 0f44 e246 0040 0000 0000
00000280: 0ee6 8640 ddfc be43 b874 5b42 dc90 9641
00000290: 0000 0000 0000 0000 0000 0000 32c9 0244
000002a0: 7f19 1d42 c506 e644 8e24 d643 b50f d642
000002b0: 0000 0000 3cd5 d243 0171 4544 1160 1f3a
000002c0: b59e 3e3f 36ec ed45 0000 0000 8030 fd42
000002d0: 3f80 8e41 0000 0000 0000 0000 e9b3 dc41
000002e0: 12e1 4044 b74c b942 0000 0000 0000 0000
000002f0: 46e1 ec45 0000 0000 2f1d 1d45 6490 3441
00000300: a909 333d 18b4 d142 0000 0000 af28 e540
00000310: d44b d141 d4a4 2943 990e 8f3c 0000 0000
00000320: 0000 0000 25a3 843d 0000 0000 0000 0000
00000330: 657a 363d 2785 6b41 071e 063c 0000 0000
00000340: 79c3 ee3e 0000 0000 0ab1 2343 0fff 3141
00000350: 005a 183f 7404 b140 5138 df3d cc9f c43e
00000360: 4285 2743 3900 9c41 4d00 8041 d409 ba40
00000370: 19c8 4542 fb0d 5c41 7977 6b3d 0000 0000
00000380: 1019 833f 714a 1641 8e14 a83f 3c3b 1c40
00000390: 0000 0000 0000 0000 f10d 8829 0fd9 4741
000003a0: b69c ed3f 79ac 3542 dcf6 2241 56f2 2140
000003b0: 0000 0000 389e 1f41 b83d 9841 da76 2e3b
000003c0: d4f1 8f3c 6f8d 3a43 0000 0000 26ac 4440
000003d0: 4c65 973f 0000 0000 0000 0000 ffcb 3a3f
000003e0: 9310 9441 9f83 2f40 0000 0000 0000 0000
000003f0: e3d1 3643 0000 0000 a328 6e42 726f 273f
0.0 0.0 0.0 0.0 0.0 0.0 0.0 0.0
0.0 0.0 0.0 0.0 0.0 0.0 0.0 0.0
0.0 0.0 0.0 0.0 0.0 0.0 0.0 0.0
0.0 0.0 0.0 0.0 0.0 0.0 0.0 0.0
0.0 0.0 0.0 0.0 0.0 0.0 0.0 0.0
0.0 0.0 0.0 0.0 0.0 0.0 0.0 0.0
0.0 0.0 0.0 0.0 0.0 0.0 0.0 0.0
0.0 0.0 0.0 0.0 0.0 0.0 0.0 0.0
0.2282579 0.8227112 0.0 0.3451969 3.6427348e-09 0.2889797 7.1171473e-07 0.0
0.0 0.3883675 0.0 0.0 0.3253807 0.032306705 7.750096e-05 0.0
1.3039613e-05 0.0 0.089795716 3.2620329e-09 0.0003535172 1.6540352e-11 0.7594822 5.1184843e-06
0.0006753167 3.438219e-05 0.11695816 0.70692325 0.2202845 0.0014413135 0.25838092 0.0
0.31557003 1.2305073e-09 0.2546483 0.05936354 0.0 0.0 0.0 0.74063015
1.9060339 0.30554527 0.35403377 1.4387812e-10 0.0 0.27734125 5.6891833e-09 0.061229434
3.6525566e-05 0.07495652 0.0 0.769035 1.0021016e-08 0.0 0.0 7.41235e-05
0.48191217 1.1654365 0.0 0.0 0.15352772 0.0 0.08183344 1.6588625e-07
1.4402053 4372.4604 0.0 301.73666 1082.9359 7050.79 0.7067514 0.0
0.0 1.6208351 0.0 0.0 1.4443266 585.68384 0.3468319 0.0
13.893564 0.0 6694.609 442.7032 25.258564 234.1767 2.4680908 0.739059
6824.681 770.34033 675.51337 207.8642 2006.5538 574.5212 2.0043263 0.0
4.215583 381.9755 54.863983 18.820732 0.0 0.0 0.0 523.1437
39.2749 1840.2115 428.28558 107.03068 0.0 421.6659 789.7657 0.00060796837
0.7446092 7613.5264 0.0 126.59473 17.81262 0.0 0.0 27.587847
771.5167 92.64983 0.0 0.0 7580.159 0.0 2513.824 11.285252
0.043710385 104.851746 0.0 7.1612163 26.162025 169.64386 0.017463015 0.0
0.0 0.0647643 0.0 0.0 0.04455032 14.720008 0.00818587 0.0
0.4663351 0.0 163.69156 11.12477 0.5951233 5.5317936 0.108994134 0.38403165
167.52054 19.500109 16.000147 5.8136997 49.445408 13.753413 0.057486985 0.0
1.0242023 9.393174 1.3131273 2.4411154 0.0 0.0 6.042032e-14 12.490493
1.8563449 45.41843 10.185268 2.530416 0.0 9.976128 19.030136 0.0026621134
0.017571367 186.55247 0.0 3.073007 1.1827788 0.0 0.0 0.72967523
18.508093 2.7424085 0.0 0.0 182.81987 0.0 59.539684 0.6540443

exp_avg f4 [64]
00000000: 0000 0000 10e1 5c3d b27a ffbe 21b7 e83b
00000010: 0400 0000 fbda 83be 1a8f bb3e f0f0 aabe
00000020: 0400 0000 3d8a de3b 4790 bebe 3dde 22bc
00000030: d42e 10bf 0400 0000 3873 e33c 0400 0000
00000040: e8e7 33be 0400 0000 c090 6fbd 0400 0000
00000050: 2856 7a3e 0000 0000 0a03 903e 0d23 afbe
00000060: 94a8 81bd 0000 0000 0000 0000 04c7 cb3e
00000070: 8492 503a eadc 733c 29fc 403c e418 13bf
00000080: d9cb f5be cd45 f4bd b2c6 1fbe b598 3abd
00000090: 157a 7ebe 0400 0000 0400 0000 6b70 b3be
000000a0: 1acb 593c 5016 b63e 0400 0000 3dde b13e
000000b0: d2f5 123c a41a a73e f003 843e 12d8 adbd
000000c0: f715 9fbe 0400 0000 3834 fcbc 0400 0000
000000d0: 5efd 753e b624 28bd cab2 aa3e 0400 0000
000000e0: def4 2b3e 0400 0000 a759 703c 0829 b53e
000000f0: 3294 f53e 5862 0d3f 854b 10bd 0000 0000
0.0 0.053925574 -0.49898297 0.007101909 6e-45 -0.25753006 0.36632615 -0.33386946
6e-45 0.0067913816 -0.3721945 -0.009940681 -0.56321454 6e-45 0.027764902 6e-45
-0.17568934 6e-45 -0.058487654 6e-45 0.24446929 0.0 0.2812732 -0.3420643
-0.06330982 0.0 0.0 0.39800274 0.0007956403 0.014884213 0.01177887 -0.57459855
-0.48007086 -0.11927376 -0.1560314 -0.04555579 -0.24851258 6e-45 6e-45 -0.35046706
0.013293052 0.35563898 6e-45 0.34739867 0.008969741 0.32637513 0.25784254 -0.08488478
-0.31071445 6e-45 -0.030786619 6e-45 0.24022433 -0.041050635 0.3333953 6e-45
0.16792628 6e-45 0.014669812 0.35382867 0.47964627 0.55228186 -0.03522827 0.0

exp_avg_sq f4 [64]
00000000: 0000 0000 3b8d 143e 0a8b 9641 cc8f ee3e
00000010: 04aa ba32 0bd7 0e41 7eb6 3b40 c0ff 9341
00000020: 8a1d 9f32 d21a d13e ba76 ef41 5846 8e3f
00000030: e464 8041 67ee 5634 ce7a cf3f 4323 653a
00000040: 01cd 6340 a605 6b32 fbc6 6a41 1125 3b2a
00000050: a9ec ec3f 0000 0000 f42c 1240 08b0 d441
00000060: 0119 da40 0000 0000 0000 0000 1857 5a40
00000070: 2eda 2b41 d098 0740 db34 a43f 963f 5f41
00000080: 912d a241 a135 a841 4d89 9840 3884 8740
00000090: b380 6141 8b5d 5d2c f51b 562a 3358 8f41
000000a0: c951 d83f 2fa8 5940 098b 0a2b e184 5140
000000b0: 0bb9 3e3f 7188 1e40 60f0 ff3f 06f7 9941
000000c0: 863e ac41 92f3 b432 fbcb 7c3f e591 182e
000000d0: 5625 1f40 75b9 c940 6edd 0141 f1c6 532b
000000e0: 6c0f 1f40 0970 092e 0cf1 0440 843a 0341
000000f0: 5223 7240 0255 ca3f 137d 2240 0000 0000
0.0 0.14507 18.81789 0.46594083 2.1730564e-08 8.927501 2.9330134 18.499878
1.8523469e-08 0.40840775 29.932972 1.1115217 16.049263 2.0017033e-07 1.6209352 0.0008740911
3.5593874 1.3680085e-08 14.673579 1.6621796e-13 1.8509723 0.0 2.2839937 26.585953
6.815552 0.0 0.0 3.4115658 10.740767 2.118702 1.282863 13.953024
20.27225 21.026186 4.7667603 4.23489 14.093921 3.1457916e-12 1.9016718e-13 17.918066
1.6899959 3.40089 4.92204e-13 3.2737353 0.74501103 2.4770777 1.9995232 19.245617
21.530529 2.106552e-08 0.9874875 3.469038e-11 2.4866538 6.303889 8.11656 7.5238345e-13
2.4853163 3.12497e-11 2.0772123 8.201786 3.7834058 1.5807192 2.538884 0.0

exp_avg f4 [1, 64]
00000000: 0000 0000 1834 953d b46e f53e b6ac cb3f
00000010: 0400 0080 d307 493f d072 233f 0010 19b9
00000020: 0400 0000 8123 1c40 e485 123f a1a1 393e
00000030: d867 823e 0400 0080 245d 0e40 0400 0000
00000040: 1558 483f 0400 0080 568e 1c3f 0400 0080
00000050: 0a4c 603f 0000 0000 42f9 853f d066 543f
00000060: a451 833f 0000 0000 0000 0000 b5a8 3b3f
00000070: b5f4 723f 3eda e33f ac3d fe3f 54c0 6640
00000080: 879a dd3e a0b4 343f 1db7 0f3e 0740 4c3e
00000090: 7a30 fc3e 0400 0000 0400 0080 4392 123f
000000a0: 3ba3 0740 5ee9 aa3f 0400 0000 40cc 003e
000000b0: 4726 fa3f 9144 8c3f 76d7 08c0 da00 ae3e
000000c0: 333c a63e 0400 0080 4805 d33e 0400 0080
000000d0: a112 ad3f a7bd 793e d25d 32c0 0400 0000
000000e0: b64d af3f 0400 0000 416b fb3f fd33 2abe
000000f0: a4ec 8a3e 3b2f 85bf ebac 2f3e 0000 0000
0.0 0.07285327 0.47936022 1.5912082 -6e-45 0.78527564 0.63847065 -0.00014597178
6e-45 2.439667 0.5723555 0.18128063 0.25469851 -6e-45 2.2244349 6e-45
0.782594 -6e-45 0.6115469 -6e-45 0.87616026 0.0 1.0466692 0.8296938
1.025929 0.0 0.0 0.733043 0.94904643 1.7800977 1.9862571 3.6054888
0.43281958 0.7058811 0.14034696 0.199463 0.49255735 6e-45 -6e-45 0.5725443
2.1193378 1.3352468 6e-45 0.12577915 1.9542931 1.0958425 -2.1381507 0.33985025
0.32467803 -6e-45 0.41214967 -6e-45 1.352131 0.24388753 -2.7869763 6e-45
1.369559 6e-45 1.9642106 -0.16621394 0.27133667 -1.0405039 0.17155807 0.0

exp_avg_sq f4 [1, 64]
00000000: 0000 0000 a944 d53e ba1b 6d45 a0b0 9144
00000010: 8b39 1938 1963 be43 3ea8 dd42 1a4a e544
00000020: 226b d62e 93e5 6544 3eed 0144 3c30 6e43
00000030: 8895 f043 f395 4634 85e7 e243 1bd1 903d
00000040: 8717 5c43 7f88 7e34 fd1f e343 6c56 7127
00000050: 3d9f 1743 0000 0000 1adf 0643 54d7 c443
00000060: e6eb fa43 0000 0000 0000 0000 aed5 d942
00000070: 77ca d643 9727 a744 cd2e a644 53bd 1d44
00000080: 353e 8d44 4cad d143 34c2 0c44 0dd3 a643
00000090: 8c7f a343 25d0 d728 64fe 252c 06fc a343
000000a0: 9514 c744 01ad 3d43 f129 1429 84d3 0643
000000b0: 4915 1545 89a8 e642 865d 1743 cc02 bf43
000000c0: b700 7344 27d1 0335 a4ac 0444 0155 9a29
000000d0: ff90 f642 6777 1944 7eda 6144 9690 1a2d
000000e0: badd de42 1f3d ed27 74e3 0b45 f508 4e43
000000f0: 998a d742 1e64 bb41 fee8 a143 0000 0000
0.0 0.41653946 3793.733 1165.5195 3.6531634e-05 380.7742 110.8286 1834.3157
9.750624e-11 919.5871 519.7069 238.18842 481.1682 1.8494738e-07 453.80875 0.07071134
220.0919 2.370525e-07 454.2499 3.3492318e-15 151.62202 0.0 134.87149 393.68225
501.84296 0.0 0.0 108.91734 429.58176 1337.2372 1329.4625 630.9582
1129.944 419.35388 563.0344 333.64883 326.99646 2.3960063e-14 2.3589125e-12 327.96893
1592.6432 189.6758 3.289898e-14 134.82623 2385.3303 115.32917 151.36533 382.02185
972.01117 4.910566e-07 530.6975 6.8537197e-14 123.283195 613.86566 903.41394 8.785991e-12
111.43306 6.584698e-15 2238.2158 206.03499 107.7707 23.423885 323.82025 0.0
