1/trained_models/tetris_auto_7000.pt (torch, 61767 bytes, 15 tensors)

conv1.0.weight f4 [64, 4]
00000000: be2f 0d3c 1bfa 44bf 9134 7a3e c792 ddbd
00000010: eb04 b03d 4f86 81be ec21 ac3d 96f4 143e
00000020: f462 bebd cd1b 28be c38b 57be 409f f8bc
00000030: 5ce3 cd3c 01ae 91be 6a86 61bd 79bb 443d
00000040: e7f8 533d 4964 9ebd 31a3 16be 551f e63d
00000050: 3b33 3abe 2df9 36be 1ee7 60be d794 4d3e
00000060: cc6a 7b3e 0fe7 793e 3bd8 b8be c3a5 e0bd
00000070: e0e3 213e 185a f93d c081 d4bd 94b3 8cbe
00000080: 580b f1bd 344d 983d 8eb0 84bd 7b0d 67be
00000090: 8fb3 39bf dc33 a43e 25d2 943e e3dc 5abe
000000a0: a053 893e 2827 de3d 8095 a3bb 9cca 8fbe
000000b0: 58ed 17bd 90ef 4a3d 0a98 e1bd 0c08 5bbe
000000c0: 5f94 54be 7955 40bf c1d5 d23e df7e 9cbe
000000d0: 21dd 2f3f 0ce2 703e b4e4 babe e09b 4c3d
000000e0: 2c47 c43d a8b6 fd3d fc79 603e 8888 efbe
000000f0: 404c 49bd 8439 8c3d 705a 013e f173 8bbe
00000100: f338 923d e29c 183e ad67 9d3d 5504 713c
00000110: 8afa 353e d85b 0e3e a01c 303c 14a5 febd
00000120: f64a e5bd f4d9 a63a 6ad1 6d3e aef1 303e
00000130: 26e6 083e 5222 c13d 8456 09bd 77b7 7b3d
00000140: 3cc3 d0bd dcbe 39bf 9e41 493e 50cd 3e3d
00000150: b734 ae3e 3252 17bf 51cd 8dbe 798a ee3d
00000160: 1f60 c13f b29e b8bd 7bbf f53e f5e3 61be
00000170: 45ad 21bd 4612 e63e 6a0c 03be 9c59 1ebd
00000180: 7d02 89be 44f4 d73d f1c2 84bc 235f 413e
00000190: e505 0dbd 49a3 223e 7a7a 6d3d 066d 743d
000001a0: 3632 8fba da82 6dbe e093 22be 0e5c 9d3d
000001b0: 8e9a 443e 3af2 bc3e cb9d e33c 9159 8dbc
000001c0: 8e4f ca3d 4b3e 0f3e 59b8 f0bd 9dde b33d
000001d0: a538 933e b2ff 18bd 02b3 e8be 34db a73d
000001e0: 0f5b 163d 8dbc 52bf 504a 6d3e 4867 e1bd
000001f0: 6c17 553e 145a 963e 560a 02be d4a5 77be
00000200: b1a7 00bf 4da8 5b3f 3076 0c3e 83cb 1cbe
00000210: cf04 1a3d 5be8 933a ec1a 97bc 0698 7c3d
00000220: d43b 62bc 71d6 dbbd 1c44 d0bd 39eb 7b3c
00000230: cc5e 1cbd a053 703f f307 0a3d 36be 9ebd
00000240: eed8 dfbd 4007 863e 00df 92ba 0d5d 77be
00000250: 5854 633e f403 36be 5316 84be 4e72 a4bd
00000260: fc9a 773e f292 513e 44c1 db3d b050 71be
00000270: befb 003d 00dd 6fbe abc9 aa3d d2ce 333d
00000280: e59d 17bf 319d 073f 4570 0d3f 5bbc 07be
00000290: a605 cabe a648 f13d 7f04 6c3c c33a a43d
000002a0: c82d 54be d1aa fabd 4ca1 abbd 80b4 3b3d
000002b0: b1db 31bd 5ded b2be 915a 19bd 98f5 913d
000002c0: 7caa 75be 9855 34bd 4881 36bd ca49 96be
000002d0: 343e cbbc 4c23 dbbe a710 b0bd a960 8b3d
000002e0: ff28 28be 91ce b9bd 895b d5bd 6d38 c43d
000002f0: 5fc0 0c3f d6fe cc3e 87ae e23e f968 cdbe
00000300: f8f6 de3d a288 71bd baa2 203e 9cb9 e3be
00000310: 6f1f cabe 50e4 4e3d 3c8e 4c3e 22cc 3e3e
00000320: cf8b 93be 94cd 9dbd a070 053c e6c8 dcbd
00000330: fdd6 bfbd 0360 cabe 03bf a53d b7c8 aa3c
00000340: e114 87ba 900d 063f 949b 4ebe b071 28bb
00000350: bc3f 193e 5052 533d 7c37 c83d b840 89be
00000360: facb 1ebe 34fd 293e 5859 f43d cf6f 96be
00000370: 6ccf e0be 0b69 633d a9a7 d53d 6200 3e3a
00000380: 1f3f 16be 96f5 90bd 96ea b3bd 5868 643d
00000390: 2327 3ebe dc1e 893e ffc7 4d3e 72c4 1bbd
000003a0: 2e80 033e 28d7 2e3d 6de2 32be c0c0 87bd
000003b0: 2045 2c3e 0075 7a3e 3824 a53d 5721 88be
000003c0: 28c6 82be 51e5 05be 9a2d 86be 8336 583e
000003d0: d653 303e 60e7 50bc 692e 34be 24af aabd
000003e0: a7c1 89be b548 17bf 0882 973e 1b3a 103e
000003f0: 2697 6ebd e930 9d3e fd1e 873d 1e1b 5eba
0.00861734 -0.7694413 0.24434115 -0.10819011 0.08594688 -0.25297782 0.084049076 0.14546427
-0.092962176 -0.16416855 -0.21049409 -0.030349374 0.025132827 -0.28453067 -0.055059828 0.04803035
0.051751044 -0.077339716 -0.1471069 0.11236445 -0.18183605 -0.1786849 -0.21963164 0.20076309
0.24552459 0.24404548 -0.3610247 -0.109691165 0.15809584 0.12175387 -0.1037631 -0.27480757
-0.11769742 0.074366 -0.06478988 -0.22563736 -0.7253961 0.32070816 0.29066578 -0.21373324
0.26821613 0.10847312 -0.004992187 -0.28084266 -0.037091583 0.04954487 -0.11015327 -0.21389788
-0.20759724 -0.7513042 0.41178706 -0.30565545 0.6869679 0.2352373 -0.36502612 0.04995334
0.095838875 0.123883545 0.21921533 -0.46783853 -0.049144983 0.06846908 0.12632155 -0.27236894
0.071397685 0.14903596 0.0768579 0.0147105055 0.17771354 0.13902223 0.010749012 -0.1243383
-0.11195938 0.001272975 0.23224416 0.17279693 0.13369045 0.09430374 -0.033529773 0.061454263
-0.10193488 -0.72556853 0.19653937 0.04658252 0.34024593 -0.59109795 -0.27695706 0.11647505
1.5107459 -0.09014644 0.4799765 -0.22059615 -0.039471883 0.44935817 -0.12797704 -0.038659677
-0.2675971 0.10544637 -0.016206237 0.18883948 -0.03442945 0.15882601 0.05797813 0.059674285
-0.0010924998 -0.23194447 -0.15876722 0.07683574 0.19199583 0.36903554 0.027785202 -0.017254623
0.09878455 0.13988607 -0.117539115 0.087826945 0.28754154 -0.037353225 -0.45449072 0.081961066
0.036707934 -0.82318956 0.23172879 -0.110060275 0.20809716 0.293656 -0.12699255 -0.24184352
-0.50255877 0.8580368 0.1371696 -0.15312009 0.037602242 0.0011284457 -0.018445455 0.06166842
-0.013808209 -0.10734261 -0.10169241 0.015375906 -0.038176343 0.938776 0.033698987 -0.077511236
-0.10930048 0.26177406 -0.0011205375 -0.2415659 0.22200143 -0.17774945 -0.25798282 -0.080296144
0.24180216 0.20466211 0.10730222 -0.23565936 0.03149008 -0.23424149 0.08339246 0.04389841
-0.592253 0.5297423 0.55249435 -0.13255446 -0.39457434 0.11781435 0.014405369 0.080190204
-0.20720589 -0.12239612 -0.08380374 0.045826435 -0.043422405 -0.3494672 -0.037439886 0.071269214
-0.23990816 -0.04402694 -0.044556886 -0.29353172 -0.024809934 -0.42800367 -0.08596926 0.06805546
-0.16421889 -0.090726025 -0.104178496 0.09581075 0.54981035 0.40038174 0.4427378 -0.4011915
0.10886949 -0.058968194 0.15687075 -0.44477546 -0.39477107 0.050510705 0.19976133 0.18632558
-0.28817603 -0.077052265 0.008144528 -0.10780506 -0.09367178 -0.39526376 0.08093073 0.020847661
-0.0010305905 0.52364445 -0.20176536 -0.0025702529 0.14965719 0.05159217 0.09776208 -0.2680719
-0.15507498 0.16600496 0.119311035 -0.29382178 -0.4390825 0.0555201 0.10432369 0.0007247982
-0.14672516 -0.07078092 -0.08784978 0.055763572 -0.18569617 0.26781356 0.20095824 -0.03802914
0.12841865 0.042685658 -0.17469187 -0.06628561 0.16823244 0.24458694 0.08063549 -0.26587936
-0.25541806 -0.13075759 -0.26206666 0.21114545 0.17219481 -0.012750477 -0.17595829 -0.08334187
-0.26905558 -0.5909532 0.29591393 0.14084665 -0.058249615 0.30701378 0.065977074 -0.00084726687

conv1.0.bias f4 [64]
00000000: 1865 253f ccf8 963f 0000 0000 e391 d73f
00000010: 8ab0 23c0 4460 d43f aa99 473f 0000 0000
00000020: 0000 0000 980d 5d3f 0000 0000 0000 0000
00000030: 11ab 613f 8862 fa3f 55c6 0b3f 0000 0000
00000040: dc13 1bc0 0000 0000 5279 f7bf c410 0ec0
00000050: 8f91 0cc0 0df8 16c0 fb77 413f dad4 12bf
00000060: ea8b dbbf 7884 efbf 17e2 bc3f 364d fc3f
00000070: 9a4c b63f f624 d43f be1d 543f 0000 0000
00000080: a6ef 8f3f ead9 09c0 577c e93f b703 b43e
00000090: 0000 0000 0000 0000 946c 15bd 43de cc3f
000000a0: 40cf 4a3f f4b7 713f 810d eb3f f607 24c0
000000b0: 0000 0000 4fb0 d03f c686 0cc0 674e 7bbd
000000c0: 1ded 4c3f ac92 f5bf 0000 0000 6824 e13f
000000d0: c7c0 ebbf 0000 0000 0000 0000 d268 acbf
000000e0: d2f8 0240 0b71 da3f 0000 0000 0000 0000
000000f0: b834 ba3f 0000 0000 14d4 fbbf ccf6 25c0
0.6460738 1.1794677 0.0 1.6841396 -2.55765 1.6591878 0.7796885 0.0
0.0 0.8634887 0.0 0.0 0.8815165 1.9561319 0.54599506 0.0
-2.4230871 0.0 -1.9333899 -2.2197733 -2.1963842 -2.3588898 0.755737 -0.57356036
-1.7152073 -1.8712301 1.4756497 1.9711063 1.4242127 1.657378 0.8285788 0.0
1.124501 -2.1539254 1.824107 0.35159084 0.0 0.0 -0.0364805 1.6005329
0.7922249 0.94421315 1.8363496 -2.562986 0.0 1.6303805 -2.195726 -0.061354067
0.80049306 -1.9185386 0.0 1.7589235 -1.8418206 0.0 0.0 -1.3469489
2.0464368 1.7065748 0.0 0.0 1.4547338 0.0 -1.9674096 -2.5931883

conv2.0.weight f4 [64, 64]
00000000: f1aa 25be a1a2 bebd 9e89 42be f070 7abc
00000010: ecba 1cbd 4ef7 ce3d 0599 573e 90b3 ac3c
00000020: df85 493e 0249 43be 7af1 8fbd 4b8b 213e
00000030: 3894 54bd e947 5abe 8051 ad3b b53d d2bd
00000040: d67e 943d 8bca 383e 3c2e 1cbe 2696 9c3d
00000050: 503e dcbd 524b ba3d 7adb 1dbe c66e 10be
00000060: 6a28 bb3d 26d0 14be 0022 24ba e40e 01be
00000070: 29c4 003e eeef 21be 1694 b73d 1e85 e83d
00000080: 96fe f53d 040a 77bd 3f64 413e 3238 04be
00000090: a872 e2bc b5db f0bd 723c 9b3d 10e0 773c
000000a0: ea70 b73d 1ff2 58be 015b 43be 263d 04be
000000b0: df76 4f3e afa9 263e 115b ccbd a2cc b03d
000000c0: d07c 8ebd 2219 be3d b3bb 3bbe fc74 eabd
000000d0: 4fec 043e 524b fd3d 1341 4c3e a055 a63b
000000e0: 4d16 5c3e 9471 05be ba94 833d 60e8 523c
000000f0: 38fa 2bbe d944 e1bd 8c5d cdbd fac8 a03d
00000100: dc10 853e 3f62 fe3d 91a4 49be 9a4d 83bc
00000110: 3e90 113e e90f c3be 8b4e 73be 227b 34be
00000120: 1629 cc3d b9b3 f13e 787d 66bd 652a 553e
00000130: 2633 2b3f 5cfc 06bf e07d 6fbf 5019 a93c
00000140: 42eb aabe 81f1 1d3e 76bb afbe e9cf b9bd
00000150: 4f42 4b3f 9689 d4bd f4dd 133f 6d2a 12bd
00000160: e6e0 97bf 4c08 46bf 8316 a0be 01db 59be
00000170: 7262 bcbe ebb0 1dbf ebf6 f23e 7b0d 0bbe
00000180: 0666 aa3e f5df 043e 8d75 20be 9791 6abe
00000190: 8ef6 eb3d 3458 553d e032 4fbc 8b82 65bd
000001a0: 1529 193e fc49 7cbe ab27 45be f873 d4bd
000001b0: f084 44bc 0ec2 903d ea60 173e 3be1 743f
000001c0: 0dfb 09bf 4afd 8ebe 0849 033d fc94 cabd
000001d0: 13b1 f73a dde9 2c3e 8ac8 fa3d 9c09 1dbf
000001e0: bccf 20be 57c3 61bd f2f0 bbbd d69f 82bd
000001f0: b832 ebbe a693 b03d ac32 53bc c3df 19be
00000200: bad1 f63d d2b7 9cbc fa98 fd3d 5476 333f
00000210: b6d7 cabe c1d6 783e bbea 0ebf d86b 8f3c
00000220: 04f7 683d 9bda 94bf 2572 3a3e a7b9 363e
00000230: 36b9 e6bf 2ec1 c13e a0e4 f3be 7bae 4cbe
00000240: e41b b3be 4fec 2b3e 0eea aebc c6bf 8abe
00000250: 3aee c2bf e4d1 e2be 6d36 fdbf 0a5c 02be
00000260: c205 17be b6aa 9bbe 8197 e23d e36c 2f3e
00000270: ca3e 5a3e 9f5d e93e 4bb1 0d3f 6a22 bb3d
00000280: 0460 d2bf b2ef 4cbf ac84 603f f858 d9bf
00000290: 7c3e 29be fc40 20be 124e 973d 87b3 073f
000002a0: daba 83bf ebef 133e 7b74 d43e 667e d2be
000002b0: 929d aa3d ec62 673f 07e4 b7bd 220f 14bf
000002c0: 1321 0dbf 6f15 9bbc 72b5 b8bd d824 003e
000002d0: 79a1 5abf 8a19 923d 2444 3abd 6a92 0ebe
000002e0: 34ac b23e d502 c23e 601c 1ebc 7df8 5cbe
000002f0: 28cd d83e 6a78 8d3d 9a37 1a3e 65c1 c4bf
00000300: 54b1 373f c226 08bb 7c4b 9fbd f3e6 523e
00000310: 5895 88be f52b 453c 236b 5a3c 1e9d ba3d
00000320: 7318 bdbd 1a18 e33d c8cf d0bd 6274 36be
00000330: c4aa 9cbf 5266 f2bd 6b7f f0be 483b 3bbd
00000340: 9ae8 43bd 2ce8 a3bd 8ff8 833d 31e1 06be
00000350: 9418 1ebf a306 ddbe 89f0 83be 7bee 573d
00000360: 6fdd 1c3e b8f8 2c3d f5c9 a1bd 5e9e 343f
00000370: 964d a2bc 7a1b 7a3e 4a48 653f 325c e13d
00000380: be49 303e f8d6 22be e680 513f a86d ab3d
00000390: e88d 003d 591b 023e 5a82 eb3d f6f8 c43c
000003a0: 7371 af3d 7ef8 98bd c978 2b3f c090 b2be
000003b0: 6190 1d3e dc5d 233f 34f8 7bbe 97bf 2d3f
000003c0: 82dd 22bf 6f11 c4bd 91a2 5d3e b3c8 193e
000003d0: 4825 62bd 52f8 f1bd 9580 36be 703f 2bbd
000003e0: e1f5 173e 9fcf b43e 5aac e73d 7265 be3d
000003f0: 2770 503d 1491 1dbe 866f 2d3e 1f6d 81be
-0.1617849 -0.09308363 -0.1899781 -0.015285715 -0.0382642 0.101057634 0.21054466 0.021081716
0.19679974 -0.19070819 -0.0702848 0.15775792 -0.051899165 -0.21316494 0.0052892566 -0.10265676
0.072507545 0.18046014 -0.15252012 0.07645826 -0.10754073 0.090963975 -0.15415755 -0.14104757
0.09138568 -0.14532527 -0.000626117 -0.12603337 0.12574829 -0.15814182 0.08963792 0.11353515
0.12011449 -0.060312286 0.18885897 -0.12912062 -0.027642563 -0.11760656 0.075798884 0.015129104
0.089570835 -0.21186112 -0.19077684 -0.12913951 0.2026019 0.16275667 -0.09978307 0.086327806
-0.069574 0.092821375 -0.1833332 -0.11448094 0.1298077 0.12367882 0.19946699 0.0050761253
0.21492882 -0.13031608 0.06424852 0.012872785 -0.1679467 -0.1099946 -0.10027608 0.07850833
0.25989425 0.12421083 -0.19691683 -0.016028214 0.1421518 -0.38098076 -0.2376043 -0.17625096
0.09968774 0.4720743 -0.056272 0.20816953 0.6687492 -0.5272882 -0.93551445 0.020641953
-0.33382612 0.15424158 -0.3432271 -0.09072859 0.79398054 -0.10377805 0.5776055 -0.03568499
-1.1865509 -0.7735641 -0.31267175 -0.2127495 -0.36793858 -0.6159808 0.47454008 -0.13579361
0.33280963 0.12976058 -0.15669842 -0.229071 0.11521636 0.05208607 -0.012646407 -0.0560327
0.14957078 -0.24637598 -0.19253413 -0.10373682 -0.011994585 0.07068263 0.14783064 0.95656174
-0.538987 -0.2792762 0.03205207 -0.09891698 0.0018897377 0.16886087 0.12245281 -0.6134279
-0.15704244 -0.05511793 -0.09176816 -0.063781425 -0.45937133 0.08621912 -0.012890499 -0.15026765
0.12051721 -0.019130621 0.123826936 0.7010243 -0.396177 0.24300672 -0.5582692 0.017507479
0.056876197 -1.1629213 0.18207605 0.17844258 -1.8025272 0.37842697 -0.47635365 -0.19988434
-0.34982216 0.16789363 -0.02135184 -0.27099437 -1.5228951 -0.4430076 -1.9782234 -0.12730423
-0.1474829 -0.3040368 0.11064053 0.1713138 0.21313015 0.4557924 0.5534865 0.09137423
-1.6435552 -0.80053246 0.8770244 -1.6980276 -0.16527742 -0.1564979 0.073879376 0.5300831
-1.0291398 0.1444699 0.41495118 -0.4111206 0.083308354 0.9038532 -0.0897904 -0.5783559
-0.5512859 -0.018931119 -0.09018983 0.12514055 -0.8540264 0.071337774 -0.04547514 -0.1392304
0.34897006 0.37892786 -0.00965032 -0.21579166 0.42344022 0.06907733 0.15060273 -1.5371519
0.71754956 -0.0020775055 -0.077780694 0.20595913 -0.2667644 0.012034406 0.013331207 0.09111999
-0.09233179 0.110885814 -0.10195881 -0.17817834 -1.2239614 -0.11835922 -0.46972212 -0.045710832
-0.047829248 -0.08003268 0.06443893 -0.13171841 -0.61756253 -0.43169126 -0.2576945 0.052717667
0.15318845 0.042229384 -0.07899848 0.7055415 -0.019812386 0.24424544 0.8956343 0.11003913
0.1721563 -0.15902317 0.8183731 0.08370525 0.031385332 0.12705745 0.11499472 0.024044495
0.085665606 -0.07469271 0.6698118 -0.3487606 0.15387107 0.63815093 -0.246064 0.6787047
-0.63619244 -0.09573638 0.21644045 0.15017967 -0.055211335 -0.118149415 -0.17822488 -0.041808546
0.14839889 0.35314652 0.1131217 0.09296693 0.050888207 -0.15387374 0.16937074 -0.25278565

conv2.0.bias f4 [64]
00000000: 0000 0000 975a 20ba e45b b93f ced5 bd3f
00000010: 313a c9bc 8566 a53f 5820 edbf 9814 b13f
00000020: 74c7 14bd 49db a63f 4d11 ad3f d866 a33f
00000030: 5040 bb3f d203 88bd e2d0 9f3f 7614 08bc
00000040: c264 a53f cee5 05bd a85f c03f b701 73bc
00000050: 4fbd d8bf 0000 0000 7d55 eebf 19b9 a03f
00000060: db17 c23f 0000 0000 0000 0000 90e2 f2bf
00000070: 7a1d a83f 4bf3 9f3f 2731 b93f 7400 6a3f
00000080: 7287 c33f 78fc 9e3f 901c b03f 54bf cf3f
00000090: bf9b a13f 6806 f4bc f7ce 00bd 7ba2 a03f
000000a0: abfc 9b3f c756 dfbf cee8 fcbb ccd5 62bf
000000b0: 8072 983f fa95 ddbf 6b8f 313f c09b ac3f
000000c0: cb29 aa3f 7745 06bd 9106 a83f 46e9 7abc
000000d0: ed3d e0bf 18fe b83f 497b cabf 0d78 14bd
000000e0: 9774 dabf 1cbf 00bd 9d64 a43f bdd2 debf
000000f0: 0180 d9bf ed40 993e 89ad a53f 0000 0000
0.0 -0.00061170146 1.4481168 1.4830873 -0.02456388 1.2921911 -1.8525496 1.383441
-0.036323026 1.303567 1.3520905 1.276576 1.4629002 -0.06641354 1.2485621 -0.0083056595
1.2921374 -0.032689862 1.5029192 -0.014831952 -1.6932772 0.0 -1.8619839 1.2556487
1.516353 0.0 0.0 -1.8975391 1.3133996 1.2496122 1.4468125 0.9140694
1.527571 1.2420797 1.3758717 1.6230264 1.2625655 -0.029788211 -0.031447377 1.2549585
1.2186483 -1.7448357 -0.007718182 -0.8860748 1.1909943 -1.7311394 0.69359463 1.3485031
1.3294004 -0.03278109 1.3127004 -0.015314406 -1.7518898 1.4452543 -1.5818874 -0.0362473
-1.706683 -0.031432256 1.2843205 -1.7408062 -1.6992189 0.29932347 1.2943584 0.0

conv3.0.weight f4 [1, 64]
00000000: d0c0 563e 5a99 983f 14fa ca3f 6df9 803e
00000010: 4f7a f4bc a7ae 8c3f 4f4a 3bbf 641d c83f
00000020: a6ec 6e3e e017 723e 1885 0240 81a1 c43e
00000030: 08f4 c23f 2f39 22be c2d1 f13e b9e0 843e
00000040: c8d7 313f 3ccc 81be 967a b23f 67b7 91bd
00000050: d638 16bf b0db b73d 6d23 25bf def9 f13f
00000060: 3449 713f 0419 83be f8eb 863e fad5 4abf
00000070: 7580 983f 4c92 063f 9ac1 d13e 8b0d cdbf
00000080: 81f7 d93f 9d6a d53f 1775 4a3f f4b7 3f3f
00000090: 5209 b13f c59d ad3d 02f7 813b 8bbe c73f
000000a0: 04c8 f03e 3246 4bbf c10e 943e b3e6 50bf
000000b0: 3e1e 9f3e 048b 2dbf 8953 8bbf 4fb8 ca3f
000000c0: 2b5d d63f c63a babd 4b9a b63e b9bb 0aba
000000d0: 4c41 2ebf 7b11 673f 9ef6 9cbf bdb4 d7bc
000000e0: e3c3 2dbf f8c6 333e 5d07 053f 5931 a2bf
000000f0: 7989 57bf 4dc7 afbf 6133 143f fe93 36be
0.2097199 1.1921799 1.5857568 0.25190297 -0.029843478 1.09908 -0.7316026 1.5633969
0.23332462 0.2364192 2.0393734 0.38404468 1.5230722 -0.15842126 0.47230345 0.259527
0.6946988 -0.2535113 1.394366 -0.07115059 -0.58680475 0.08977449 -0.6450718 1.8904378
0.94252324 -0.25605023 0.26351905 -0.7923275 1.1914202 0.5256698 0.4096802 -1.6019758
1.7028657 1.6673161 0.79084915 0.74890065 1.3830969 0.08477358 0.003966213 1.5605024
0.470276 -0.79403985 0.28917506 -0.8160202 0.3107776 -0.67790246 -1.0884868 1.5837497
1.6747183 -0.090932414 0.3566459 -0.0005292255 -0.68068385 0.9026105 -1.2262762 -0.0263313
-0.67877024 0.1755637 0.5196436 -1.267131 -0.8419414 -1.3732697 0.578909 -0.17829892

exp_avg f4 [64, 4]
00000000: 98e2 87bd eaf2 d93f 5a8c be3f 1b87 ffbf
00000010: 8e36 8c3f f97f 15bf 4e54 7040 38f3 3b41
00000020: 0000 0000 0000 0000 0000 0000 0000 0000
00000030: e562 ed40 7c93 26c0 5fe6 8241 23d0 1842
00000040: 9fd7 a1c0 2490 1841 8f79 36c0 7fa3 1d42
00000050: 785e d93f 1c86 12c0 900e 513e 6a9d eac0
00000060: 0400 0000 b427 593d 782a e63b 4ab0 c43d
00000070: 0000 0000 0000 0000 0000 0000 0000 0000
00000080: 0000 0000 0000 0000 0000 0000 0000 0000
00000090: da19 32bc 8c37 1d3f 22d9 3641 2847 0842
000000a0: 0000 0000 0000 0000 0000 0000 0000 0000
000000b0: 0000 0000 0000 0000 0000 0000 0000 0000
000000c0: ece7 e9bc f4e8 a5c0 dc3d 1ac1 7136 7c41
000000d0: c0e9 8240 80c9 cfc0 de4a 7041 b067 b0c0
000000e0: 0000 0000 0400 0080 e0a2 643e 6a27 433e
000000f0: 0000 0000 0000 0000 0000 0000 0000 0000
00000100: b2d8 83c0 d4ef 4c41 4e3f 2fc1 08c9 2342
00000110: 0000 0000 0000 0000 0000 0000 0000 0000
00000120: 6246 9ebf 711b 1540 4899 ecbe 2e08 1041
00000130: d41b 4ac0 602b e940 ecbc 37c0 742b 1042
00000140: a9cc 26c1 4cf6 a1c1 19a6 e8c2 804c bbc4
00000150: da8e 11c1 435b b641 8cd2 32c1 7e38 9742
00000160: 052c 2b3e 3eac 0b3f 7780 0b41 1dcf cd41
00000170: d9ce 01bd 3480 efc0 d2e1 78c0 0037 4ec1
00000180: 1528 dfbf 308a 3140 3097 ecbf dceb 4040
00000190: da87 bfbf 3ea2 6840 8c53 333f 7bf8 9f41
000001a0: 00c3 0b40 26cd 9abf 6ead bf40 2723 7541
000001b0: 59de 5341 37f1 eec1 7a39 0a41 16aa aac2
000001c0: 7d51 b13f 4094 eebd b33d f13f 184d 8a40
000001d0: c7b2 6140 403a 88c0 89f3 9541 8d18 1942
000001e0: 3f56 89be dc95 0140 9c6c 63c0 cd23 76c1
000001f0: 0000 0000 0000 0000 0000 0000 0000 0000
00000200: b429 ef3d 2cf9 fac1 2699 d2c1 f426 12c3
00000210: d06b f5c0 59f3 7341 ba8b 14c1 38eb ef41
00000220: e6ee 7341 ac1e 7ec0 94fe 0e42 e659 3642
00000230: 710e 72c1 a120 bec2 87c0 14c3 3794 82c4
00000240: 0000 0000 0000 0000 0000 0000 0000 0000
00000250: 0000 0000 0000 0000 0000 0000 0000 0000
00000260: 0000 0000 0400 0000 0400 0000 0400 0000
00000270: 7341 9040 6743 25c0 b47d 1541 925e 8441
00000280: 83f4 8abf 2d40 f0c0 42a8 a2c1 9fd7 cac2
00000290: 98fe 353f 3a3c 3cbf d330 0140 132c 0c41
000002a0: 3545 3641 0989 23c1 2c31 9b41 68b1 01c1
000002b0: aaa2 dcc0 9c81 1941 886b bcc0 40f0 5442
000002c0: 0000 0000 0000 0000 0000 0000 0000 0000
000002d0: 085c 2741 e059 a5bf 2725 eb41 4801 8a42
000002e0: 5448 1fc0 cfc6 f040 9e0b 893f d7fd 1842
000002f0: a22d 0c3d a81d 8e40 95d8 0342 e2e9 1642
00000300: 0000 0000 0400 0000 6f45 57be 2249 bdbd
00000310: c0af 84bf c39b 6a40 e137 14bf dd89 b141
00000320: 0000 0000 0000 0000 0000 0000 0000 0000
00000330: be55 c73f c211 26c1 8c4a 883f c6bf c9c2
00000340: 05e2 cec0 de2d 7c42 b9c9 bb42 fec2 8244
00000350: 0000 0000 0000 0000 0000 0000 0000 0000
00000360: 0000 0000 0000 0000 0000 0000 0000 0000
00000370: c9f1 7a3d d1a1 8340 7e09 2c40 7d72 3342
00000380: 1b14 5e40 cfc9 7fc0 a9ba cc40 2ac8 1e41
00000390: 9599 7240 3c8b 26c1 0094 f53d 36f5 32c2
000003a0: 0000 0000 0000 0000 0000 0000 0000 0000
000003b0: 0000 0000 0000 0000 0000 0000 0000 0000
000003c0: d781 fb3f b35e 76bf 6f12 0e40 f06b 6241
000003d0: 0000 0000 0000 0000 0000 0000 0000 0000
000003e0: c4ea 8abf 6b78 4540 3ed1 2540 82c6 cc41
000003f0: 3442 71c1 1a63 b442 d0a7 b442 ce4d c144
-0.06635016 1.7027256 1.4886582 -1.9963106 1.0954149 -0.58398396 3.7551455 11.74688
0.0 0.0 0.0 0.0 7.418322 -2.6027517 16.362486 38.20326
-5.057571 9.535191 -2.8511693 39.409664 1.6981955 -2.2894354 0.20415711 -7.3317156
6e-45 0.05301638 0.0070241056 0.09603937 0.0 0.0 0.0 0.0
0.0 0.0 0.0 0.0 -0.010870421 0.6141288 11.428011 34.06949
0.0 0.0 0.0 0.0 0.0 0.0 0.0 0.0
-0.028552972 -5.1846867 -9.640102 15.763291 4.091034 -6.493347 15.018278 -5.512657
0.0 -6e-45 0.22327757 0.19058004 0.0 0.0 0.0 0.0
-4.120202 12.808552 -10.952955 40.94632 0.0 0.0 0.0 0.0
-1.2365229 2.3298 -0.46210694 9.001997 -3.1579485 7.286545 -2.8709059 36.042435
-10.424966 -20.245262 -116.32441 -1498.3906 -9.097376 22.794561 -11.176403 75.61034
0.16716011 0.54559696 8.7188635 25.72613 -0.031691406 -7.4844 -3.888783 -12.888428
-1.7434107 2.7740593 -1.8483639 3.0143957 -1.4963334 3.6349025 0.7004936 19.996328
2.1837769 -1.2093856 5.9899206 15.321082 13.241784 -29.86778 8.639032 -85.3322
1.3852993 -0.1164937 1.8846954 4.321911 3.5265367 -4.2571106 18.743914 38.273975
-0.26823613 2.0247717 -3.553504 -15.38374 0.0 0.0 0.0 0.0
0.11677876 -31.371666 -26.32478 -146.15216 -7.6694107 15.246911 -9.284113 29.989853
15.245825 -3.970622 35.74861 45.58779 -15.128526 -95.06373 -148.75206 -1044.6317
0.0 0.0 0.0 0.0 0.0 0.0 0.0 0.0
0.0 6e-45 6e-45 6e-45 4.5079894 -2.582239 9.343189 16.546177
-1.0855869 -7.507834 -20.332157 -101.421135 0.71091604 -0.735294 2.018605 8.76076
11.391896 -10.220956 19.39901 -8.105812 -6.8948565 9.594143 -5.8881264 53.23462
0.0 0.0 0.0 0.0 10.459969 -1.2918053 29.39314 69.0025
-2.4887896 7.5242686 1.070667 38.24789 0.034223206 4.44112 32.961506 37.7284
0.0 6e-45 -0.2102258 -0.092424646 -1.0366135 3.665757 -0.57897764 22.192316
0.0 0.0 0.0 0.0 1.5573041 -10.379335 1.064775 -100.87456
-6.4650903 63.044792 93.89399 1046.0935 0.0 0.0 0.0 0.0
0.0 0.0 0.0 0.0 0.06126574 4.113503 2.6880794 44.861805
3.4699771 -3.9966924 6.3977857 9.923868 3.790624 -10.408993 0.119911194 -44.739464
0.0 0.0 0.0 0.0 0.0 0.0 0.0 0.0
1.9648999 -0.9623825 2.219875 14.151352 0.0 0.0 0.0 0.0
-1.0852895 3.0854747 2.5908961 25.596928 -15.078663 90.19356 90.32776 1546.4314

exp_avg_sq f4 [64, 4]
00000000: 8f0f 0940 0d24 9e41 09d4 7145 dd40 5e46
00000010: ab14 2a40 2c23 8644 fc50 fa44 0b10 3748
00000020: 0000 0000 0000 0000 0000 0000 0000 0000
00000030: ed81 e542 5eb4 5a47 b217 bf47 cb4d 1d4b
00000040: 3564 4942 5b01 f346 b336 4447 c3e8 ae4a
00000050: 26d6 b040 ec5e 5345 9b36 b845 f13e 1949
00000060: d92b 0134 39b2 583e 0754 d23c 66ff a23f
00000070: 0000 0000 0000 0000 0000 0000 0000 0000
00000080: 0000 0000 0000 0000 0000 0000 0000 0000
00000090: 82a5 f73a 70ad c242 9a96 5545 78e4 2a46
000000a0: 0000 0000 0000 0000 0000 0000 0000 0000
000000b0: 0000 0000 0000 0000 0000 0000 0000 0000
000000c0: 953d 443e 4908 5942 8dc5 2e46 ce26 ba46
000000d0: 203f f841 d672 9446 e241 0147 cb44 5d4a
000000e0: 0000 0000 688a b937 1daa 2041 bd9d 7740
000000f0: 0000 0000 0000 0000 0000 0000 0000 0000
00000100: f656 da41 bad7 c446 7092 0d47 59a2 894a
00000110: 0000 0000 0000 0000 0000 0000 0000 0000
00000120: 2c0d 5d40 f4b0 ee44 b6f7 4d45 b7ba ad48
00000130: 77fe 9c41 c218 4c46 7b73 a546 5598 124a
00000140: 1b37 4243 324e 9447 bd12 0049 91e4 e04b
00000150: cc67 5c43 1ee0 fa47 7f43 4c48 7f95 bc4b
00000160: 69d5 ae40 b677 f842 89f8 d145 7a9e b946
00000170: 5179 d53e 7103 9443 a588 c042 ef10 8246
00000180: 6618 d440 33d0 6045 4941 bf45 2779 2049
00000190: 9ef1 9240 6725 3745 cf90 9445 828a 0149
000001a0: a775 2341 6a8a 8c45 d61d fe45 a7fc 4949
000001b0: 04d6 b543 604d 3548 f079 a348 603a 034c
000001c0: 14a8 8140 10ed e444 807e 4f45 4a9e a848
000001d0: e410 cb41 38da 2846 3884 9846 c64f f849
000001e0: 807e 9040 64e7 2e42 7054 0646 2597 fd46
000001f0: 0000 0000 0000 0000 0000 0000 0000 0000
00000200: efde cf3f f47a b645 b691 f246 2cf6 b348
00000210: bbbf 0043 4aea 8547 111b e547 c458 404b
00000220: d733 e543 f01f 7048 2810 d148 2564 2e4c
00000230: 1981 b243 c661 eb47 2d20 1248 e202 714b
00000240: 0000 0000 0000 0000 0000 0000 0000 0000
00000250: 0000 0000 0000 0000 0000 0000 0000 0000
00000260: 0000 0000 3d21 322f f0b6 9f31 a5e8 2831
00000270: 3571 2e42 b8a9 a046 75c4 0c47 3070 654a
00000280: 73b9 c841 df25 9e45 73c5 0047 08fd 2349
00000290: 88ce 9a3f 8687 d343 22ef 5044 95c1 9347
000002a0: 5f0e 8843 6f4d 0548 770f 6e48 8768 c04b
000002b0: 3061 0b43 bacb a147 cd3c 0948 d412 724b
000002c0: 0000 0000 0000 0000 0000 0000 0000 0000
000002d0: f15e 6143 a529 d647 a159 3f48 84df 9a4b
000002e0: 5bf7 2641 bceb e445 a23c 3946 4313 a449
000002f0: 984d 993c 3ab8 3b42 f70e 4345 a772 4145
00000300: 0000 0000 ebc8 e836 346f 7541 8bac bf40
00000310: 5e47 0340 d78c e744 1b57 3c45 7bcb a548
00000320: 0000 0000 0000 0000 0000 0000 0000 0000
00000330: 4cff ca40 907b b245 7c02 0646 4b6b 8049
00000340: ccca 0743 0c0b c547 3e78 a647 ea56 6c4b
00000350: 0000 0000 0000 0000 0000 0000 0000 0000
00000360: 0000 0000 0000 0000 0000 0000 0000 0000
00000370: 6747 c93e 9f50 a043 b6c3 0244 727a 6047
00000380: 3db7 c141 bd48 4846 1f86 aa46 ed5d 0f4a
00000390: 7516 cc41 d39c 6b46 5ac4 d046 3a8d 294a
000003a0: 0000 0000 0000 0000 0000 0000 0000 0000
000003b0: 0000 0000 0000 0000 0000 0000 0000 0000
000003c0: 2a25 1541 f9c9 5b45 76a1 d545 715d 1f49
000003d0: 0000 0000 0000 0000 0000 0000 0000 0000
000003e0: 6a38 0a40 24d8 fb44 cbe4 4545 3435 b748
000003f0: cda9 d343 cf1f cf48 d591 fc48 38e2 844c
2.1415746 19.767603 3869.2522 14224.216 2.6575115 1073.0991 2002.5308 187456.17
0.0 0.0 0.0 0.0 114.75376 55988.367 97839.39 1.0309067e+07
50.34786 31104.678 50230.7 5.7314255e+06 5.526141 3381.9326 5894.8257 627695.06
1.2030013e-07 0.21161737 0.025674833 1.2734191 0.0 0.0 0.0 0.0
0.0 0.0 0.0 0.0 0.001889393 97.338745 3417.4126 10937.117
0.0 0.0 0.0 0.0 0.0 0.0 0.0 0.0
0.19164117 54.25809 11185.388 23827.402 31.030823 19001.418 33089.883 3.6252668e+06
0.0 2.2118169e-05 10.041532 3.8690026 0.0 0.0 0.0 0.0
27.292461 25195.863 36242.438 4.5099965e+06 0.0 0.0 0.0 0.0
3.453929 1909.5298 3295.482 355797.72 19.62425 13062.189 21177.74 2.4018132e+06
194.21526 75932.39 524587.8 2.9477154e+07 220.40546 128448.234 209165.98 2.4718078e+07
5.463551 124.23381 6719.067 23759.238 0.4169412 296.0269 96.266884 16648.467
6.6279783 3597.0125 6120.1606 657298.44 4.5919943 2930.3376 4754.101 530600.1
10.216224 4497.302 8131.7295 827338.44 363.672 185653.5 334799.5 3.440064e+07
4.0517673 1831.4082 3319.9062 345330.3 25.383247 10806.555 19522.11 2.0341688e+06
4.515442 43.725967 8597.109 32459.572 0.0 0.0 0.0 0.0
1.6239909 5839.369 31048.855 368561.38 128.74895 68564.58 117302.13 1.2605636e+07
458.405 245887.75 428161.25 4.5715604e+07 357.00858 120515.55 149632.7 1.5794914e+07
0.0 0.0 0.0 0.0 0.0 0.0 0.0 0.0
0.0 1.6200814e-10 4.6483066e-09 2.457946e-09 43.610554 20564.86 36036.457 3.759116e+06
25.090551 5060.734 32965.45 671696.5 1.2094278 423.05878 835.73645 75651.164
272.11227 136501.73 243773.86 2.5219342e+07 139.37964 82839.45 140531.2 1.5864532e+07
0.0 0.0 0.0 0.0 225.37086 109651.29 195942.52 2.0299528e+07
10.4353895 7325.467 11855.158 1.3441044e+06 0.018713757 46.92991 3120.9353 3095.1658
0.0 6.9375287e-06 15.339649 5.9898124 2.051231 1852.4012 3013.444 339547.84
0.0 0.0 0.0 0.0 6.343664 5711.4453 8576.621 1.0520094e+06
135.79218 100886.09 85232.484 1.5488746e+07 0.0 0.0 0.0 0.0
0.0 0.0 0.0 0.0 0.39312288 320.62985 523.058 57466.445
24.214472 12818.185 21827.06 2.3489232e+06 25.510965 15079.206 26722.176 2.7779345e+06
0.0 0.0 0.0 0.0 0.0 0.0 0.0 0.0
9.321573 3516.6233 6836.1826 652759.06 0.0 0.0 0.0 0.0
2.1596932 2014.7544 3166.2996 375209.62 423.32657 424190.47 517262.66 6.966931e+07

exp_avg f4 [64]
00000000: 7653 2fc0 b494 49be 0000 0000 bacc d7bf
00000010: ad51 8e3f 326a 41bf 4524 393f 0000 0000
00000020: 0000 0000 5d23 6040 0000 0000 0000 0000
00000030: 4cdf 9240 a7dc aabe 8a84 b93f 0000 0000
00000040: fe17 f13f 0000 0000 a879 5b3e 6eee 413f
00000050: d9ad 0ec1 d895 d13f 2c76 4740 2038 293e
00000060: 4ef2 a03d 42d8 cf3e 86de eabe 92e9 87c0
00000070: 089d 28bf ccdd 88be bebc 8fc0 0000 0000
00000080: 30f9 8740 e553 723f 13a4 7ec0 19b3 26c1
00000090: 0000 0000 0000 0000 0400 0000 9a2a 7fbf
000000a0: b6e3 6d40 ceea a4be 98f1 3ac0 81b4 1340
000000b0: 0000 0000 694b 15c0 fb43 2d3f 7b1d 0341
000000c0: 53e2 ed3f e0e1 4e3e 0000 0000 4d64 94bf
000000d0: c484 4941 0000 0000 0000 0000 334c 1d3f
000000e0: 9e27 60bf 7643 b8bf 0000 0000 0000 0000
000000f0: 25ab 33bf 0000 0000 eaf0 ff3e 27b4 9541
-2.739469 -0.19685632 0.0 -1.6859353 1.1118675 -0.75552666 0.7232097 0.0
0.0 3.5021584 0.0 0.0 4.589758 -0.3337147 1.4493573 0.0
1.8835447 0.0 0.21433127 0.7575444 -8.917443 1.6373854 3.1165876 0.16525316
0.07858716 0.4059468 -0.45872897 -4.247262 -0.6586461 -0.26731718 -4.49179 0.0
4.2491684 0.9465926 -3.9787643 -10.418725 0.0 0.0 6e-45 -0.9967438
3.7170234 -0.32210392 -2.9209957 2.307892 0.0 -2.3327277 0.67681855 8.194697
1.8584694 0.20203352 0.0 -1.1593109 12.5949135 0.0 0.0 0.61444396
-0.8756045 -1.4395587 0.0 0.0 -0.7018302 0.0 0.4998849 18.712965

exp_avg_sq f4 [64]
00000000: 499b 5143 8514 b241 0000 0000 3da0 4444
00000010: 70bf aa43 3661 3542 9558 a041 0000 0000
00000020: 0000 0000 23df 8143 0000 0000 0000 0000
00000030: 63fa 8f44 fcaf 6543 5e01 9242 0000 0000
00000040: 945d 7643 0000 0000 681b b741 b889 0e43
00000050: 4cbd 2745 8f08 b244 6f65 bc43 e000 bd3f
00000060: ffbf 2a42 9965 0242 26cd 8342 f0ac 2245
00000070: b61b ee41 264b 1d43 6ad3 e643 0000 0000
00000080: 5cd5 9644 c890 4744 8df8 4f45 8726 0545
00000090: 0000 0000 0000 0000 5896 9d2e 502a 9343
000000a0: 198e ff43 4b23 3141 837e f044 4d58 6a44
000000b0: 0000 0000 5bb5 c544 855b 9e42 e665 0643
000000c0: a282 0343 3ef5 9c41 0000 0000 01d2 6d42
000000d0: 2662 4c44 0000 0000 0000 0000 91aa 7240
000000e0: a188 2743 5fea 4743 0000 0000 0000 0000
000000f0: 76ea 7d42 0000 0000 7529 aa41 300a 7045
209.60658 22.26002 0.0 786.5037 341.4956 45.344933 20.043253 0.0
0.0 259.74326 0.0 0.0 1151.8246 229.68744 73.00267 0.0
246.36554 0.0 22.888382 142.53796 2683.831 1424.2675 376.79245 1.4765892
42.687496 32.599216 65.90068 2602.8086 29.76353 157.29355 461.65167 0.0
1206.6675 798.2622 3327.5344 2130.408 0.0 0.0 7.16624e-11 294.33057
511.11014 11.071116 1923.9535 937.3797 0.0 1581.6674 79.17875 134.39804
131.51028 19.619747 0.0 59.455082 817.53357 0.0 0.0 3.7916605
167.5337 199.91551 0.0 0.0 63.478966 0.0 21.270243 3840.6367

exp_avg f4 [64, 64]
00000000: 0000 0000 0000 0000 0000 0000 0000 0000
00000010: 0000 0000 0000 0000 0000 0000 0000 0000
00000020: 0000 0000 0000 0000 0000 0000 0000 0000
00000030: 0000 0000 0000 0000 0000 0000 0000 0000
00000040: 0000 0000 0000 0000 0000 0000 0000 0000
00000050: 0000 0000 0000 0000 0000 0000 0000 0000
00000060: 0000 0000 0000 0000 0000 0000 0000 0000
00000070: 0000 0000 0000 0000 0000 0000 0000 0000
00000080: 0000 0000 0000 0000 0000 0000 0000 0000
00000090: 0000 0000 0000 0000 0000 0000 0000 0000
000000a0: 0000 0000 0000 0000 0000 0000 0000 0000
000000b0: 0000 0000 0000 0000 0000 0000 0000 0000
000000c0: 0000 0000 0000 0000 0000 0000 0000 0000
000000d0: 0000 0000 0000 0000 0000 0000 0000 0000
000000e0: 0000 0000 0000 0000 0000 0000 0000 0000
000000f0: 0000 0000 0000 0000 0000 0000 0000 0000
00000100: 97bd 233e 61a2 c13e 0000 0000 ae50 813e
00000110: 0400 0000 f0da 843e 0400 0080 0000 0000
00000120: 0000 0000 e411 573e 0000 0000 0000 0000
00000130: ce9a 213e f8f5 ca3d bf9b 563a 0000 0000
00000140: 0400 0080 0000 0000 2783 a73d 0400 0000
00000150: b2a0 c23a 0400 0000 d6ac a13e 0400 0000
00000160: 2131 d23b 4053 023a 5f83 283e 9505 b53e
00000170: c44f 663e f366 c93c fa3d 323e 0000 0000
00000180: f20c 5c3e 0400 0000 0929 603e 774b a43d
00000190: 0000 0000 0000 0000 0000 0000 791e b53e
000001a0: a6cb 003f 3688 7d3e b256 863e 0400 0000
000001b0: 0000 0000 8b1d 6a3e 0400 0000 2c03 f73c
000001c0: 84bb fc39 e33e a73d 0000 0000 ce4d b03e
000001d0: 0400 0000 0000 0000 0000 0000 a885 0cba
000001e0: fdab 9c3e fe15 db3e 0000 0000 0000 0000
000001f0: f3ba 503e 0000 0000 dd2d 483d fc8d aaa3
00000200: df21 a6be 23ca aa3e 0000 0000 9243 84be
00000210: a0c5 723d 200d 9cbd 2d4f f5bd 0000 0000
00000220: 0000 0000 4537 16be 0000 0000 0000 0000
00000230: e82e 7fbd 1e5f 37be f4ff abbd 0000 0000
00000240: ae80 3e3e 0000 0000 d33f 3a3f 302a a73d
00000250: ee6c be3f 4688 db3e b76c abbe e459 8ebb
00000260: d0ca c53e 20e8 893d f3d7 33be 8a22 f3be
00000270: 0ca6 85bd e0fc 08bf 3360 c8be 0000 0000
00000280: d766 81be c0a3 c53c e52f fabe 110f 933f
00000290: 0000 0000 0000 0000 0000 0000 bc43 32be
000002a0: 34df b6be edbf 95be 466b 14bf 3d49 9fbd
000002b0: 0000 0000 3123 5cbe 8098 17be dcfc 923c
000002c0: 7dd4 fbbd d045 fb3e 0000 0000 0c09 79be
000002d0: a9ea 673f 0000 0000 0000 0000 c5b6 1b3e
000002e0: b285 14bf 7efc 2cbf 0000 0000 0000 0000
000002f0: 20d0 8fbd 0000 0000 a5e2 e93e bc85 093f
00000300: 49c0 c9bc f8d4 86bb 0000 0000 80c5 f93c
00000310: fb82 f5bd 5000 0cbe 70be 9fbc 0000 0000
00000320: 0000 0000 8c01 c93c 0000 0000 0000 0000
00000330: 4072 4e3c 898a 12be ab5d 57bc 0000 0000
00000340: f9c3 6abe 0000 0000 9fab e6be 85d0 7abe
00000350: 3dab 723e 7a7e 8a3d b833 033d 87a1 9abe
00000360: d9bd 06bf a695 b1be 0064 113d 244f 9bbe
00000370: fa9c 6fbe 5e8a 82bd 9790 09bd 0000 0000
00000380: 0864 01bf a2c5 27be ac6d 85bc ea81 09bf
00000390: 0000 0000 0000 0000 0400 0000 52f9 903d
000003a0: cc92 dabe fe3a 9bbe d0e8 8b3b 8411 4cbc
000003b0: 0000 0000 0465 9f3c 4843 f5bd c28d 683c
000003c0: 9ee6 9ebc 7620 0ebf 0000 0000 f85e c03c
000003d0: 57d6 9fbe 0000 0000 0000 0000 3c5a d6bd
000003e0: ac8c 8cbc fea2 87be 0000 0000 0000 0000
000003f0: 80f1 4fbe 0000 0000 741d 86bc 0922 96be
0.0 0.0 0.0 0.0 0.0 0.0 0.0 0.0
0.0 0.0 0.0 0.0 0.0 0.0 0.0 0.0
0.0 0.0 0.0 0.0 0.0 0.0 0.0 0.0
0.0 0.0 0.0 0.0 0.0 0.0 0.0 0.0
0.0 0.0 0.0 0.0 0.0 0.0 0.0 0.0
0.0 0.0 0.0 0.0 0.0 0.0 0.0 0.0
0.0 0.0 0.0 0.0 0.0 0.0 0.0 0.0
0.0 0.0 0.0 0.0 0.0 0.0 0.0 0.0
0.15990292 0.37819198 0.0 0.25256866 6e-45 0.25948286 -6e-45 0.0
0.0 0.21002918 0.0 0.0 0.1578171 0.09910196 0.000818666 0.0
-6e-45 0.0 0.08179312 6e-45 0.0014848916 6e-45 0.31577176 6e-45
0.006414548 0.00049715117 0.16456364 0.3535582 0.22491366 0.024585223 0.17406455 0.0
0.21489313 6e-45 0.21890654 0.08022206 0.0 0.0 0.0 0.3537481
0.5031074 0.24758992 0.26238018 6e-45 0.0 0.22862832 6e-45 0.03015288
0.00048204896 0.081662916 0.0 0.3443436 6e-45 0.0 0.0 -0.00053604925
0.30599967 0.42790216 0.0 0.0 0.20383815 0.0 0.048871864 -1.849157e-17
-0.32447717 0.33357343 0.0 -0.25832802 0.0592705 -0.07619691 -0.11977992 0.0
0.0 -0.14669521 0.0 0.0 -0.062300593 -0.17907378 -0.083984286 0.0
0.18603775 0.0 0.7275364 0.081623435 1.4876993 0.42877406 -0.3348138 -0.004344212
0.38631296 0.067337275 -0.17562847 -0.4748729 -0.065258116 -0.53510857 -0.39135894 0.0
-0.25273773 0.024125934 -0.48864666 1.1488973 0.0 0.0 0.0 -0.17408651
-0.35717165 -0.2924799 -0.57976186 -0.07777641 0.0 -0.214978 -0.14804268 0.017942838
-0.12296388 0.490767 0.0 -0.24319857 0.9059244 0.0 0.0 0.1520644
-0.580165 -0.6757277 0.0 0.0 -0.070221186 0.0 0.4568073 0.5371969
-0.024627822 -0.0041147433 0.0 0.030489683 -0.11987873 -0.13671994 -0.019499987 0.0
0.0 0.02453687 0.0 0.0 0.0126004815 -0.1431066 -0.013144891 0.0
-0.2292632 0.0 -0.45052812 -0.24493606 0.23698135 0.06762405 0.032031745 -0.3020136
-0.52633435 -0.34684485 0.035495758 -0.30333817 -0.23399726 -0.06374048 -0.033585157 0.0
-0.5054326 -0.16383985 -0.016287647 -0.5371386 0.0 0.0 6e-45 0.07078804
-0.42690122 -0.30318445 0.004269697 -0.012455348 0.0 0.019457348 -0.119757235 0.014193954
-0.019397076 -0.5551828 0.0 0.023482785 -0.31218216 0.0 0.0 -0.104664296
-0.017156921 -0.2649154 0.0 0.0 -0.20306969 0.0 -0.016371466 -0.29322842

exp_avg_sq f4 [64, 64]
00000000: 0000 0000 0000 0000 0000 0000 0000 0000
00000010: 0000 0000 0000 0000 0000 0000 0000 0000
00000020: 0000 0000 0000 0000 0000 0000 0000 0000
00000030: 0000 0000 0000 0000 0000 0000 0000 0000
00000040: 0000 0000 0000 0000 0000 0000 0000 0000
00000050: 0000 0000 0000 0000 0000 0000 0000 0000
00000060: 0000 0000 0000 0000 0000 0000 0000 0000
00000070: 0000 0000 0000 0000 0000 0000 0000 0000
00000080: 0000 0000 0000 0000 0000 0000 0000 0000
00000090: 0000 0000 0000 0000 0000 0000 0000 0000
000000a0: 0000 0000 0000 0000 0000 0000 0000 0000
000000b0: 0000 0000 0000 0000 0000 0000 0000 0000
000000c0: 0000 0000 0000 0000 0000 0000 0000 0000
000000d0: 0000 0000 0000 0000 0000 0000 0000 0000
000000e0: 0000 0000 0000 0000 0000 0000 0000 0000
000000f0: 0000 0000 0000 0000 0000 0000 0000 0000
00000100: 0832 153e ded6 093f 0000 0000 b581 693e
00000110: ad32 2a32 ec46 473e 26e5 0136 0000 0000
00000120: 0000 0000 c5dc 603e 0000 0000 0000 0000
00000130: 5c77 4a3e af92 ca3c fa2e 1938 0000 0000
00000140: b5bd 1438 0000 0000 96f5 943d 1169 1832
00000150: 23d8 9139 a2d6 452e b7ed ea3e bf8a 4d31
00000160: 96b0 583a e2e5 ac38 2649 b83d ea28 de3e
00000170: bb2c 1d3e 59a5 c73a bb94 273e 0000 0000
00000180: b9fd 603e 26f8 6531 979e 263e 177a 113d
00000190: 0000 0000 0000 0000 0000 0000 2447 f53e
000001a0: 5881 963f 56b4 633e 6756 723e 6f1d d72f
000001b0: 0000 0000 0b69 3c3e 15e8 8432 9da6 093d
000001c0: 9b8d ac37 fcb6 663d 0000 0000 7ab5 eb3e
000001d0: 731a ea32 0000 0000 0000 0000 4adf 3539
000001e0: 607e a13e ddc4 363f 0000 0000 0000 0000
000001f0: 987c d73d 0000 0000 afd1 793d e234 f234
00000200: 0088 983f 5c9d 6845 0000 0000 1f47 7943
00000210: f460 2e44 6dab ad45 aa9d 123f 0000 0000
00000220: 0000 0000 90c5 a03f 0000 0000 0000 0000
00000230: 3fbb 913f cd2a d743 ec1b 903e 0000 0000
00000240: d82a a041 0000 0000 4202 b145 0d3f 9a43
00000250: c218 a941 c41a 2143 a1c7 f93f a756 263f
00000260: b340 aa45 7242 3644 41e3 1244 a10a 0443
00000270: fab8 ca44 f457 d843 c5dd d33f 0000 0000
00000280: 9dd5 6b40 45bb 8b43 9fec 2642 ff09 9441
00000290: 0000 0000 0000 0000 0000 0000 ba92 d543
000002a0: 97ce 0b42 a0f6 d544 314b aa43 1e7e af42
000002b0: 0000 0000 e145 a543 e5b3 1c44 3e0c 193a
000002c0: 5beb 193f 2af4 c145 0000 0000 f254 c042
000002d0: d37d 6141 0000 0000 0000 0000 bb9a 8642
000002e0: 2af6 1444 9640 9042 0000 0000 0000 0000
000002f0: 6930 b245 0000 0000 d36f 0e45 8010 2541
00000300: a546 1d3d 20e0 b442 0000 0000 5376 be40
00000310: 8168 8a41 6952 0843 aadb 653c 0000 0000
00000320: 0000 0000 225c 513d 0000 0000 0000 0000
00000330: 3f18 193d aff7 3241 68f1 dd3b 0000 0000
00000340: ec3e 143f 0000 0000 4948 0d43 f2b5 ff40
00000350: 8c90 013f f0ac 7840 8740 ba3d 7a36 793e
00000360: 81f6 0843 9d66 9641 14a7 6141 971b 7640
00000370: f4f9 2242 a7dd 2841 7c74 4d3d 0000 0000
00000380: b49f 3f3f 20b1 e240 ffdd 7f3f 537c 1540
00000390: 0000 0000 0000 0000 ea01 392a 5272 2341
000003a0: 8726 d03f aeec 2a42 72de 0241 ebd4 0640
000003b0: 0000 0000 c5c6 fc40 7d01 7741 ec71 103b
000003c0: c5d8 6c3c 2327 1b43 0000 0000 f1ad 1340
000003d0: b514 7d3f 0000 0000 0000 0000 4652 dd3f
000003e0: f68d 6741 c62f 0a40 0000 0000 0000 0000
000003f0: 6951 0c43 0000 0000 3e11 5a42 c104 193f
0.0 0.0 0.0 0.0 0.0 0.0 0.0 0.0
0.0 0.0 0.0 0.0 0.0 0.0 0.0 0.0
0.0 0.0 0.0 0.0 0.0 0.0 0.0 0.0
0.0 0.0 0.0 0.0 0.0 0.0 0.0 0.0
0.0 0.0 0.0 0.0 0.0 0.0 0.0 0.0
0.0 0.0 0.0 0.0 0.0 0.0 0.0 0.0
0.0 0.0 0.0 0.0 0.0 0.0 0.0 0.0
0.0 0.0 0.0 0.0 0.0 0.0 0.0 0.0
0.14569867 0.53843486 0.0 0.22803386 9.906825e-09 0.19460648 1.935588e-06 0.0
0.0 0.21959217 0.0 0.0 0.19772094 0.024728147 3.6521793e-05 0.0
3.5462628e-05 0.0 0.07273404 8.871454e-09 0.0002781759 4.4983246e-11 0.45884487 2.9910294e-09
0.00082660594 8.244418e-05 0.08998327 0.4339059 0.15349095 0.0015231773 0.1636533 0.0
0.21971788 3.3464942e-09 0.16271435 0.035516825 0.0 0.0 0.0 0.47905838
1.1758223 0.22236761 0.23665772 3.9129186e-10 0.0 0.18399446 1.5472361e-08 0.03360616
2.0569938e-05 0.05632685 0.0 0.46036893 2.7253213e-08 0.0 0.0 0.00017344687
0.3154173 0.7139414 0.0 0.0 0.10521811 0.0 0.060990985 4.511449e-07
1.1916504 3721.835 0.0 249.27782 697.5149 5557.428 0.57271826 0.0
0.0 1.2560291 0.0 0.0 1.1385268 430.33438 0.28146303 0.0
20.02092 0.0 5664.282 308.49258 21.137089 161.10455 1.9514047 0.6497597
5448.0874 729.0382 587.55084 132.04152 1621.7805 432.68713 1.6552054 0.0
3.684913 279.46304 41.731075 18.50488 0.0 0.0 0.0 427.1463
34.951748 1711.707 340.58743 87.74632 0.0 330.54593 626.81085 0.0005838311
0.6012475 6206.5205 0.0 96.16591 14.093219 0.0 0.0 67.30221
595.8463 72.126144 0.0 0.0 5702.0513 0.0 2278.989 10.316528
0.03839745 90.437744 0.0 5.951944 17.301027 136.32191 0.014029423 0.0
0.0 0.051113255 0.0 0.0 0.03737664 11.18547 0.0067731626 0.0
0.5790851 0.0 141.28236 7.99096 0.50611186 3.8855553 0.09094339 0.24337187
136.9629 18.800104 14.103291 3.845434 40.744095 10.554114 0.050159916 0.0
0.7485306 7.0841217 0.99948114 2.3357131 0.0 0.0 1.6431965e-13 10.21541
1.6261758 42.731133 8.179308 2.1067455 0.0 7.899264 15.437863 0.002204056
0.014455979 155.15288 0.0 2.3074915 0.9885972 0.0 0.0 1.7290733
14.472158 2.1591659 0.0 0.0 140.31801 0.0 54.516838 0.5977288

exp_avg f4 [64]
00000000: 0000 0000 13c9 253e 41e2 c7be 184a 29bc
00000010: 0400 0000 a243 24be 320c 263e 766c 94be
00000020: 0400 0000 9076 1cbc 6cca 03bf f813 753c
00000030: a894 d5be 0400 0000 4097 a8bb 0400 0000
00000040: 754e 0fbe 0400 0000 54cd 923d 0400 0000
00000050: fcef 3c3d 0000 0000 66e9 943c e62a 70be
00000060: df3f 00be 0000 0000 0000 0000 d5fe 653e
00000070: a051 04bc 8086 b9bc 3402 8fbc edce d5be
00000080: 737b 9cbe c210 4bbe 6e84 16be fc9d 70bd
00000090: 8842 bcbd 0400 0000 0400 0000 5e1f 23be
000000a0: ac9a a5bc bcf0 d13b 0400 0000 3248 183e
000000b0: 285f 59bc d16d 9ebd 5227 3e3e a2b7 38be
000000c0: 9dde 97be 0400 0000 9423 52bd 0400 0000
000000d0: 15ed 05bd 30d2 c0bd f875 0a3e 0400 0000
000000e0: 9476 853d 0400 0000 f009 b8bc 8ddc 643f
000000f0: 78e6 d53d 1448 243e 0ac2 b9bd 0000 0000
0.0 0.16189985 -0.39039806 -0.010332607 6e-45 -0.16041425 0.1621559 -0.28989
6e-45 -0.009549752 -0.51480746 0.014958374 -0.41714978 6e-45 -0.0051449835 6e-45
-0.13994773 6e-45 0.071680695 6e-45 0.046127304 0.0 0.0181777 -0.23453864
-0.12524365 0.0 0.0 0.22460492 -0.008076102 -0.022647142 -0.017457105 -0.41759434
-0.30562934 -0.19830611 -0.14698955 -0.058744416 -0.09192377 6e-45 6e-45 -0.15929934
-0.020215355 0.0064068716 6e-45 0.1487129 -0.013267316 -0.077357896 0.18569687 -0.180388
-0.29662028 6e-45 -0.05130346 6e-45 -0.032696802 -0.0941509 0.13521564 6e-45
0.065167576 6e-45 -0.022465676 0.89399034 0.10444349 0.1604312 -0.09070213 0.0

exp_avg_sq f4 [64]
00000000: 0000 0000 d047 c93d 0d1a 6f41 569b bb3e
00000010: 94d3 7d33 2730 c340 3f9b c73f 4e05 6541
00000020: a35d 5833 d9b1 9a3e 19a8 b341 120c 2d3f
00000030: b4af 3641 d221 1235 5e55 a03f 9dca 1b3b
00000040: bad6 0540 b9ca 1f33 50f1 2c41 ec7a fe2a
00000050: 29e4 823f 0000 0000 e70f b13f 24b3 9d41
00000060: 1a23 9440 0000 0000 0000 0000 9f2f d33f
00000070: 6cae f640 7830 d63f 08d1 7a3f 2a8f 1141
00000080: 5adf 7b41 4193 7941 f3bb 5340 8e76 2b40
00000090: d875 2341 b481 162d c792 112b bac7 5241
000000a0: 1fcd aa3f b3dd 0040 2a64 bc2b 04f6 b23f
000000b0: 024d 133f 88a4 be3f d3e9 f03f c179 5f41
000000c0: c404 8341 f10e 7633 afe7 153f 1e77 cf2e
000000d0: a523 b73f 70b5 9040 a6ab c340 cefc 0f2c
000000e0: 64de cd3f 5ee3 ba2e d8ac d43f 6d7a af40
000000f0: bd56 0040 fbcc bd3f fff1 dc3f 0000 0000
0.0 0.0982815 14.94386 0.3664195 5.9098582e-08 6.099628 1.5594252 14.313795
5.037658e-08 0.30213812 22.457079 0.6759654 11.417896 5.4438453e-07 1.2526052 0.002377189
2.0912309 3.7204448e-08 10.808914 4.5204758e-13 1.0225879 0.0 1.3832978 19.712471
4.629285 0.0 0.0 1.6498908 7.7087917 1.6733541 0.97975206 9.097452
15.742029 15.598451 3.3083465 2.679111 10.21627 8.555313e-12 5.1718043e-13 13.173761
1.3343848 2.0135314 1.3386005e-12 1.3981328 0.5753938 1.4893961 1.8821357 13.967225
16.377327 5.7289927e-08 0.58556646 9.4344296e-11 1.4307753 4.522148 6.114703 2.0461857e-12
1.6083493 8.498689e-11 1.6615248 5.4836946 2.005294 1.482818 1.7261351 0.0

exp_avg f4 [1, 64]
00000000: 0000 0000 f617 1fbd 4895 89c0 8b39 f7bf
00000010: 0400 0080 a12f 86c0 36d5 ae3e b996 80c0
00000020: 0400 0000 64a2 48c0 addb 83c0 20b0 dcbf
00000030: 448f 77c0 0400 0080 96ac 27c0 0400 0000
00000040: 5400 66c0 0400 0080 9043 4bc0 0400 0080
00000050: 5ec4 10c0 0000 0000 0ed2 38bf c303 89c0
00000060: b0fc 40c0 0000 0000 0000 0000 c10e 693f
00000070: a278 3dc0 c037 07c0 d0f6 2ec0 7bc7 0540
00000080: ba53 79c0 5ba8 6cc0 00fa 60c0 c8e7 5fc0
00000090: 2c71 6fc0 0400 0000 0400 0080 b871 73c0
000000a0: 1cc2 27c0 31fe 13c0 0400 0000 9c6a 8e3f
000000b0: 7ac0 21c0 34d8 84bf 01e9 8abf 8744 63c0
000000c0: bdd0 7ec0 0400 0080 e643 1dc0 0400 0080
000000d0: 940b cbbf 0fc7 3dc0 da34 ab3f 0400 0000
000000e0: 5efa c5bf 0400 0000 ded5 01c0 d262 3140
000000f0: 32fd ab3e d9ce 24bf da7b 0bc0 0000 0000
0.0 -0.03884121 -4.299473 -1.9314436 -6e-45 -4.193314 0.34147042 -4.018399
6e-45 -3.1349115 -4.120566 -1.7241249 -3.8681192 -6e-45 -2.6199088 6e-45
-3.59377 -6e-45 -3.1759987 -6e-45 -2.2619853 0.0 -0.7219552 -4.281709
-3.0154228 0.0 0.0 0.9103814 -2.9604878 -2.1127777 -2.7338142 2.0903003
-3.8957353 -3.6977756 -3.5152588 -3.4985218 -3.7412825 6e-45 -6e-45 -3.8038158
-2.6212225 -2.3123896 6e-45 1.1126285 -2.5273728 -1.037848 -1.0852357 -3.5510576
-3.9814904 -6e-45 -2.4572692 -6e-45 -1.5862908 -2.9652746 1.3375504 6e-45
-1.5467031 6e-45 -2.0286784 2.7716565 0.3359161 -0.64378124 -2.1794343 0.0

exp_avg_sq f4 [1, 64]
00000000: 0000 0000 771f 873e 5d18 3745 224b 4c44
00000010: 0a5b d038 5d01 9443 f136 e242 9f01 ac44
00000020: 96c8 912f 4ee6 1544 551c ae43 5413 4243
00000030: 6b7c 9643 d604 0735 8dff 9943 12ec 443e
00000040: 0f57 2a43 b40e 2d35 6c5f af43 ed15 2428
00000050: 3bde ff42 0000 0000 9450 0b43 2fce 9c43
00000060: d323 c843 0000 0000 0000 0000 6238 c342
00000070: bbce ab43 b69a 6944 bab3 5c44 4919 cd43
00000080: 0b99 3144 36da b043 e687 ff43 a9eb 7243
00000090: 2e40 7d43 5fbb 9229 ffb7 e12c 064d 8043
000000a0: 5288 9044 bc7a 1d43 5479 c929 c8cf a342
000000b0: 78ab de44 3290 e442 359f 2043 afe8 9a43
000000c0: 0f42 5444 b73e b335 21f9 d243 7ddc 512a
000000d0: fd98 e842 f281 0444 a02d 5144 8b2d d22d
000000e0: 4abe db42 874c a128 6585 c044 5e27 4843
000000f0: 4750 a842 8d4c c841 aa44 8243 0000 0000
0.0 0.26391193 2929.5227 817.17395 9.93517e-05 296.01065 113.10731 1376.0507
2.651787e-10 599.5985 348.22134 194.0755 300.97202 5.0298456e-07 307.9965 0.19230679
170.34007 6.446892e-07 350.74548 9.108583e-15 127.934044 0.0 139.31476 313.6108
400.27988 0.0 0.0 97.61012 343.61508 934.41736 882.8082 410.19754
710.3913 353.70477 511.0617 242.92055 253.2507 6.516206e-14 6.4153123e-12 256.60175
1156.26 157.47943 8.94724e-14 81.90582 1781.3584 114.28163 160.6219 309.81784
849.03217 1.3354792e-06 421.94632 1.8639426e-13 116.298805 530.0304 836.7129 2.3894461e-11
109.87166 1.7907779e-14 1540.1686 200.15378 84.15679 25.037378 260.53644 0.0
