1/trained_models/tetris_final.pt (torch, 20479 bytes, 5 tensors)

conv1.0.weight f4 [64, 4]
0.09942314 -0.80575484 0.26275688 -0.12740257 0.07903986 -0.2964079 0.101482205 0.11704933
-0.092962176 -0.16416855 -0.21049409 -0.030349374 0.009460305 -0.31385815 -0.04548321 0.044955943
0.009470608 -0.06668813 -0.13172905 0.11074102 -0.16438065 -0.20267747 -0.21861994 0.18730158
0.38006663 0.20488541 -0.41982454 -0.045491517 0.15809584 0.12175387 -0.1037631 -0.27480757
-0.11769742 0.074366 -0.06478988 -0.22563736 -0.7366727 0.3132006 0.31811413 -0.21746452
0.26821613 0.10847312 -0.004992187 -0.28084266 -0.037091583 0.04954487 -0.11015327 -0.21389788
-0.21385409 -0.74795514 0.45852134 -0.3350198 0.7168474 0.2243448 -0.37272477 0.0534795
0.095838875 0.123883545 0.25603458 -0.53250617 -0.049144983 0.06846908 0.12632155 -0.27236894
-0.009644012 0.15560433 0.04425057 0.009402063 0.17771354 0.13902223 0.010749012 -0.1243383
-0.13835642 -0.014192192 0.2020012 0.1440381 0.11196502 0.10537959 -0.018758306 0.057309665
-0.1244892 -0.9413136 0.17225997 0.06016535 0.25519127 -0.5772126 -0.28646222 0.11644986
1.604587 -0.21118256 0.48663148 -0.23432484 -0.11207384 0.6319602 0.014887073 -0.050463498
-0.24108122 0.110408805 -0.04909244 0.1695232 -0.059054174 0.1640151 0.06481611 0.0469279
0.012090262 -0.26972908 -0.16699076 0.06353217 0.19640678 0.3684786 0.048460253 -0.012554972
0.12464307 0.13597594 -0.1367946 0.071888715 0.37382045 -0.0560495 -0.46396574 0.08225365
0.07125175 -0.8428541 0.25839722 -0.12554264 0.20809716 0.293656 -0.12699255 -0.24184352
-0.36316824 1.0019199 0.13076687 -0.17624527 0.008546968 0.017559623 -0.021463167 0.06121996
-0.029510383 -0.13367707 -0.086475 0.016922345 -0.20545137 0.88939637 0.16027902 -0.11076977
-0.10930048 0.26177406 -0.0011205375 -0.2415659 0.22200143 -0.17774945 -0.25798282 -0.080296144
0.24180216 0.20466211 0.10730222 -0.23565936 0.011099871 -0.26345867 0.091400675 0.03942424
-0.55731726 0.56675714 0.6081984 -0.1399366 -0.38526163 0.08966351 -0.0024960279 0.044245604
-0.21268989 -0.1532057 -0.07554434 0.044674654 -0.009981929 -0.31833562 -0.046386536 0.058293026
-0.23990816 -0.04402694 -0.044556886 -0.29353172 -0.04301655 -0.4607891 -0.07210391 0.06329902
-0.1370131 -0.08190938 -0.09679661 0.09131741 0.56053936 0.35528886 0.48692447 -0.44747838
0.10886949 -0.058968194 0.19501041 -0.5071743 -0.4083399 0.04402176 0.17720643 0.15570523
-0.28817603 -0.077052265 0.008144528 -0.10780506 -0.11598653 -0.45913365 0.0871669 0.029745836
-0.010073906 0.5685414 -0.16414827 -0.009307761 0.14965719 0.05159217 0.09776208 -0.2680719
-0.15507498 0.16600496 0.119311035 -0.29382178 -0.41497684 0.061018515 0.06401086 0.0036439365
-0.14309762 -0.08213297 -0.081564546 0.053770576 -0.19293226 0.2646218 0.216321 -0.03750288
0.12841865 0.042685658 -0.17469187 -0.06628561 0.16823244 0.24458694 0.08063549 -0.26587936
-0.23364154 -0.13654321 -0.24676463 0.20267123 0.17219481 -0.012750477 -0.17595829 -0.08334187
-0.32896253 -0.60977226 0.29461595 0.11449766 -0.016476784 0.3559103 0.06336175 -0.008609186
00000000: 5c9e cb3d f345 4ebf 1288 863e d275 02be
00000010: a6df a13d c7c2 97be e7d5 cf3d 8fb7 ef3d
00000020: f462 bebd cd1b 28be c38b 57be 409f f8bc
00000030: 65ff 1a3c 04b2 a0be 9a4c 3abd b923 383d
00000040: 9c2a 1b3c c993 88bd fbe3 06be 30cc e23d
00000050: 6753 28be af8a 4fbe e8dd 5fbe fccb 3f3e
00000060: 1898 c23e 7bcd 513e 3ef3 d6be 5055 3abd
00000070: e0e3 213e 185a f93d c081 d4bd 94b3 8cbe
00000080: 580b f1bd 344d 983d 8eb0 84bd 7b0d 67be
00000090: 9596 3cbf d45b a03e dbdf a23e 05af 5ebe
000000a0: a053 893e 2827 de3d 8095 a3bb 9cca 8fbe
000000b0: 58ed 17bd 90ef 4a3d 0a98 e1bd 0c08 5bbe
000000c0: 91fc 5abe fd79 3fbf 4fc3 ea3e b787 abbe
000000d0: 5083 373f a5ba 653e c8d5 bebe 520d 5b3d
000000e0: 2c47 c43d a8b6 fd3d f716 833e 5352 08bf
000000f0: 404c 49bd 8439 8c3d 705a 013e f173 8bbe
00000100: eb01 1ebc be56 1f3e 1640 353d 1c0b 1a3c
00000110: 8afa 353e d85b 0e3e a01c 303c 14a5 febd
00000120: 4ead 0dbe 5e86 68bc 67d9 4e3e b97e 133e
00000130: eb4d e53d 41d1 d73d 05ab 99bc 8abd 6a3d
00000140: 32f4 febd eef9 70bf eb64 303e f16f 763d
00000150: 6ea8 823e 34c4 13bf 2dab 92be 447d ee3d
00000160: 1b63 cd3f 3e40 58be c327 f93e daf2 6fbe
00000170: f886 e5bd 25c8 213f e9e8 733c d0b2 4ebd
00000180: ffdd 76be 031e e23d 2815 49bd 7d97 2d3e
00000190: cae2 71bd 93f3 273e 4fbe 843d 7837 403d
000001a0: 3c16 463c ee19 8abe a0ff 2abe 281d 823d
000001b0: dc1e 493e 3aa9 bc3e 427e 463d 5fb3 4dbc
000001c0: de44 ff3d 473d 0b3e e213 0cbe 643a 933d
000001d0: 6565 bf3e 2994 65bd eb8c edbe 9a74 a83d
000001e0: 70ec 913d 49c5 57bf a44c 843e 408e 00be
000001f0: 6c17 553e 145a 963e 560a 02be d4a5 77be
00000200: 30f1 b9be e93e 803f c0e7 053e a479 34be
00000210: 9508 0c3c 33d9 8f3c 86d3 afbc c8c1 7a3d
00000220: c2bf f1bc a4e2 08be ce19 b1bd bba0 8a3c
00000230: d861 52be 7baf 633f 2f20 243e 43db e2bd
00000240: eed8 dfbd 4007 863e 00df 92ba 0d5d 77be
00000250: 5854 633e f403 36be 5316 84be 4e72 a4bd
00000260: fc9a 773e f292 513e 44c1 db3d b050 71be
00000270: 3cdc 353c 0ee4 86be 4730 bb3d 507b 213d
00000280: 58ac 0ebf ff16 113f e4b2 1b3f 8a4b 0fbe
00000290: 0341 c5be 81a1 b73d 6694 23bb e13a 353d
000002a0: 61cb 59be f4e1 1cbe feb6 9abd c5fc 363d
000002b0: 3f8b 23bc e3fc a2be cfff 3dbd abc4 6e3d
000002c0: 7caa 75be 9855 34bd 4881 36bd ca49 96be
000002d0: 1f32 30bd 8dec ebbe 37ab 93bd eba2 813d
000002e0: 294d 0cbe 1bc0 a7bd 4d3d c6bd 9f04 bb3d
000002f0: 827f 0f3f 6ce8 b53e 2a4e f93e e31b e5be
00000300: f8f6 de3d a288 71bd cfb0 473e 2dd6 01bf
00000310: ed11 d1be 2950 343d 9a75 353e 3171 1f3e
00000320: cf8b 93be 94cd 9dbd a070 053c e6c8 dcbd
00000330: 598a edbd 9113 ebbe 8f84 b23d 8aad f33c
00000340: 060d 25bc ee8b 113f 7c16 28be 947f 18bc
00000350: bc3f 193e 5052 533d 7c37 c83d b840 89be
00000360: facb 1ebe 34fd 293e 5859 f43d cf6f 96be
00000370: d877 d4be 8dee 793d 2018 833d 1ccf 6e3b
00000380: 2f88 12be 5535 a8bd 500b a7bd 893e 5c3d
00000390: 0990 45be 827c 873e 4183 5d3e 9f9c 19bd
000003a0: 2e80 033e 28d7 2e3d 6de2 32be c0c0 87bd
000003b0: 2045 2c3e 0075 7a3e 3824 a53d 5721 88be
000003c0: ba3f 6fbe fcd1 0bbe deaf 7cbe 0c89 4f3e
000003d0: d653 303e 60e7 50bc 692e 34be 24af aabd
000003e0: c76d a8be 091a 1cbf e7d7 963e c07d ea3d
000003f0: 52fa 86bc e039 b63e cec3 813d 8b0d 0dbc

conv1.0.bias f4 [64]
0.65796024 1.2503226 0.0 1.8003237 -2.6477349 1.7846228 0.8378704 0.0
0.0 0.87580377 0.0 0.0 0.8903791 2.0636127 0.5851961 0.0
-2.7788074 0.0 -2.0424185 -2.3539207 -2.1005967 -2.4161544 0.7602306 -0.79811364
-1.8265505 -1.9792478 1.5484328 2.0702195 1.5159419 1.7424213 0.8412293 0.0
0.9375674 -2.2093766 1.9569718 0.22184788 0.0 0.0 -0.0364805 1.7047857
0.51029414 0.96287555 1.9352344 -2.6910534 0.0 1.7429181 -2.3175602 -0.14694917
0.84161514 -2.1276243 0.0 2.0523813 -2.1416838 0.0 0.0 -1.6813792
2.162433 1.8346859 0.0 0.0 1.5031195 0.0 -2.1808617 -2.8583894
00000000: 1570 283f 920a a03f 0000 0000 0271 e63f
00000010: 7d74 29c0 856e e43f ad7e 563f 0000 0000
00000020: 0000 0000 ad34 603f 0000 0000 0000 0000
00000030: e2ef 633f 3b12 0440 69cf 153f 0000 0000
00000040: fbd7 31c0 0000 0000 fcb6 02c0 a3a6 16c0
00000050: 2d70 06c0 46a2 1ac0 799e 423f 2d51 4cbf
00000060: 68cc e9bf fe57 fdbf 0c33 c63f 7a7e 0440
00000070: 620a c23f a907 df3f ce5a 573f 0000 0000
00000080: 6b04 703f 6d66 0dc0 0d7e fa3f 172c 633e
00000090: 0000 0000 0000 0000 946c 15bd 6b36 da3f
000000a0: a3a2 023f 037f 763f c3b5 f73f 383a 2cc0
000000b0: 0000 0000 f117 df3f e852 14c0 d879 16be
000000c0: 1774 573f ff2a 08c0 0000 0000 375a 0340
000000d0: 5911 09c0 0000 0000 0000 0000 6f37 d7bf
000000e0: 4d65 0a40 fdd6 ea3f 0000 0000 0000 0000
000000f0: 3866 c03f 0000 0000 3d93 0bc0 daef 36c0

conv2.0.weight f4 [64, 64]
-0.1617849 -0.09308363 -0.1899781 -0.015285715 -0.0382642 0.101057634 0.21054466 0.021081716
0.19679974 -0.19070819 -0.0702848 0.15775792 -0.051899165 -0.21316494 0.0052892566 -0.10265676
0.072507545 0.18046014 -0.15252012 0.07645826 -0.10754073 0.090963975 -0.15415755 -0.14104757
0.09138568 -0.14532527 -0.000626117 -0.12603337 0.12574829 -0.15814182 0.08963792 0.11353515
0.12011449 -0.060312286 0.18885897 -0.12912062 -0.027642563 -0.11760656 0.075798884 0.015129104
0.089570835 -0.21186112 -0.19077684 -0.12913951 0.2026019 0.16275667 -0.09978307 0.086327806
-0.069574 0.092821375 -0.1833332 -0.11448094 0.1298077 0.12367882 0.19946699 0.0050761253
0.21492882 -0.13031608 0.06424852 0.012872785 -0.1679467 -0.1099946 -0.10027608 0.07850833
0.37149996 0.09524814 -0.19691683 -0.007678696 0.1421518 -0.46208405 -0.2376043 -0.17625096
0.09968774 0.5695191 -0.056272 0.20816953 0.8844037 -0.8251737 -1.4893862 0.020641953
-0.33382612 0.15424158 -0.6665169 -0.09072859 0.567387 -0.10377805 0.670556 -0.9591047
-1.4052913 -0.5031784 -0.34053773 -0.2134925 -0.41552347 -0.9849985 0.5837555 -0.13579361
0.36824274 0.12976058 -0.14033304 -0.2694566 0.11521636 0.05208607 -0.012646407 -0.052395307
0.16522586 -0.28219426 -0.19225036 -0.10373682 -0.011994585 0.07408931 0.14783064 1.2923572
-1.1159326 -0.6322584 0.03205207 -0.08081415 0.0018897377 0.16886087 0.12245281 -0.5596583
-0.16306977 -0.04756681 -0.09176816 -0.063781425 -0.5875749 0.08621912 -0.21524651 -0.15026765
0.04342736 -0.009637653 0.123826936 0.7057092 -0.37110496 0.25101143 -0.61376745 0.017507479
0.056876197 -1.221434 0.18207605 0.17844258 -1.9890811 0.37803724 -0.52094305 -0.19988434
-0.70669466 0.16789363 -0.004849114 -0.23984832 -1.6988171 -0.37456754 -2.0997908 -0.25963622
-0.13233376 -0.2830587 0.10829038 0.16655076 0.21402198 0.4748555 0.4880264 0.09137423
-1.6713495 -0.76247007 0.86128044 -1.6112623 -0.16527742 -0.1564979 0.073879376 0.5407399
-1.0320154 0.14415309 0.41817933 -0.32691398 0.083308354 0.91032046 -0.060666006 -0.94845515
-0.59702927 -0.0041671 -0.09018983 0.16312157 -1.0478694 0.071337774 -0.04547514 -0.17517401
0.35572308 0.37901458 -0.00965032 -0.21579166 0.43005335 0.06907733 0.18192261 -2.025925
0.7872736 0.00396561 -0.077780694 0.20814668 -0.22427979 0.01677119 -0.04607689 0.09111999
-0.09233179 0.1623062 -0.10195881 -0.17817834 -1.2920185 -0.121052116 -0.5229861 -0.045710832
-0.11215953 -0.08003268 0.094906375 -0.05818098 -0.7729604 -0.3676526 -0.23155876 0.21527429
0.18370663 0.09595913 -0.08189921 0.70560807 -0.018561834 0.26478228 0.9615383 0.11003913
0.2684202 -0.084127575 0.80571026 0.23920302 0.031385332 0.12705745 0.11499472 0.023188578
0.19551042 -0.071021736 0.6613844 -0.2685795 0.15387107 0.64331275 -0.20132217 0.9306389
-0.6858675 -0.066176936 0.21644045 0.1983286 0.01807163 -0.118149415 -0.17822488 0.048170403
0.13703181 0.35824266 0.1131217 0.09296693 0.05642892 -0.15387374 0.20415784 -0.31775916
00000000: f1aa 25be a1a2 bebd 9e89 42be f070 7abc
00000010: ecba 1cbd 4ef7 ce3d 0599 573e 90b3 ac3c
00000020: df85 493e 0249 43be 7af1 8fbd 4b8b 213e
00000030: 3894 54bd e947 5abe 8051 ad3b b53d d2bd
00000040: d67e 943d 8bca 383e 3c2e 1cbe 2696 9c3d
00000050: 503e dcbd 524b ba3d 7adb 1dbe c66e 10be
00000060: 6a28 bb3d 26d0 14be 0022 24ba e40e 01be
00000070: 29c4 003e eeef 21be 1694 b73d 1e85 e83d
00000080: 96fe f53d 040a 77bd 3f64 413e 3238 04be
00000090: a872 e2bc b5db f0bd 723c 9b3d 10e0 773c
000000a0: ea70 b73d 1ff2 58be 015b 43be 263d 04be
000000b0: df76 4f3e afa9 263e 115b ccbd a2cc b03d
000000c0: d07c 8ebd 2219 be3d b3bb 3bbe fc74 eabd
000000d0: 4fec 043e 524b fd3d 1341 4c3e a055 a63b
000000e0: 4d16 5c3e 9471 05be ba94 833d 60e8 523c
000000f0: 38fa 2bbe d944 e1bd 8c5d cdbd fac8 a03d
00000100: 3e35 be3e 7511 c33d 91a4 49be 929d fbbb
00000110: 3e90 113e 4896 ecbe 8b4e 73be 227b 34be
00000120: 1629 cc3d 01cc 113f 787d 66bd 652a 553e
00000130: 4868 623f 953e 53bf 35a4 bebf 5019 a93c
00000140: 42eb aabe 81f1 1d3e daa0 2abf e9cf b9bd
00000150: 4640 113f 9689 d4bd 8fa9 2b3f e387 75bf
00000160: 96e0 b3bf 4dd0 00bf f65a aebe c79d 5abe
00000170: 7ebf d4be dd28 7cbf 0071 153f 7b0d 0bbe
00000180: 508a bc3e f5df 043e 77b3 0fbe 37f6 89be
00000190: 8ef6 eb3d 3458 553d e032 4fbc 769c 56bd
000001a0: f830 293e c47b 90be 47dd 44be f873 d4bd
000001b0: f084 44bc 23bc 973d ea60 173e f66b a53f
000001c0: e1d6 8ebf b0db 21bf 0849 033d e481 a5bd
000001d0: 13b1 f73a dde9 2c3e 8ac8 fa3d c445 0fbf
000001e0: c3fb 26be 6ad5 42bd f2f0 bbbd d69f 82bd
000001f0: 4f6b 16bf a693 b03d 9569 5cbe c3df 19be
00000200: e3e0 313d 3fe7 1dbc fa98 fd3d 5ca9 343f
00000210: 7801 bebe 9284 803e dd1f 1dbf d86b 8f3c
00000220: 04f7 683d f357 9cbf 2572 3a3e a7b9 363e
00000230: 369a febf 198e c13e 865c 05bf 7bae 4cbe
00000240: f1e9 34bf 4fec 2b3e 51e5 9ebb cc9a 75be
00000250: d772 d9bf 51c7 bfbe f962 06c0 0aef 84be
00000260: 8082 07be 12ed 90be 59c7 dd3d 488c 2a3e
00000270: 9428 5b3e 4320 f33e 99de f93e 6a22 bb3d
00000280: c8ee d5bf 3d31 43bf e07c 5c3f d83d cebf
00000290: 7c3e 29be fc40 20be 124e 973d ee6d 0a3f
000002a0: 1519 84bf de9c 133e 9a1b d63e 4561 a7be
000002b0: 929d aa3d c30a 693f eb7c 78bd f5cd 72bf
000002c0: e9d6 18bf 2b8c 88bb 72b5 b8bd 5709 273e
000002d0: 9620 86bf 8a19 923d 2444 3abd d160 33be
000002e0: 5621 b63e 330e c23e 601c 1ebc 7df8 5cbe
000002f0: f42f dc3e 6a78 8d3d ec49 3a3e c1a8 01c0
00000300: c38a 493f f3f1 813b 7c4b 9fbd 6724 553e
00000310: 9aa9 65be bc63 893c 1fbb 3cbd 1e9d ba3d
00000320: 7318 bdbd 9933 263e c8cf d0bd 6274 36be
00000330: dd60 a5bf 2cea f7bd 6be2 05bf 483b 3bbd
00000340: e5b3 e5bd 2ce8 a3bd 465e c23d 2e4f 6ebd
00000350: bce0 45bf f63c bcbe bd1d 6dbe dd70 5c3e
00000360: 971d 3c3e 3886 c43d c6ba a7bd bba2 343f
00000370: fd0e 98bc 8b91 873e 6027 763f 325c e13d
00000380: 5f6e 893e 144b acbd 0743 4e3f a3f1 743e
00000390: e88d 003d 591b 023e 5a82 eb3d f9f5 bd3c
000003a0: e233 483e d873 91bd 7d50 293f 4183 89be
000003b0: 6190 1d3e 25b0 243f 6627 4ebe 5a3e 6e3f
000003c0: 0395 2fbf c687 87bd 91a2 5d3e a716 4b3e
000003d0: f40a 943c 52f8 f1bd 9580 36be 544e 453d
000003e0: 1152 0c3e 956b b73e 5aac e73d 7265 be3d
000003f0: 0322 673d 1491 1dbe c10e 513e 54b1 a2be

conv2.0.bias f4 [64]
0.0 0.0111960005 1.5223205 1.5063576 -0.02456388 1.3458935 -2.1445668 1.4512229
-0.036323026 1.3271238 1.4367489 1.3460516 1.5152723 -0.06641354 1.2592872 -0.0083056595
1.3554094 -0.051704295 1.5683714 -0.014831952 -1.8959839 0.0 -2.0397356 1.3073713
1.5820942 -0.011990068 0.0 -2.1976855 1.3776268 1.2753136 1.4723058 1.1508178
1.5578853 1.2949818 1.4455127 1.6976019 1.3226788 -0.029788211 -0.031447377 1.3013396
1.2441252 -1.9331869 -0.007718182 -1.212266 1.216204 -1.9223276 0.60917234 1.4095833
1.3875177 -0.03278109 1.3885078 -0.015314406 -1.9485524 1.5100021 -1.7675016 -0.0362473
-1.8954319 -0.031432256 1.3099619 -1.9331564 -1.9694481 0.26264304 1.3598992 0.0
00000000: 0000 0000 6e6f 373c 66db c23f 53d0 c03f
00000010: 313a c9bc 3d46 ac3f 9540 09c0 acc1 b93f
00000020: 74c7 14bd 31df a93f 63e7 b73f 6b4b ac3f
00000030: 71f4 c13f d203 88bd 5330 a13f 7614 08bc
00000040: 0e7e ad3f e2c7 53bd 65c0 c83f b701 73bc
00000050: 9aaf f2bf 0000 0000 078b 02c0 f157 a73f
00000060: 1082 ca3f fd71 44bc 0000 0000 e1a6 0cc0
00000070: 1356 b03f 7a3d a33f 8474 bc3f ff4d 933f
00000080: c968 c73f f7c1 a53f 8f06 b93f 054b d93f
00000090: 8a4d a93f 6806 f4bc f7ce 00bd 4c92 a63f
000000a0: 7f3f 9f3f ab72 f7bf cee8 fcbb 882b 9bbf
000000b0: 93ac 9b3f d50e f6bf b8f2 1b3f 3a6d b43f
000000c0: 2e9a b13f 7745 06bd a0ba b13f 46e9 7abc
000000d0: 2a6a f9bf c047 c13f 7e3d e2bf 0d78 14bd
000000e0: 839d f2bf 1cbf 00bd d5ac a73f ab71 f7bf
000000f0: e016 fcbf 2679 863e 2d11 ae3f 0000 0000

conv3.0.weight f4 [1, 64]
0.2097199 1.7470199 1.6321437 0.25079715 -0.029843478 1.2454258 -1.1966084 1.6190302
0.23332462 0.24647194 2.1309853 0.48588 1.6263611 -0.15842126 0.45933998 0.259527
0.8814723 -0.25094858 1.5028899 -0.07115059 -0.83520395 0.08977449 -0.90568966 2.0324826
1.0663244 -0.29055735 0.26351905 -1.3284041 1.302701 0.52953166 0.42513746 -2.0714715
1.7617805 1.7879056 0.9095524 0.8831346 1.5090487 0.08477358 0.003966213 1.6935543
0.4717778 -1.0691977 0.28917506 -1.2753786 0.32307956 -0.9543421 -1.0781003 1.7296373
1.7732263 -0.090932414 0.4613581 -0.0005292255 -0.9575338 0.99683553 -1.3548877 -0.0263313
-0.88819253 0.1755637 0.51666903 -1.604472 -1.306879 -1.4382311 0.6634139 -0.17829892
00000000: d0c0 563e 599e df3f 16ea d03f 7c68 803e
00000010: 4f7a f4bc 1d6a 9f3f 772a 99bf 623c cf3f
00000020: a6ec 6e3e 2463 7c3e 1062 0840 43c5 f83e
00000030: 9a2c d03f 2f39 22be 9c2e eb3e b9e0 843e
00000040: 2ba8 613f 557c 80be b25e c03f 67b7 91bd
00000050: edcf 55bf b0db b73d 47db 67bf 3214 0240
00000060: 517d 883f efc3 94be f8eb 863e 2509 aabf
00000070: e8be a63f 638f 073f 9eab d93e fd92 04c0
00000080: 0682 e13f 17da e43f 6dd8 683f 1c15 623f
00000090: 8228 c13f c59d ad3d 02f7 813b 63c6 d83f
000000a0: dc8c f13e 78db 88bf c10e 943e 9b3f a3bf
000000b0: af6a a53e c44f 74bf 31ff 89bf c164 dd3f
000000c0: 14f9 e23f c63a babd 2137 ec3e b9bb 0aba
000000d0: ef20 75bf 9d30 7f3f f66c adbf bdb4 d7bc
000000e0: 9660 63bf f8c6 333e 6c44 043f 575f cdbf
000000f0: d047 a7bf f517 b8bf 7ed5 293f fe93 36be
